feature-compress-incremental/outputs/finetune_replay_5/best_finetune.ckpt (torch, 25557 bytes, 2 tensors)

head.weight f4 [11, 512]
000000 44 1f 6a 3d 2f e4 13 ba 00 4f 67 bd bf d9 61 bd
       0.057158723 -0.0005641607 -0.056471825 -0.0551393
000010 55 13 09 3e 2a a4 7f bb 0e c3 14 be 99 7b 8a be
       0.13386281 -0.0039007762 -0.14527532 -0.27047423
000020 a3 04 f8 bc 68 ea c9 3c 5f a4 bf bd fb 01 00 3e
       -0.030275648 0.024647906 -0.09357523 0.12500755
000030 66 a8 75 be af cb 8c be 37 2c 9c bc 9f 12 f3 bd
       -0.2399002 -0.27499148 -0.019064052 -0.11868786
000040 db 7f 1f be 1d eb 2a 3e c6 57 3b 3c 82 fa 8f 3e
       -0.15576117 0.16691251 0.011434501 0.2812081
000050 18 ce 9c 3e 4a 7d 55 be ae 8f db 3d 4a 73 3c 3e
       0.30625987 -0.20848575 0.10720764 0.18403354
000060 0c 60 a6 3d 37 64 9e 3d 7c 49 35 3e 6d 58 04 3d
       0.08123788 0.07733958 0.17703813 0.032310892
000070 26 3a 95 3d 04 04 7c 3c ed 56 d0 3d 20 82 5c 3c
       0.072864816 0.015381817 0.1017283 0.013458759
000080 e7 c8 65 3c ea c0 46 bc da a3 05 be 95 34 70 bd
       0.01402495 -0.012130955 -0.13050786 -0.058643896
000090 7e cc 91 3d a8 e8 d1 bd 98 dc 46 3e a7 e3 28 3e
       0.07119082 -0.10249454 0.19420087 0.16493092
0000a0 2f 3d da bd 64 91 3e 3c d2 11 b2 3d 40 8d 39 3e
       -0.10656201 0.0116313435 0.08694805 0.18120289
0000b0 fb a0 97 bd d0 ec 98 3d 56 01 c4 3d e2 5d 61 3c
       -0.074037515 0.074670434 0.09570567 0.013755294
0000c0 46 cb 37 3d d2 b5 24 3e 38 2d 22 be 50 b3 07 bd
       0.04487159 0.16084984 -0.15837562 -0.03312999
0000d0 8d 81 26 3e 85 3c 36 3c 13 dd dd bd 73 c8 84 bc
       0.16260357 0.011122827 -0.10833182 -0.016208863
0000e0 08 a9 fa 3d 2f 16 4a bc b2 5c 06 39 6b 72 73 be
       0.122392714 -0.012334391 0.00012813768 -0.23774116
0000f0 e7 f3 e2 bd be fa 41 3d fa 5c df bc aa 92 0e 3b
       -0.11081677 0.047358267 -0.027266014 0.00217549
000100 74 e1 44 bd 4c 55 2b be 71 6c 24 be cd 9d e3 3d
       -0.04806657 -0.16731757 -0.16056992 0.111140825
000110 b8 67 f4 bd 37 a0 99 be c8 6f 1c 3c 8d 7e 3f 3e
       -0.11933845 -0.30005047 0.009548135 0.18700619
000120 66 ad d0 3c 7b 41 d0 3d d0 83 a9 3e 92 4f 40 be
       0.025473308 0.101687394 0.33108377 -0.18780354
000130 3f 84 ce 3c 53 07 4f be 8f eb ad 3d a9 f5 30 3e
       0.025209544 -0.20217638 0.08492195 0.17281212
000140 f6 67 3c 3c e3 60 60 3d e0 f3 bd bd d4 2e aa bd
       0.011499396 0.0547799 -0.09275031 -0.08309713
000150 35 c3 be bb db db 18 be 78 c9 1b be 16 f1 18 be
       -0.0058216103 -0.14927618 -0.15213573 -0.14935717
000160 e6 56 9f 3d 1f cf 41 be 2d 31 ba bd e6 2f 01 3e
       0.077802464 -0.18926667 -0.09091411 0.12615928
000170 ef c3 0e 3e 99 5a a7 bd 23 70 6b be 53 ac 3c be
       0.1394193 -0.08171577 -0.22991996 -0.18425111
000180 cc c8 9c be 31 50 bc bd aa c1 1a 3e 72 fb b9 3e
       -0.30621946 -0.09194983 0.1511294 0.3632465
000190 93 67 cc 3d 39 35 25 3d 44 63 f9 bd 66 29 1b 3d
       0.09980693 0.04033396 -0.121771365 0.037881278
0001a0 da f8 94 be 70 77 4c be d1 77 70 be 7f d4 8b 3c
       -0.2909611 -0.19967437 -0.23483206 0.0170691
0001b0 6d 83 4b 3e 09 33 ec 3c 6c fd e1 bc f3 2a bf bb
       0.19874354 0.02883293 -0.027586661 -0.0058339774
0001c0 cf cd b8 3d 2c 48 4e 3e 33 0f 37 3e 57 84 30 be
       0.0902363 0.20144719 0.17876892 -0.17237984
0001d0 1b 46 e3 3d 94 3e 4d bd 0a 71 ef 3c 6f 56 86 bd
       0.11097356 -0.050108507 0.029228706 -0.06559455
0001e0 91 b0 79 3d 90 79 bb 3d 46 70 ee 3d 54 14 24 3e
       0.060959402 0.091540456 0.11642508 0.1602338
0001f0 82 ad 2f 3e b5 30 aa 3d 65 dd 83 be d9 fe 62 bd
       0.17156032 0.083100714 -0.25754848 -0.055418823
000200 ba 5a 0f 3e 08 5b 0c be b1 a0 17 be 96 45 d4 bc
       0.13999453 -0.137066 -0.14807393 -0.025912087
000210 5e ae e2 3c 20 0a f2 3d 58 0c 11 be ca c2 e5 3d
       0.027671035 0.118183374 -0.14164865 0.11218794
000220 95 7c 8f be 63 21 74 3e 62 df 9a bc be bb 21 bd
       -0.28024736 0.23840861 -0.018905345 -0.039485686
000230 13 d4 ba bd d3 ca 97 bd ca 0c 0a 3d db 3c 30 bb
       -0.09122481 -0.074117325 0.033703603 -0.0026891741
000240 82 a8 92 3d 8b e8 3b 3e aa a7 39 3e bf 4c 98 bd
       0.071610466 0.18350427 0.18130365 -0.07436513
000250 2f 08 0d be 45 06 74 3c 98 67 68 3e 89 23 15 bd
       -0.13772653 0.014894073 0.22695768 -0.036410842
000260 20 a2 11 3e 56 79 c4 3d c7 65 a8 bc 3f 15 80 3e
       0.14222002 0.095934555 -0.020556344 0.2501621
000270 04 11 6e 3e 07 26 13 3e c9 b2 b0 3c 0e 4b e4 bc
       0.23248678 0.14369975 0.021569626 -0.02786782
000280 fd 1a 77 3e 08 a5 1c bd de d5 d9 3c 79 2d a7 bd
       0.24131389 -0.038243324 0.026591238 -0.0816297
000290 a6 f3 82 3d 0c 8b 93 3e 33 bc bf 3a 12 9a 77 3d
       0.063941285 0.28817022 0.0014628231 0.060449667
0002a0 31 2a 4d bc 67 fa c1 3d 19 e2 88 3d 86 72 91 bd
       -0.012522266 0.094715886 0.0668375 -0.07101922
0002b0 ad fc 02 be 7d 2a 95 3d a5 62 06 3d ee 6c 6e 3b
       -0.127917 0.072834946 0.03280892 0.0036380845
0002c0 bc 37 49 bd 3d e4 7a 3e 22 e8 d5 bd bb 8e 2f bd
       -0.049125418 0.24501128 -0.104446664 -0.042860728
0002d0 8f 90 3b 3d 53 ec 26 be 10 51 62 3d 29 0f d7 bd
       0.04579216 -0.16301088 0.05525309 -0.105009384
0002e0 13 b4 11 3e 88 d9 3c be dc 80 a9 bd 33 a6 1d 3e
       0.14228849 -0.18442357 -0.08276531 0.15395431
0002f0 7e 62 fa 3d 4b e1 df bd 13 9f af 3d 5d f2 e6 3d
       0.12225817 -0.10931643 0.08575263 0.11276696
000300 9a 5b e1 bd b4 c5 6f be 58 14 34 bd c4 ae 47 3d
       -0.110038 -0.23415262 -0.043964714 0.048750654
000310 29 81 00 3e 6c 9d e4 3d 09 75 de bd 04 b8 0f 3e
       0.1254927 0.11162838 -0.108621664 0.1403504
000320 36 0f 78 3d 3c 11 73 bc 37 35 a4 bd a3 02 91 be
       0.06056138 -0.014835652 -0.080179624 -0.28322324
000330 d7 12 3f 3e 42 71 65 3e 37 10 04 3e f3 8f 77 bd
       0.1865953 0.22406486 0.1289681 -0.060440015
000340 95 df 89 3c 78 16 19 3e 82 da 12 bd 7a 15 7b 3d
       0.016830245 0.14949977 -0.035852917 0.06129978
000350 8c 1b a0 bc 3e 4e 73 3d 46 29 27 bd bb 00 c9 bd
       -0.019544385 0.05940079 -0.040810846 -0.098145925
000360 de f1 96 bd ca 1f 85 bd aa 08 59 be e4 6f 1d bd
       -0.07370351 -0.06500204 -0.21194711 -0.038436785
000370 4b a1 6b bd 96 da 15 be e2 f3 3c 3d e1 63 b7 3d
       -0.057526868 -0.14634165 0.046131022 0.08954597
000380 14 e9 88 3d c7 25 d0 3d b5 06 fd 3d 47 02 90 3d
       0.06685081 0.101634555 0.12354795 0.07031684
000390 e3 2f 1a 3e aa a5 30 3c 1a f1 62 be 43 2a 37 3e
       0.1505733 0.010781685 -0.22162285 0.17887215
0003a0 9f c9 d5 3c 93 25 76 3d f1 e7 91 3d 56 36 f5 3b
       0.026097117 0.060094427 0.071243174 0.007483284
0003b0 a5 72 90 3d e3 f0 f0 3d 9f e6 d0 bd a4 4d 4c 3e
       0.07053117 0.117646955 -0.102002375 0.19951493
0003c0 64 52 d0 3e d8 66 05 be fc 08 2e 3d e5 28 3e bd
       0.4068786 -0.13027513 0.042489037 -0.04642572
0003d0 c2 9d 86 3b 06 9e 6d 3d c3 60 73 be 7e 42 be bd
       0.0041081617 0.05801203 -0.2376738 -0.09290026
0003e0 46 fb 9e bb c8 41 0d bd c2 45 68 3c 25 9b 8c 3e
       -0.0048517315 -0.034486562 0.014176788 0.27462116
0003f0 cb 57 84 bd 8a 22 7d 3e cd 63 86 be 9b b3 4c 3e
       -0.06462058 0.24720207 -0.26248017 0.19990389

head.bias f4 [11]
000000 a0 dd 35 3e 61 d0 85 bd a4 80 14 be e8 31 2c be
       0.17760324 -0.06533886 -0.14502198 -0.16815913
000010 56 19 38 be 1d 33 fd bd 3b 67 8a bd 65 3c 2f be
       -0.17978415 -0.12363265 -0.06757971 -0.17112882
000020 ee 1c 1e be a9 41 a1 bd c0 3c 6a bb
       -0.15440723 -0.07873852 -0.0035741776
