feature-compress-incremental/outputs/compress10_initial/last.ckpt (torch, 24575 bytes, 4 tensors)

mapper.weight f4 [10, 512]
000000 00 b3 22 3e f6 11 0c 3d 2b eb 09 be 70 31 73 be
       0.15888596 0.034196816 -0.13468616 -0.23749328
000010 5d 2f 87 bc b6 43 e8 bd 3e d2 8b be 9f 21 86 be
       -0.016502077 -0.1134104 -0.2730884 -0.26197526
000020 a2 29 4e be bd 82 fd bd b0 17 0a 3c 45 0d c4 3d
       -0.20133069 -0.12378452 0.008428499 0.095728435
000030 6c f7 1d bd f8 a9 54 bd 11 5a c3 bd 03 c8 8a 3c
       -0.038566038 -0.051919907 -0.09538663 0.016941076
000040 20 fc 5c bd 53 94 92 bd 95 72 8a be 45 de a4 bc
       -0.053951383 -0.07157197 -0.27040544 -0.020125518
000050 d4 9c 85 3e 21 cd 95 be 56 4c 1b 3d fc 8c d9 3d
       0.26096213 -0.29258063 0.037914596 0.10622594
000060 c3 c1 1c bd 7e 97 42 3e 16 9f 25 3e be 4a 35 ba
       -0.038270723 0.19003102 0.16173968 -0.00069157395
000070 d1 b4 bc bd 70 8c f9 bd 6e 3e 87 3a e5 be 18 3e
       -0.092141755 -0.121849895 0.0010318288 0.1491657
000080 7a ed d5 3d 12 ba 85 bd a8 82 2e be 9c d9 63 bd
       0.10445686 -0.06529631 -0.17042029 -0.05562745
000090 94 19 02 bd ca ea ed bd b2 d7 3f 3e c8 d4 34 bd
       -0.031762674 -0.11617048 0.18734625 -0.044148237
0000a0 ac 3a 89 3e b7 48 67 3e 15 c2 15 3e b8 fb 0d be
       0.26802576 0.22586332 0.14624818 -0.13865554
0000b0 35 25 c1 3c 3a d0 39 3e 6d 00 36 3e 8a f0 0c 3e
       0.023577312 0.18145838 0.177736 0.13763633
0000c0 ad f9 1c bd 9c 04 38 3e e2 19 26 be c1 05 8d 3d
       -0.038324047 0.17970508 -0.16220811 0.06885863
0000d0 6b e5 62 3e 25 b2 55 be 3b 24 0c 3c 3c ef 9d bc
       0.22157829 -0.20868738 0.00855356 -0.019279115
0000e0 e8 2c 48 bb 10 bc ca 3d 30 55 73 3d 00 2b 2c bd
       -0.0030544344 0.09899151 0.059407413 -0.042033195
0000f0 13 91 07 3d 42 b9 cb bd 2c 34 85 be c0 ed d1 bd
       0.033097338 -0.099474445 -0.26016366 -0.10250425
000100 9e a2 24 be 1c 20 bc bd b4 c9 4d 3d 9a 28 55 bd
       -0.16077659 -0.09185812 0.050241187 -0.052040674
000110 87 83 11 3e 15 05 f3 bd c4 c8 87 bd 83 fe 8f 3d
       0.1421033 -0.11866204 -0.0663009 0.07030966
000120 c4 f6 f0 3d 8f bd 87 3d 62 37 51 3e 7b 24 c4 bd
       0.11765817 0.06627952 0.20431283 -0.095772706
000130 21 37 2d 3b 0f 4c 24 bd 5e 4b 45 be 81 f7 28 3e
       0.0026430564 -0.040111598 -0.19267032 0.16500665
000140 fd 9f 0c be 55 2e ee bc 69 cc a5 bd 4e ef a5 bd
       -0.13732906 -0.029074827 -0.08095629 -0.08102284
000150 fa a9 40 be 49 b2 09 be 3d 23 68 be ba c2 b5 3d
       -0.18814841 -0.13446917 -0.22669692 0.08875032
000160 22 30 77 3e dc e7 7c bd 8e a2 06 be c0 b6 42 3e
       0.24139455 -0.061744556 -0.13147947 0.19015026
000170 71 50 a3 3e 99 3b b1 bd 2b 5d bf bd fb 5d 4b bd
       0.3189731 -0.086539455 -0.09343942 -0.049650174
000180 82 e4 8c be 69 1c cc 3c a8 97 92 3d 2c 8f 10 3e
       -0.27518088 0.02491589 0.071578324 0.14117116
000190 88 6a 96 be 49 e7 93 bd 5b 51 6c bd ea c9 6e 3d
       -0.29378152 -0.072218485 -0.057694774 0.05829803
0001a0 40 ae 26 be be fb e3 bc c1 79 05 be 1a f0 19 be
       -0.16277409 -0.027830001 -0.13034727 -0.15032998
0001b0 ca b1 58 3e af 40 a8 3d 09 0e d9 3e 5f 87 2f bd
       0.21161571 0.082154624 0.4239352 -0.04285371
0001c0 f3 f9 55 3d 2c 04 33 bd 68 c3 41 3e 39 98 ba 3c
       0.052240323 -0.04370515 0.18922198 0.022777664
0001d0 b5 ec 17 be 76 ff 1c be 99 1d 57 3d 8a d1 16 be
       -0.1483639 -0.15331826 0.05251846 -0.1472837
0001e0 11 f8 83 bd 76 c8 26 bc d7 73 89 3d 6e 2d c1 3d
       -0.06443799 -0.01017963 0.06711548 0.09432493
0001f0 89 0f 3d 3d e2 92 32 be d9 b6 be bd c4 00 dd 3d
       0.046157394 -0.17438844 -0.09312219 0.10791162
000200 1a 41 02 3d 19 ba 7e be 06 56 9b bd 21 e0 d8 bd
       0.031800367 -0.24875678 -0.07584767 -0.10589624
000210 65 35 c2 3d 28 82 30 3d 8f 6a 1d 3d 38 46 53 3e
       0.094828404 0.043092877 0.0384317 0.20632255
000220 97 25 6c bd 77 59 ca 3b 0d 03 d6 bd 00 64 46 3d
       -0.057653036 0.006175216 -0.10449801 0.04843521
000230 c2 36 68 bd 82 d0 0b be 1b b5 fa 3c 43 4c 8f bd
       -0.056692846 -0.13653758 0.030603936 -0.06996968
000240 8f 4a d3 3d f4 c4 56 3e 7e 89 4f 3e 46 e4 c5 be
       0.10316955 0.20973569 0.20267293 -0.3865072
000250 34 8d d3 bd 7e 8d 69 3e e9 d2 1d 3e 2a 97 9b 3c
       -0.10329667 0.22807881 0.15412487 0.01899298
000260 ec ef 3c be d7 c2 98 3c c4 26 af bd e0 dd 53 3e
       -0.18450898 0.018647594 -0.08552316 0.20690107
000270 db c3 ff bc 7b c5 16 3d 4c 90 ed 3d 36 e5 d0 3c
       -0.03122132 0.036809426 0.11599788 0.025499921
000280 93 eb f1 3d 20 b9 02 bc 80 01 5e bd 07 0f 1f bd
       0.1181251 -0.007978708 -0.05420065 -0.03883269
000290 89 c8 25 3c 81 59 03 be 5f 2b 2e bd 8b 9f a1 bb
       0.010118612 -0.12827112 -0.04252183 -0.004932349
0002a0 20 4e 67 3d bc 03 9f 3d 8c 86 18 3d 68 32 1e bd
       0.05647099 0.07764384 0.03723769 -0.03862229
0002b0 74 df b1 bd 2a a5 30 3e c9 78 30 bd 3b 59 e9 bd
       -0.086851984 0.17250505 -0.04308394 -0.113939725
0002c0 8b c3 cb 3b 77 3e 0e 3d bb 11 5c be 26 5b f1 bd
       0.006218379 0.03472754 -0.21491139 -0.11784963
0002d0 b8 b0 18 3b fe 53 2e bd a6 8f de bd 6b 22 63 bd
       0.0023298692 -0.04256057 -0.108672425 -0.055452745
0002e0 6a c0 71 be 48 93 56 3e 64 56 ab bd e6 91 88 be
       -0.23608556 0.20954621 -0.08366087 -0.26673812
0002f0 e6 11 89 3d aa 2d 10 3b 58 36 c9 3d 1b c7 29 be
       0.06692867 0.0021999874 0.098248184 -0.16579859
000300 ca 8d d4 bd a3 de d1 bd b1 b1 94 bc 3c 73 84 bd
       -0.103786066 -0.10247543 -0.018151136 -0.06467292
000310 9c b5 e0 3d f9 56 36 3d 3e 7a 4d 3e 8f ff be bd
       0.10972139 0.044516537 0.20066163 -0.09326088
000320 1e 64 04 3d 9a d5 6a 3e 15 82 af bc 8b 0e 3e be
       0.03232204 0.22933045 -0.021424333 -0.18560235
000330 ca 8a 63 3e 3a 55 19 3e e1 1e 63 3d 24 2f b3 bd
       0.22220913 0.14973918 0.05544937 -0.08749226
000340 04 2b a3 bd ce e9 3f 3e 4d 92 37 3d dd 51 87 3d
       -0.07967189 0.18741533 0.044817258 0.06607411
000350 6c 16 50 bd 71 10 cc 3d ee d6 6a be c1 57 26 be
       -0.050802633 0.099640734 -0.22933552 -0.16244413
000360 a0 2d 08 be 30 fa 74 bd 12 dd 03 be ab b8 50 3e
       -0.13298655 -0.05980891 -0.128773 0.20382945
000370 33 9c 00 be 8a b9 8c bd 8d 05 b0 3c 04 65 c2 3e
       -0.12559585 -0.06871326 0.021487022 0.37967694
000380 b1 ba 14 be aa c1 d1 3d 19 ed c9 3a 91 d8 e5 bd
       -0.14524342 0.102420166 0.0015405744 -0.112229474
000390 62 54 19 bc 0d bf 53 3d 40 de 46 bd f9 5e 62 3a
       -0.009358497 0.051695872 -0.048551798 0.0008635368
0003a0 7f 08 cb bc 6f f5 1e 3e dc 57 be bc 6d c4 32 3d
       -0.024784325 0.15523313 -0.023235254 0.043644357
0003b0 da 5d 74 bd 9a c9 36 3e 1d 8d cd bd db 98 97 3e
       -0.059659816 0.17850342 -0.10036681 0.29608807
0003c0 6f 5c 92 3e 95 cb 87 bd 37 37 90 3b 31 40 81 bd
       0.28586146 -0.06630627 0.0044011134 -0.06311072
0003d0 2e f3 5f bd 10 c6 a1 3c 5a a3 47 be 23 1e f7 3c
       -0.054675274 0.019747764 -0.19495907 0.030165737
0003e0 60 43 46 3c ef fd cf 3d 96 3e b3 3d 83 75 9d 3d
       0.012101024 0.10155856 0.08752172 0.07688429
0003f0 55 fe f2 3c b5 c0 e1 3d 02 84 84 be 9b 2f 66 3e
       0.02966229 0.11023084 -0.25881964 0.22479098

mapper.bias f4 [10]
000000 a5 e7 d8 3d 4c 32 b5 3d a9 dc 9a 3d 9e 2e e9 3d
       0.10591058 0.08847484 0.07561619 0.11385845
000010 f9 5d e0 ba 55 76 f3 bd 80 8c 7d 3d 27 c6 ec bd
       -0.001711785 -0.118878044 0.06190157 -0.11561232
000020 40 e6 fd bd 8b 2f 07 3e
       -0.12397432 0.1320173

head.weight f4 [10, 10]
000000 fe 22 bd 3e 54 e1 fa 3e 21 e8 d7 3e e6 73 a2 3e
       0.3694076 0.49000037 0.42169288 0.31729048
000010 66 0a 52 3d 4e ed bf be c3 a9 df 3e 0f d8 ca be
       0.051279448 -0.37485737 0.43684205 -0.39617965
000020 ec 14 b0 be 42 8a 40 3e f1 5c 00 3e 70 64 ce be
       -0.34390962 0.18802741 0.12535454 -0.40311003
000030 de 3d 11 3e 0f 4a 28 bf 49 46 d0 bd e2 51 b3 3e
       0.14183757 -0.65738004 -0.10169656 0.3502341
000040 9a 1a b9 be 2b 52 b1 bd a5 9c c7 be 4a 37 1e 3f
       -0.36153108 -0.086582504 -0.38986698 0.61803114
000050 2d 6c 89 be 82 e1 24 bf 6d ed 0c 3f 17 9a 1f be
       -0.26840344 -0.644066 0.55049783 -0.15586124
000060 40 7a af be 99 37 5f 3d 38 cd e5 3e da 18 95 be
       -0.34272957 0.05449638 0.44883132 -0.29120523
000070 1a 6e 07 3f dc d2 78 be d9 06 c8 be af c0 14 3d
       0.52902377 -0.24299186 -0.39067724 0.03631657
000080 b9 11 86 bd 23 b5 cb 3e 93 52 07 bf db d5 3e 3f
       -0.06546349 0.39786634 -0.52860373 0.7454507
000090 49 aa b3 3e c8 3d d1 3e e7 b9 e4 3a e3 7a 1c be
       0.35090855 0.40867448 0.0017450423 -0.15281253
0000a0 5c 2e 58 bf cf 12 ee 3e d9 75 7e 3e 0a 9e 80 bd
       -0.8444574 0.46498725 0.24849643 -0.062801436
0000b0 93 23 51 3e bf 75 c4 3e 72 a4 f6 be f8 03 90 be
       0.20423727 0.38371083 -0.48172337 -0.28128028
0000c0 e4 26 bd be f4 7c 24 bf 21 49 97 be c2 c5 fb be
       -0.36943734 -0.64253163 -0.2954798 -0.49174315
0000d0 1f 29 12 bf 8d 00 07 be b7 90 0d 3f 62 74 ec 3e
       -0.57093996 -0.13183804 0.5529894 0.46182543
0000e0 a4 e4 1f 3f 48 07 09 bf ae e1 3f be 68 6a df 3d
       0.6245825 -0.53526735 -0.18738434 0.10908967
0000f0 b6 9c 7b be 13 4c 75 be 9d a0 3f bf 13 5a 89 3e
       -0.24571499 -0.23954801 -0.7485445 0.26826534
000100 27 47 45 be 42 02 ce be ed a6 bc be ac d5 2a bc
       -0.19265424 -0.40236098 -0.36846104 -0.01042692
000110 49 3a 09 be e6 30 bb 3e da 54 a4 3e 02 ce ea 3e
       -0.1340114 0.36560744 0.32095987 0.45860296
000120 c5 48 2e be c6 7f 7c 3c fe 07 aa be 3d 6f 30 3f
       -0.17019947 0.015411323 -0.33209223 0.68919736
000130 20 3b ea be de 7d 0d bf 90 2d 43 3f 77 10 d2 bb
       -0.45748234 -0.55270183 0.762414 -0.006410654
000140 d6 c2 b7 3e 49 ae 1d bd 09 2e b6 3e 1a ba 92 be
       0.35890836 -0.03849629 0.35581997 -0.2865761
000150 b4 c2 12 3f 72 43 1c 3e 43 d7 21 bd 87 a4 26 3f
       0.57328343 0.15260103 -0.03951193 0.650948
000160 4d 2d 5e 3e 94 9b 1b bf b7 f9 a4 3e 79 7d 82 be
       0.21696968 -0.6078427 0.32221767 -0.25486353
000170 5e b3 b2 bd 5b ca 1d bf 00 ce 56 be 0c 10 66 be
       -0.08725618 -0.61636895 -0.2097702 -0.22467059
000180 78 53 6f be dc 8a 96 be 28 82 80 be ce a5 87 bf
       -0.23371685 -0.29402816 -0.250993 -1.0597475

head.bias f4 [10]
000000 c4 47 3b be c5 3a 9f be e5 c7 90 be 59 48 fc bd
       -0.18289095 -0.31099525 -0.28277507 -0.12318487
000010 55 eb 45 3e 04 7e ae be af 21 8d be f9 ce a6 be
       0.19328053 -0.34080517 -0.2756476 -0.32579783
000020 ab 73 88 3e cf dc 5b bd
       0.26650748 -0.053677376
