feature-compress-incremental/outputs/compress8_initial/best.ckpt (torch, 20351 bytes, 4 tensors)

mapper.weight f4 [8, 512]
00000000: 5ede 183e d7df 123e 608f 093e fac0 223e
00000010: fc97 69be dadd 723e 597b 77be 17b5 f6bd
00000020: 8673 a73d 730e ae3c a1f9 f33c 5143 9dbc
00000030: 8207 853e 2976 e83d 3d31 dc3c 41cb aa3d
00000040: 53b4 d13d 97df 24bd 6678 85be 4a68 afbe
00000050: 671f a33c 3815 14be 3c0b 12bf e43b 67be
00000060: dee7 3cbd 5be2 10be 3f24 18be 4a26 24bd
00000070: 0623 c53d d6e0 d23d 7a40 39be 2908 b1be
00000080: b8b9 71be c774 5fbe c64c 973d 2b1c 903e
00000090: 1e2a d6be ecf5 2c3e 3afa 80be c28a b5bd
000000a0: 529f a33e 4a56 c23d be69 443e 53e8 a0bd
000000b0: e80f f23d afe2 373d 2eff 6fbe 6911 b6be
000000c0: 1236 56be 2850 3d3b 8e43 363e 39a9 adbe
000000d0: 4aa2 04be 76a7 acbd 13ad ddbd fe14 783e
000000e0: 0783 4b3e 4eac 6a3e 071a 4ebe 1328 a93d
000000f0: 0ec2 993e 6ecc b03d 43f5 a13d 268c 8d3e
00000100: 68b7 b13e a19e 99bb 8adb 853c 2d5a 363d
00000110: 4012 18bd da29 19be f4eb 47bc 27e9 58bd
00000120: 2426 e43e f1e3 533e 8b2b 97be 5b9e 20be
00000130: a77b 7abd 2915 693e 278b 13be f708 87be
00000140: 7a4d 173e 8ec0 f7bd f70a f8bd 217a d23c
00000150: 2141 fabe 8244 85be 273e 2fbe d3db ed3d
00000160: 8095 11be 1e97 c73e 3302 f2bd 7428 01be
00000170: cb3d 28be db85 02be f504 61be b6d1 a7be
00000180: 185f 873e f014 6a3d c5a3 753c 4eb6 3f3d
00000190: c1fc 04be 03cc 3bbe 54d5 443e 865d 8bbd
000001a0: 79bc efbb 584f e13d 5a5b e83d a425 63be
000001b0: 76dc debd 3b82 05bd 2814 043e c37b d13c
000001c0: 1a48 a03e b5ca 34be d2c2 77be 7542 bb3c
000001d0: 2e07 3ebd 6a00 033e 2aef 913d 25c6 57bd
000001e0: fe25 bebe 7b1f 9bbe 6ebe 9abe 76e4 883c
000001f0: 30ab f33d 63aa 9a3e 09b4 51be 3669 883e
00000200: 6456 bebe c3d8 52bd c01c b8bc 0498 f0bd
00000210: 62bc f53d 9cc1 88be 68b4 74bd c175 99be
00000220: 35fc a93e 4e53 28be bcfd 62bd 5479 d5bd
00000230: ab55 6c3e d4b4 113d 402e eabd 81b8 a3be
00000240: 7d0c a8bd 2e22 393e 0a1a ce3c 951a 1a3e
00000250: b915 babd 8612 5c3e 1719 093d be0b b6bd
00000260: 28bf 26be 51b3 64bc 525f dcbe 06db 07be
00000270: 449c 85bd 6865 7dbe 8499 13bd 7020 cf3c
00000280: 03ed 113d 8f3c 46be 771f 2f3c 3701 0b3e
00000290: c2c0 6d3e 55c1 b8bd 086b 953e bf13 6b3b
000002a0: 403c 7b3e e079 4c3e 62cb 923d ebaf 083e
000002b0: b64c 933e 5321 e43d 18c7 423e eece cd3c
000002c0: 6a83 0a3e a46b 14be e192 793e e444 b9be
000002d0: 7178 9b3c dce8 85be f3e2 dabd d357 743e
000002e0: 398e 1bbe c649 353e b53e f13d 18da 193e
000002f0: 5df7 d63d f345 4a3e 9b22 993e c12d ecbd
00000300: dbab 8d3e 6313 083e d7fb 603e 5270 c9bd
00000310: 86ec 163c 6f6d e43d 44d3 d23c 02ee 94be
00000320: f686 883e dd58 793e dd85 19bd 564f 473d
00000330: c62f b1bc 5283 2b3e 9e08 623e c1c3 d83d
00000340: 1887 193e 3a24 e1bd 245c ca3e f4b7 8e3e
00000350: 45bc c9bd 2cb5 df3c b4da 9e3e a769 393e
00000360: 6fc7 5b3e ca51 9fbd 018b 343e 06ca ae3e
00000370: 6aa6 893e 6c6f 09bd ae66 aabd 3568 49bd
00000380: e436 69be 5031 9e3e 21f6 0dbd 345f 83be
00000390: 682f 4fbe 4453 5ebe 2537 543e d615 a5be
000003a0: 5269 98be 6385 df3e 75aa 973d 9a26 1c3e
000003b0: 7d80 623c 14ca 063d 3b6e 06bb 5de0 f4bc
000003c0: ecc0 28be c60c 2bbe 3003 febd 9a23 a0bd
000003d0: e43a ef3b 2824 1abd e61a bd3e 7e94 383e
000003e0: c13d 173e f556 173e 5143 51bd acc0 1c3c
000003f0: 0ec7 9f3d 0f09 49be 0a0a cc3d 23b8 a4bd
0.14928576 0.143432 0.134336 0.15893927 -0.22811884 0.23717442 -0.24168147 -0.12046259
0.08176331 0.021247124 0.029782118 -0.019197138 0.2598229 0.11350662 0.026878947 0.08339549
0.10239472 -0.040252294 -0.2606842 -0.34259254 0.019912435 -0.1446122 -0.5704839 -0.2258144
-0.046119563 -0.14148848 -0.14857577 -0.040075578 0.09625821 0.1029679 -0.18091002 -0.34576538
-0.23606002 -0.21821891 0.0738769 0.2814649 -0.41829008 0.16890687 -0.25190908 -0.088643566
0.3195749 0.094891146 0.19180962 -0.07856812 0.1181944 0.044893917 -0.23437187 -0.35560158
-0.20919064 0.0028886888 0.17799208 -0.3391817 -0.12952533 -0.08430378 -0.10824027 0.24226758
0.19874202 0.22917292 -0.20127116 0.08259597 0.30030864 0.08632742 0.07908108 0.27645987
0.3471024 -0.0046880995 0.016340036 0.044519592 -0.03712678 -0.14957371 -0.012202252 -0.052956726
0.4456035 0.20692421 -0.29525408 -0.15685408 -0.06115308 0.22761978 -0.14408551 -0.26374027
0.14775649 -0.12097274 -0.121114664 0.025693001 -0.48877814 -0.2602883 -0.17113553 0.11614194
-0.14217186 0.3898248 -0.11816826 -0.12613088 -0.16429822 -0.12746374 -0.21974547 -0.32777184
0.26439738 0.057148874 0.014992659 0.04680472 -0.12987043 -0.18339543 0.19222003 -0.068049476
-0.007316169 0.11001462 0.11345549 -0.22182328 -0.10881893 -0.0325949 0.12898314 0.02557171
0.3130501 -0.17655452 -0.24195412 0.022858838 -0.046393566 0.12793127 0.07125695 -0.0526792
-0.3713836 -0.30297455 -0.3022341 0.016710501 0.11897886 0.3020812 -0.20478834 0.2664277
-0.37175286 -0.05147625 -0.022474647 -0.11747745 0.11998822 -0.26710212 -0.05974236 -0.29972652
0.3320023 -0.16438028 -0.05541776 -0.10423532 0.23079555 0.03557284 -0.11434603 -0.31976703
-0.08205507 0.18079445 0.0251589 0.15049203 -0.090861745 0.21491441 0.033471193 -0.088889584
-0.16283858 -0.013958768 -0.43041474 -0.13267145 -0.06523946 -0.24745715 -0.036035076 0.025284022
0.035626423 -0.19359039 0.010688654 0.13574682 0.23218063 -0.0902125 0.2918322 0.0035869924
0.24534702 0.19968367 0.071676984 0.13348357 0.28769463 0.111391686 0.1902126 0.025123086
0.13526693 -0.14494187 0.24372436 -0.36185372 0.01897833 -0.2615422 -0.106878184 0.23861627
-0.15190972 0.17703924 0.117795385 0.15024602 0.104963996 0.19753246 0.29909214 -0.11532164
0.27670178 0.13288645 0.2197107 -0.098358765 0.009211665 0.11153685 0.025735505 -0.29087836
0.26665467 0.24350305 -0.037481178 0.048659645 -0.021629225 0.16749313 0.220736 0.10584212
0.1499294 -0.10993238 0.39523423 0.2787472 -0.09850363 0.02730807 0.31026232 0.1810671
0.21462797 -0.07779272 0.17631151 0.34138507 0.26884776 -0.033553526 -0.08320366 -0.049171645
-0.22774845 0.30896997 -0.034658555 -0.25658572 -0.20232928 -0.21711451 0.20724161 -0.32243222
-0.29767853 0.43656453 0.07405559 0.152491 0.013824579 0.03290756 -0.002051248 -0.029892141
-0.16479844 -0.16704091 -0.12402952 -0.078192905 0.0073007215 -0.037632138 0.36934584 0.18025395
0.14769651 0.14779265 -0.05108959 0.009567421 0.078016385 -0.19632362 0.09962852 -0.08042934

mapper.bias f4 [8]
00000000: 31d2 1dbe 2037 a23d cf79 63bd 7fdf e9bd
00000010: 425c 8e3d 5b81 193e 7efe c2bd 94a6 64bd
-0.15412213 0.079206705 -0.055536088 -0.114195816 0.069511905 0.14990751 -0.09521197 -0.055822924

head.weight f4 [10, 8]
00000000: 6089 d3bc f7a8 033e 1a9f dabe 657f 07bf
00000010: c527 9b3e 7227 d23e 2ff1 7abe 8f9c b1be
00000020: 8426 70be c217 c9be fd63 b83e 477f 84be
00000030: e4e1 27bf b43a 9fbe f42e b2be cac5 a93e
00000040: af81 de3e 0872 f63c 1233 14bd 7507 413f
00000050: 3cb3 bebd 7836 52ba 4e56 4c3e 6ad7 01bf
00000060: d9ab d53e a087 033f 62bf 903e e4d1 293e
00000070: 833a 1ebf 780b 2abf f4e1 d4be 5aa7 c23d
00000080: 9d8e 133f 4549 33bd 06d0 d13e b9f0 88be
00000090: 02ff e13e 6d66 54bf 5949 4bbd 8156 3f3f
000000a0: 2791 023e 2af7 c8be b517 82be debc c3be
000000b0: 531e f8be e941 45bf 43c4 423f d281 c2be
000000c0: a7d5 85be 626a 4bbf d538 babe 4b6e 053f
000000d0: 093e 08bc 7613 58be cb84 893e 1731 0c3f
000000e0: 51ee 523f f475 43bf b881 2d3e c8f7 6cbe
000000f0: 882c 0dbf a7e8 b33e afb5 97be 4d57 513c
00000100: acc2 d03e 7bad 2c3f e61b dfbe 3021 ddbd
00000110: 1754 c2be f0d5 ca3e 8019 1a3f cb15 353f
00000120: b797 893e ee34 2a3e d5b7 5c3f e03e 01be
00000130: c460 863e fab8 b23e cd36 443f 3b47 853e
-0.025822341 0.12857424 -0.4269951 -0.52928764 0.3030378 0.4104572 -0.24506067 -0.34689757
-0.23452193 -0.39275938 0.36013785 -0.25878355 -0.65579057 -0.31099474 -0.34801447 0.33158714
0.43458316 0.030083671 -0.036181517 0.75402004 -0.0931153 -0.0008018981 0.19954798 -0.5071932
0.41732672 0.5137882 0.28271013 0.16583973 -0.6180803 -0.6642375 -0.4157864 0.09504576
0.57639486 -0.043771047 0.40979022 -0.26746157 0.44139868 -0.8296879 -0.049630497 0.7474137
0.12750684 -0.3925107 -0.25408712 -0.38230032 -0.48460636 -0.77053696 0.7608072 -0.3798967
-0.26139566 -0.794592 -0.36371484 0.5212142 -0.008315572 -0.21101174 0.26859125 0.54762405
0.8239489 -0.7635186 0.16944015 -0.23141396 -0.55146074 0.35138437 -0.296308 0.012777162
0.40773523 0.6745221 -0.43575972 -0.10797346 -0.3795478 0.39616346 0.6019516 0.7073638
0.26873562 0.16621754 0.86218005 -0.12621641 0.262457 0.3490675 0.7664612 0.26030907

head.bias f4 [10]
00000000: aa50 1f3d 4751 f63e c0be ae3c 44bf 14be
00000010: b170 533e a2e9 013d 2072 7fbe 1208 99be
00000020: 2fb7 653d dde3 2a3d
0.038895287 0.48108885 0.021331191 -0.14526087 0.20648457 0.03171695 -0.24945879 -0.2988897
0.0560829 0.041721214
