feature-compress-incremental/outputs/finetune_replay_0/last_finetune.ckpt (torch, 25557 bytes, 2 tensors)

head.weight f4 [11, 512]
000000 9d 42 67 3d 0c 96 eb b9 0e dc 64 bd e8 42 5f bd
       0.05646001 -0.00044934487 -0.055873923 -0.054507166
000010 91 5f 09 3e 55 23 74 bb 50 62 14 be 21 a7 8a be
       0.13415362 -0.0037252505 -0.14490628 -0.27080634
000020 34 34 fe bc fe 92 cc 3c d1 7c a8 bd 0e 88 fd 3d
       -0.031030752 0.024972435 -0.08226932 0.12379466
000030 f6 5e 76 be 60 f3 8c be fc b3 7b bc 63 1d f5 bd
       -0.24059662 -0.2752943 -0.015362736 -0.11968496
000040 da e6 1f be f4 6d 2a 3e d7 6d 54 3c a1 b7 8f 3e
       -0.15615407 0.16643506 0.012965641 0.28069785
000050 d5 67 9d 3e 30 12 56 be 55 90 e9 3d 06 aa 3c 3e
       0.3074328 -0.20905375 0.11404482 0.18424234
000060 e2 4c a8 3d 71 96 9e 3d 8f d0 34 3e b4 78 04 3d
       0.08217789 0.07743538 0.17657684 0.032341674
000070 f4 43 94 3d 47 4a 81 3c 3f 86 d0 3d 38 a2 55 3c
       0.072395235 0.015782489 0.101818554 0.013039164
000080 7e 83 6d 3c b0 11 38 bc fd be 05 be 22 d8 6f bd
       0.014496682 -0.011234686 -0.13061137 -0.05855573
000090 34 7d 8f 3d e9 e8 d5 bd 01 c0 46 3e d2 58 28 3e
       0.070063025 -0.10444815 0.19409181 0.16440132
0000a0 85 30 da bd 16 c1 29 3c 0a 18 b0 3d 11 9b 3a 3e
       -0.106537856 0.010360977 0.08598335 0.18223216
0000b0 7f 87 97 bd 80 56 94 3d c3 fa c7 3d 9d 26 57 3c
       -0.07398891 0.07243061 0.09764626 0.013131765
0000c0 92 34 34 3d d1 c9 24 3e 82 30 22 be 2f 7d 07 bd
       0.043995447 0.16092612 -0.15838817 -0.03307837
0000d0 b1 e3 28 3e ee 2a 32 3c f3 a7 dd bd ce 89 81 bc
       0.16493107 0.010874493 -0.108230494 -0.01581278
0000e0 20 78 fa 3d db 14 42 bc a0 28 ca b8 d5 32 73 be
       0.12229943 -0.011845793 -9.6396776e-05 -0.2374986
0000f0 b5 eb eb bd 98 57 45 3d e2 b6 d7 bc d9 3f 26 3b
       -0.11519567 0.04817924 -0.026332323 0.0025367646
000100 44 69 42 bd 64 6d 2d be d8 70 27 be 80 38 e5 3d
       -0.04746367 -0.1693626 -0.1635164 0.11192417
000110 34 8c f3 bd 56 d6 99 be 4f 5d 1a 3c e4 9d 40 3e
       -0.11891976 -0.30046338 0.009421661 0.1881023
000120 3a d0 d3 3c db fe d0 3d 2d 6a a9 3e 1c de 3f be
       0.025856126 0.1020486 0.33088818 -0.18737072
000130 d9 f8 a1 3c 15 25 50 be dc 8e ad 3d 72 79 30 3e
       0.01977198 -0.20326646 0.08474514 0.17233828
000140 fc 8e 3a 3c 97 04 5d 3d 99 b7 bd bd 81 a5 aa bd
       0.011386629 0.053959455 -0.09263534 -0.083323486
000150 60 8e be bb c3 96 18 be d1 10 1a be 62 e1 18 be
       -0.0058153123 -0.14901261 -0.15045477 -0.14929727
000160 7b 3f 9f 3d 34 f3 40 be 11 9d b9 bd 28 82 00 3e
       0.0777578 -0.18842775 -0.09063161 0.1254965
000170 1e c4 09 3e 81 56 a9 bd 53 6a 6a be bd ae 3c be
       0.13453719 -0.082684524 -0.22892122 -0.18426032
000180 91 e9 9c be 19 8a be bd 7c 8e 1a 3e ab df b9 3e
       -0.30646947 -0.09303684 0.15093416 0.36303458
000190 63 4d d5 3d 28 80 24 3d 85 a2 f9 bd 97 6a 1b 3d
       0.10415151 0.04016128 -0.12189201 0.03794345
0001a0 d7 8c 94 be dd f2 4a be 4f f5 70 be f1 84 88 3c
       -0.29013702 -0.19819207 -0.23531078 0.016664954
0001b0 ae 3c 4c 3e ed 0b f0 3c 09 7d e5 bc e1 04 c1 bb
       0.19945022 0.029302562 -0.028013723 -0.005890474
0001c0 fa 36 b4 3d d9 8b 4f 3e 80 af 37 3e a9 79 30 be
       0.087995484 0.20268191 0.17938042 -0.1723391
0001d0 2e f5 e3 3d 38 d4 4a bd 19 f0 ff 3c 61 a8 86 bd
       0.11130749 -0.049518794 0.031242417 -0.065750845
0001e0 96 5e 7a 3d 48 2d bd 3d a9 26 ed 3d 1b bf 24 3e
       0.06112536 0.09237152 0.115796395 0.16088526
0001f0 1a ad 2f 3e e0 09 a7 3d db eb 83 be 98 dc 62 bd
       0.17155877 0.081561804 -0.2576588 -0.055386156
000200 57 0c 0f 3e ed b4 0b be b6 b5 16 be 95 41 df bc
       0.13969551 -0.13643236 -0.14717755 -0.027252952
000210 57 93 e2 3c 44 c0 f1 3d e9 62 11 be 05 fa e5 3d
       0.027658148 0.1180425 -0.14197887 0.11229328
000220 db 76 8d be f6 ca 73 3e 98 d0 98 bc 3a d3 28 bd
       -0.27629742 0.23807892 -0.018654153 -0.041217066
000230 df 51 cb bd 96 df 97 bd 0a 90 08 3d 29 be 9d bb
       -0.09927725 -0.074156925 0.03334049 -0.0048139286
000240 b6 c3 90 3d 73 98 3e 3e 4e c5 39 3e a0 3f 99 bd
       0.07068579 0.18612842 0.18141672 -0.07482839
000250 40 29 0d be c0 be 69 3c ca 7f 68 3e 14 61 1d bd
       -0.13785267 0.01426667 0.22704998 -0.03842266
000260 0c 60 1a 3e 06 80 c4 3d 81 c0 a7 bc 17 2d 80 3e
       0.15075701 0.09594731 -0.020477535 0.250344
000270 2c 7b 6d 3e 8d 1e 13 3e 70 64 b4 3c d6 5b e3 bc
       0.23191518 0.14367123 0.022020549 -0.027753752
000280 c0 f2 76 3e 50 cb 1f bd 5c de d9 3c 01 7f a6 bd
       0.2411604 -0.039012253 0.026595287 -0.08129693
000290 27 6c 81 3d 3f 61 93 3e 6d 1b 02 3b d1 68 77 3d
       0.063194565 0.2878513 0.0019852773 0.060402695
0002a0 93 44 55 bc 8f 91 bc 3d 69 81 88 3d ac 5f 91 bd
       -0.013016838 0.092074506 0.06665308 -0.07098326
0002b0 aa b0 03 be aa 36 93 3d d3 a0 05 3d 1c ca 4f 3b
       -0.1286036 0.07188161 0.032624077 0.003170616
0002c0 79 99 43 bd 02 fa 79 3e a7 de d6 bd 34 f0 2a bd
       -0.047753785 0.24411777 -0.10491686 -0.04173298
0002d0 79 45 4f 3d 26 56 26 be 1d 3d 61 3d d1 56 cf bd
       0.050603364 -0.162438 0.054989923 -0.10123981
0002e0 6b b3 11 3e 48 fc 3c be e8 a1 a7 bd c5 01 1e 3e
       0.14228599 -0.18455613 -0.08185178 0.15430363
0002f0 01 a3 fd 3d 80 c2 e1 bd f5 f7 b2 3d e2 e3 e5 3d
       0.12384606 -0.11023426 0.087387 0.11225106
000300 e9 93 e1 bd 0c c5 70 be de 3e 32 bd fd 61 71 3d
       -0.1101454 -0.23512667 -0.043516986 0.05893134
000310 2e 7f 00 3e 60 b4 e1 3d 21 0c de bd d0 af 15 3e
       0.12548515 0.11020732 -0.10842157 0.14617848
000320 48 1e 72 3d d8 ce 70 bc 9a 6e a3 bd fa 0a 91 be
       0.05911091 -0.014697753 -0.0798008 -0.28328687
000330 80 99 3b 3e 3b 58 65 3e af 5a 04 3e f7 96 75 bd
       0.18320274 0.22396939 0.12925218 -0.059958424
000340 22 24 8e 3c 9a a4 19 3e e5 29 16 bd 4e ed 7a 3d
       0.017351214 0.15004197 -0.036661047 0.061261468
000350 35 8f 95 bc 6f 3d 68 3d df 0a 24 bd c5 70 c8 bd
       -0.018256763 0.056699213 -0.04004943 -0.09787134
000360 b8 72 96 bd 82 82 84 bd 35 e9 58 be 2b 82 20 bd
       -0.073460996 -0.06470205 -0.21182711 -0.039186638
000370 58 85 6b bd 77 c9 17 be 7a ba 3a 3d 63 cb b3 3d
       -0.057500213 -0.14822946 0.045587994 0.08779027
000380 ab 77 8d 3d cc c4 d0 3d 7b 14 02 3e c0 e5 8f 3d
       0.069075905 0.10193786 0.12703125 0.07026243
000390 9b 51 1a 3e 51 5e 28 3c b5 96 62 be 19 f0 36 3e
       0.15070193 0.010276393 -0.22127803 0.17865027
0003a0 56 8d cb 3c 37 93 75 3d 03 d3 92 3d 63 c3 f2 3b
       0.024847668 0.05995485 0.071691535 0.007408546
0003b0 69 ac 8d 3d 24 30 ef 3d ec 89 d2 bd 8b fd 4b 3e
       0.0691765 0.11679104 -0.10280213 0.19920938
0003c0 30 4a d0 3e 66 55 05 be b8 00 2e 3d 66 87 3f bd
       0.406816 -0.13020858 0.042481154 -0.046759985
0003d0 30 f2 91 3b 24 be 6a 3d 4d 67 73 be df b2 bd bd
       0.00445392 0.05731024 -0.23769875 -0.092626326
0003e0 23 a6 a7 bb a8 ce 0e bd 43 87 69 3c 9a 9b 8c 3e
       -0.0051162406 -0.03486505 0.01425344 0.27462465
0003f0 cf ed 84 bd f3 76 7d 3e a5 e0 85 be ba 27 4c 3e
       -0.06490671 0.24752407 -0.26147953 0.1993703

head.bias f4 [11]
000000 f5 c3 35 3e 0a ab 85 bd 6b 59 15 be 29 45 2b be
       0.17750533 -0.06526764 -0.14584891 -0.16725601
000010 c3 27 37 be 38 b4 fe bd 55 03 87 bd c8 74 2c be
       -0.17886262 -0.12436718 -0.065924324 -0.16841424
000020 e9 ca 1f be c6 bd a3 bd 7d 72 6b bb
       -0.15604748 -0.07995181 -0.0035926395
