feature-compress-incremental/outputs/lwf/best_lwf.ckpt (torch, 25581 bytes, 2 tensors)

head.weight f4 [11, 512]
0.055937484 -0.00084934395 -0.056526598 -0.054001056 0.13308305 -0.0044974242 -0.14516526 -0.2710266
-0.030644458 0.024631377 -0.08935265 0.12095155 -0.23729655 -0.27624717 -0.016084457 -0.12055582
-0.15483487 0.16622835 0.01175079 0.28199834 0.31126526 -0.2093176 0.111016326 0.18387839
0.07612946 0.07709282 0.17767614 0.032092493 0.07445262 0.017424332 0.102442324 0.013331629
0.013668529 -0.011620224 -0.13091432 -0.058808107 0.070794865 -0.10349212 0.19457488 0.16472691
-0.098839596 0.0115754595 0.08536925 0.18029614 -0.0738292 0.078543656 0.09336996 0.014742322
0.04455587 0.16093381 -0.15856718 -0.032845076 0.1642526 0.010575191 -0.10857641 -0.0173383
0.1234272 -0.010644426 -0.00059121556 -0.23706698 -0.11413004 0.047877494 -0.02695104 0.0023808505
-0.046644203 -0.16732892 -0.1667674 0.11178969 -0.11867494 -0.30031013 0.009954627 0.18854274
0.025932407 0.10195658 0.3309241 -0.18737963 0.01983142 -0.20300107 0.0851697 0.17145321
0.011492918 0.054938972 -0.09210158 -0.0833308 -0.005802563 -0.14877085 -0.15245993 -0.14858736
0.077991664 -0.18827112 -0.09046053 0.12653702 0.14636418 -0.08236784 -0.22823426 -0.18495758
-0.30664158 -0.096644424 0.15282363 0.35969362 0.09800035 0.039147668 -0.121692196 0.038988043
-0.29091457 -0.19698733 -0.23434 0.01749047 0.20026636 0.028961115 -0.028503105 -0.006149451
0.08108321 0.20331351 0.1797588 -0.17380269 0.10999374 -0.049441654 0.030870553 -0.065562
0.06052822 0.09259578 0.115501344 0.16177185 0.17145574 0.08223377 -0.2570593 -0.055778142
0.13969356 -0.13366218 -0.14831963 -0.026664542 0.02735694 0.11756971 -0.14175512 0.10857778
-0.27766994 0.23813239 -0.018906698 -0.04062895 -0.091052614 -0.07443279 0.03342421 -0.0016702198
0.070104435 0.18282461 0.18171246 -0.07460545 -0.13883032 0.014818754 0.22681376 -0.02845966
0.14728652 0.09557794 -0.020534733 0.24997856 0.23279762 0.14406979 0.022405395 -0.028015472
0.24117558 -0.038799405 0.027011296 -0.08150687 0.063255474 0.2877095 0.0020406998 0.060754344
-0.012793202 0.09206097 0.06636636 -0.071243905 -0.12814368 0.07152333 0.03363222 0.0025510539
-0.048674896 0.24341127 -0.1050352 -0.04336709 0.04469204 -0.1622569 0.05522311 -0.10467541
0.14220345 -0.1842645 -0.08224792 0.15426584 0.12602131 -0.109908864 0.084875785 0.11307934
-0.10817629 -0.23739234 -0.0438457 0.055431686 0.12600458 0.109035015 -0.10856978 0.1451574
0.06012634 -0.014828747 -0.08062828 -0.28309923 0.18752244 0.22261943 0.12891446 -0.060211968
0.017610768 0.15049182 -0.037786618 0.06101391 -0.01905599 0.061528344 -0.039987218 -0.09760179
-0.07379431 -0.06462798 -0.2123296 -0.039919168 -0.057363786 -0.14333531 0.045763154 0.08735098
0.067965664 0.10174656 0.12871113 0.07074921 0.1508386 0.010337253 -0.22164816 0.17818269
0.024878377 0.059415374 0.07162407 0.006824669 0.0689151 0.118699156 -0.10276029 0.19909279
0.40757823 -0.13043426 0.0380074 -0.04712877 0.0041388865 0.056888625 -0.23776996 -0.09401342
-0.005128635 -0.035015427 0.014411562 0.2739679 -0.06462822 0.24771489 -0.2671754 0.19978124
00000000: b41e 653d 82a6 5eba 6f88 67bd 3630 5dbd
00000010: ec46 083e 215f 93bb 34a6 14be 00c4 8abe
00000020: 160a fbbc bec7 c93c 86fe b6bd 72b5 f73d
00000030: defd 72be 4570 8dbe 8dc3 83bc f8e5 f6bd
00000040: 088d 1ebe c437 2a3e 6386 403c 1662 903e
00000050: 295e 9f3e 5a57 56be 875c e33d 9e4a 3c3e
00000060: c3e9 9b3d d7e2 9d3d bcf0 353e 6b73 033d
00000070: 9e7a 983d 79bd 8e3c 48cd d13d e86c 5a3c
00000080: f7f1 5f3c c162 3ebc 670e 06be c5e0 70bd
00000090: e6fc 903d adf3 d3bd a33e 473e 2cae 283e
000000a0: 6a6c cabd ffa6 3d3c 13d6 ae3d 8d9f 383e
000000b0: c333 97bd 7fdb a03d c038 bf3d c889 713c
000000c0: 3780 363d d5cb 243e 6f5f 22be 8f88 06bd
000000d0: d531 283e 9143 2d3c 4f5d debd 0d09 8ebc
000000e0: 66c7 fc3d f565 2ebc cefb 1aba b0c1 72be
000000f0: 03bd e9bd 311b 443d 6dc8 dcbc 0b08 1c3b
00000100: fe0d 3fbd 4658 2bbe 13c5 2abe fef1 e43d
00000110: d90b f3bd 40c2 99be bb18 233c 5911 413e
00000120: 3370 d43c 9dce d03d e26e a93e 72e0 3fbe
00000130: 8175 a23c 83df 4fbe 746d ae3d 6e91 2f3e
00000140: cb4c 3c3c b007 613d c19f bcbd 57a9 aabd
00000150: 6d23 bebb 6357 18be 751e 1cbe 4927 18be
00000160: 18ba 9f3d 25ca 40be 5f43 b9bd ec92 013e
00000170: 7ee0 153e 78b0 a8bd 3eb6 69be 8565 3dbe
00000180: 2000 9dbe 83ed c5bd cc7d 1c3e c329 b83e
00000190: 68b4 c83d 4e59 203d c239 f9bd edb1 1f3d
000001a0: c1f2 94be 0cb7 49be d3f6 6fbe 2d48 8f3c
000001b0: a012 4d3e dc3f ed3c 587f e9bc 5581 c9bb
000001c0: f40e a63d 6b31 503e b112 383e 55f9 31be
000001d0: 6644 e13d 5583 4abd 3ee4 fc3c 5f45 86bd
000001e0: 70ec 773d dba2 bd3d f88b ec3d 85a7 253e
000001f0: 1892 2f3e 2e6a a83d 479d 83be 9f77 64bd
00000200: d40b 0f3e bdde 08be 1ae1 17be 996f dabc
00000210: a91b e03c 63c8 f03d 4128 11be 075e de3d
00000220: c12a 8ebe fad8 733e 38e2 9abc 8b6a 26bd
00000230: cb79 babd 3870 98bd d3e7 083d 47eb daba
00000240: ea92 8f3d 6036 3b3e d512 3a3e beca 98bd
00000250: 8929 0ebe 5cca 723c de41 683e 3c24 e9bc
00000260: 47d2 163e 5ebe c33d 7538 a8bc 61fa 7f3e
00000270: 8062 6e3e 0887 133e 858b b73c b480 e5bc
00000280: bbf6 763e 20ec 1ebd cb46 dd3c 13ed a6bd
00000290: 168c 813d a94e 933e 43bd 053b 8cd9 783d
000002a0: 949a 51bc 768a bc3d 16eb 873d 53e8 91bd
000002b0: 1938 03be d37a 923d f0c1 093d 952f 273b
000002c0: 545f 47bd ce40 793e b21c d7bd b1a1 31bd
000002d0: 000f 373d ac26 26be a131 623d 1060 d6bd
000002e0: c89d 113e d5af 3cbe 9971 a8bd ddf7 1d3e
000002f0: bb0b 013e e617 e1bd 5bd3 ad3d 2496 e73d
00000300: 888b ddbd fa16 73be 8c97 33bd 560c 633d
00000310: 5807 013e c04d df3d d559 debd 24a4 143e
00000320: 0947 763d 46f4 72bc 7120 a5bd 62f2 90be
00000330: e205 403e 59f6 633e 2702 043e d3a0 76bd
00000340: 7544 903c 871a 1a3e 24c6 1abd b9e9 793d
00000350: 4f1b 9cbc 2505 7c3d a3c9 23bd 73e3 c7bd
00000360: 7921 97bd ad5b 84bd ee6c 59be 4882 23bd
00000370: 4af6 6abd 7ec6 12be 2572 3b3d 12e5 b23d
00000380: 9531 8b3d 8060 d03d dacc 033e f6e4 903d
00000390: 6f75 1a3e 955d 293c bcf7 62be 8675 363e
000003a0: bdcd cb3c 895d 733d a4af 923d 79a1 df3b
000003b0: 5c23 8d3d 8b18 f33d fd73 d2bd fbde 4b3e
000003c0: 18ae d03e 8f90 05be a6ad 1b3d 190a 41bd
000003d0: 7f9f 873b 0c04 693d f879 73be 1c8a c0bd
000003e0: 1c0e a8bb 566c 0fbd 791e 6c3c 8545 8c3e
000003f0: cd5b 84bd f9a8 7d3e 37cb 88be 7493 4c3e

head.bias f4 [11]
0.17778772 -0.06511896 -0.1489522 -0.1718547 -0.1803803 -0.12437362 -0.06727785 -0.17328846
-0.15798339 -0.08035201 0.01952474
00000000: fc0d 363e 175d 85bd ed86 18be aefa 2fbe
00000010: 9db5 38be 99b7 febd f8c8 89bd 8872 31be
00000020: 66c6 21be 988f a4bd 59f2 9f3c
