feature-compress-incremental/outputs/compress32_addcls_stage1_ncfm/last_incremental.ckpt (torch, 81685 bytes, 10 tensors)

mapper.weight f4 [32, 512]
0	0xbdbd1e8b	-0.09234341
1	0x3d91eac7	0.07124858
2	0x3d6434f7	0.055714574
3	0x3d67c5f0	0.056585252
4	0xbdb7600d	-0.08953867
5	0x3c1d0136	0.009582808
6	0x3dc93cb1	0.09826029
7	0x3e13136e	0.1436288
8	0xbd4b061b	-0.04956637
9	0xbcadaec6	-0.021201503
10	0xbc06fb4a	-0.008238623
11	0xbd8721e8	-0.06598264
12	0x3cc279d0	0.023739725
13	0xbd76f418	-0.06029138
14	0xbcfb97d1	-0.03071204
15	0xbdfc410f	-0.123170964
16	0xbd41fffc	-0.047363266
17	0x3c7ef27f	0.015560745
18	0x3dc5d499	0.096596904
19	0x3d64a6d9	0.05582318
20	0xbe41e142	-0.18933585
21	0xbce7c682	-0.028292898
22	0xbcd3fd39	-0.025877582
23	0x3ccc0e7c	0.02490925
24	0x3ded6453	0.11591401
25	0xbd63198a	-0.055444278
26	0xbd4f3e9d	-0.050596822
27	0x3c8d406f	0.017242638
28	0xbd12ee1c	-0.03587161
29	0x3d6bc4fa	0.0575609
30	0x3e172815	0.14761384
31	0x3d81e1dc	0.063419074
32	0xbce52587	-0.027971996
33	0x3d40d5d8	0.047078937
34	0x3d6c6b88	0.057719737
35	0xbad3d75e	-0.0016162207
36	0xbd076d9e	-0.033063523
37	0xbd84bb30	-0.06481016
38	0x3ba43543	0.005011232
39	0x3d9edeff	0.07757377
40	0x3c18858c	0.009309184
41	0xbc8ef258	-0.017449543
42	0xbdbb27b0	-0.09138429
43	0xbdb76469	-0.089546986
44	0xbd4091aa	-0.047013916
45	0xbcec80ff	-0.028870104
46	0xbde63ff8	-0.1124267
47	0x3df377fa	0.11888118
48	0x3e328f2c	0.17437428
49	0x3d2be898	0.041969866
50	0x3db09f44	0.086241275
51	0xbcecd163	-0.028908437
52	0xba823f32	-0.0009937047
53	0x3e1f4e19	0.15557136
54	0x3cff0a1d	0.031132752
55	0x3c43998a	0.011938462
56	0xbd3a95b9	-0.045552943
57	0xbc858220	-0.0162974
58	0x3e4926f9	0.19643773
59	0xbd86b37a	-0.06577201
60	0xbae875da	-0.0017735318
61	0x3c4aea26	0.012384927
62	0x3e00ecf5	0.12590392
63	0xbdb6ef69	-0.089323826
64	0xbcaea2c5	-0.021317849
65	0xbd7aea9d	-0.0612589
66	0x3ca8e68d	0.020617748
67	0xbd0eba6b	-0.03484575
68	0xbc5312f6	-0.012882939
69	0xbcb40e2c	-0.021979414
70	0x3c649e29	0.013953724
71	0xbd9b5ffe	-0.075866684
72	0xbdea1e2d	-0.11431537
73	0xbe03daaf	-0.1287639
74	0xbde86d3a	-0.11348958
75	0xbddd285a	-0.10798712
76	0x3d388e3c	0.04505752
77	0xbd4a8f1b	-0.049452882
78	0x3d97ac34	0.07405892
79	0xbd093f9e	-0.033507936
80	0x3c20e8ad	0.009821099
81	0x3cb682b9	0.02227913
82	0x3c309ae4	0.010779116
83	0xbde2a650	-0.11066878
84	0xbc9e2860	-0.019306362
85	0x3e1e1271	0.15436722
86	0x3be94d0d	0.007119781
87	0x3d17cb6d	0.037059236
88	0xbe14b95d	-0.14523835
89	0x3b5d13b5	0.003373367
90	0x3e09953a	0.13435832
91	0x3d86a38b	0.06574162
92	0xbe08527b	-0.13312714
93	0xbdbe2383	-0.09284117
94	0x3e2dc511	0.16969706
95	0x3dc22425	0.0947955
96	0x3dad5bd9	0.08464784
97	0x3e1176f9	0.1420554
98	0xbd815f3e	-0.06316994
99	0xbc18de42	-0.009330334
100	0x3d8f3a6d	0.06993566
101	0x3cf621da	0.030045439
102	0xbd462794	-0.04837759
103	0x3d93e0e6	0.0722063
104	0x3deea8ac	0.11653265
105	0x3e0e76f5	0.13912566
106	0xbd6b6f79	-0.057479355
107	0x3d8cfcde	0.06884168
108	0xbdd8499c	-0.10560915
109	0x3d53b87d	0.051689614
110	0xbd3e01cc	-0.046388432
111	0x3c08386e	0.008314235
112	0xbdbf346f	-0.09336173
113	0x3e1954cb	0.14973752
114	0xbdfb84d4	-0.12281194
115	0x3cbabc60	0.022794902
116	0xbc1cc655	-0.00956877
117	0x3ddc8452	0.107674256
118	0xbcb821e0	-0.02247709
119	0xbb6f420a	-0.0036507868
120	0x3d574a7f	0.05256128
121	0xbbf5a7d4	-0.0074968133
122	0x3dc434bb	0.0958037
123	0xbd66777e	-0.0562663
124	0x3ad61fd1	0.0016336386
125	0xbdac48b0	-0.084123015
126	0x3d7dfb27	0.062007096
127	0x3d242e3c	0.040083155
128	0xbc8318fb	-0.016003123
129	0x3dd50e78	0.1040315
130	0x3be927f6	0.0071153594
131	0xbdbdaff8	-0.09262079
132	0xbcddcf86	-0.027076494
133	0x3e0b1fc9	0.13586344
134	0x3d4898cb	0.04897384
135	0xbcd54455	-0.02603356
136	0x3d976bd3	0.07393613
137	0xbd0c775e	-0.034293525
138	0x3da2545b	0.07926246
139	0xbdb1cca8	-0.08681613
140	0x3dd4a3f2	0.103828326
141	0xbd56084c	-0.052254006
142	0xbde401e0	-0.1113317
143	0x3ddd8207	0.108158164
144	0x3d8398df	0.06425642
145	0xbc553a73	-0.013014424
146	0xbd3fc58b	-0.04681925
147	0x3d180e7c	0.03712319
148	0x3d7875c1	0.060659174
149	0xbdd5942b	-0.104286514
150	0x3c552583	0.013009432
151	0xbd87c675	-0.066296495
152	0x3e0e5691	0.1390021
153	0x3d4fe418	0.050754637
154	0x3df58882	0.119889274
155	0xbe18f7d1	-0.14938284
156	0x3db01e25	0.085994996
157	0xbd2eea6b	-0.042704027
158	0xbdef1b67	-0.116751485
159	0x3be1b33d	0.006887822
160	0xbd7fcb99	-0.062450025
161	0x3d86f03c	0.0658879
162	0x3b15c0ce	0.0022850516
163	0x3ae66f9c	0.001758087
164	0x3c513209	0.012768277
165	0x3d2c97ad	0.042136837
166	0xbd9a27ae	-0.075270995
167	0x3d41d71e	0.047324292
168	0xbc1a8713	-0.009431618
169	0xbde7dd26	-0.113214776
170	0xbcd8a397	-0.026445193
171	0xbd66a21f	-0.056306954
172	0x3d5c448a	0.0537763
173	0xbc13dbc6	-0.009024566
174	0x3d476e66	0.04868927
175	0x3d53414b	0.05157594
176	0xbdc05b96	-0.09392469
177	0x3bf403fa	0.007446763
178	0x3d3f8e16	0.046766363
179	0x3e4ec993	0.20194082
180	0x3d958b40	0.073019505
181	0x3d857b52	0.06517662
182	0xbd923927	-0.07139807
183	0x3d90147d	0.07035158
184	0x3e15a9ca	0.1461555
185	0xbd0d3019	-0.034469698
186	0x3d9eb5dd	0.077495314
187	0x3ae51507	0.001747758
188	0xbd8d1c2f	-0.06890141
189	0x3dd77e9c	0.10522196
190	0xbd20fd6d	-0.039304186
191	0x3df00687	0.11719995
192	0xbdf8c7f1	-0.12147511
193	0x3de77134	0.11300889
194	0xbc4bb55c	-0.012433376
195	0xbb636384	-0.0034696767
196	0x3db91cfe	0.09038733
197	0x3d276b94	0.04087408
198	0xbd2dce6d	-0.04243319
199	0x3d8c0339	0.06836552
200	0xbdaa2127	-0.083071046
201	0xbe55006f	-0.20800947
202	0x3d0edd52	0.034879036
203	0x3df28254	0.11841264
204	0xbdd13e68	-0.10216981
205	0xbe269962	-0.16269448
206	0x3dcd99d1	0.10039104
207	0x3d221bf2	0.039577432
208	0xbdf713fd	-0.12064359
209	0xbe0e4416	-0.1389316
210	0x3d8a00c8	0.0673843
211	0x3ce799fc	0.028271668
212	0x3d3cb1dd	0.04606806
213	0xbd1fa117	-0.038971987
214	0x3e348fd2	0.17632988
215	0x3e0fef70	0.14056182
216	0x3d780fa9	0.06056181
217	0x3c7911fa	0.01520204
218	0xbd042ab9	-0.032267306
219	0xbd7bfef2	-0.06152243
220	0x3c27d160	0.01024279
221	0xbd0e8811	-0.03479773
222	0xbdd5197d	-0.10405252
223	0xbe25d802	-0.16195682
224	0x3e0906fc	0.1338157
225	0xbd4fff5a	-0.05078063
226	0xbd169ecf	-0.036772545
227	0x3d000706	0.031256698
228	0xbd905a81	-0.07048512
229	0x3c22b818	0.009931587
230	0xbdca8777	-0.09889119
231	0x3d245618	0.040121168
232	0xbca98713	-0.020694291
233	0xbe683741	-0.22677328
234	0xbe0e9eb5	-0.1392773
235	0xbc925472	-0.017862532
236	0x3c76384d	0.015028072
237	0xbde59d52	-0.11211647
238	0x3d5c274c	0.053748414
239	0xbcfbed7f	-0.030752895
240	0xbdde498f	-0.10853874
241	0x3ddd1f85	0.107970275
242	0x3dc77011	0.09738172
243	0xbd9716ee	-0.0737742
244	0xbc41b968	-0.011823989
245	0xbd93eb3a	-0.072226
246	0xbd5f4519	-0.054509256
247	0xbdeff238	-0.117161214
248	0xbe1c861f	-0.15285538
249	0xbdb24f11	-0.08706487
250	0x3d219a8d	0.03945403
251	0xbcbdce8b	-0.023169776
252	0xbda4d685	-0.08048729
253	0x3bf86534	0.0075804237
254	0x3d3d9f88	0.04629472
255	0xbe0e89ae	-0.13919708

mapper.bias f4 [32]
0	0xbd945041	-0.0724187
1	0x3c6d40ba	0.014480764
2	0xbdd7e03d	-0.10540817
3	0x3d5b157a	0.05348728
4	0xbd90326c	-0.07040867
5	0xbd80051f	-0.06250977
6	0x3d8ee8ee	0.069780216
7	0xbdf6b88f	-0.120469205
8	0x3d3e1898	0.046410173
9	0x3dba6720	0.09101701
10	0xbd03c06c	-0.03216593
11	0x3cc117b5	0.023570875
12	0xbcf2a25d	-0.029618436
13	0xbdc918f1	-0.0981921
14	0x3dc08921	0.09401155
15	0xbd1bc839	-0.038032744
16	0xbd8ff51a	-0.07029171
17	0x3b00517b	0.0019579816
18	0x3cda9cdc	0.026686125
19	0x3d46b452	0.04851181
20	0x3d8fcfd5	0.07022063
21	0x3d6609f2	0.05616183
22	0x3d26e196	0.04074248
23	0xbd8a9f3e	-0.06768654
24	0x3d4e5044	0.050369516
25	0x3d6df5b5	0.058095653
26	0x3c8f92a4	0.017525978
27	0x3cc1a324	0.023637362
28	0x3d92be4c	0.071652025
29	0xbd831154	-0.063997895
30	0x3cf2e2c4	0.029649146
31	0x3d7e334f	0.06206065

head.weight f4 [11, 32]
0	0xbe302d6f	-0.17204832
1	0x3e8d165f	0.2755613
2	0xbe396467	-0.18104707
3	0x3e221389	0.15827765
4	0xbc6c415f	-0.014419883
5	0xbe16d10e	-0.14728186
6	0x3e964aab	0.29353842
7	0xbdbe5592	-0.09293665
8	0x3d8e6d69	0.06954462
9	0x3e8150cb	0.25256953
10	0xbe6164f4	-0.22011167
11	0x3e3eb1d6	0.18622527
12	0xbe2add15	-0.16685899
13	0xbe475b57	-0.19468437
14	0x3e19b87b	0.1501178
15	0xbe149af5	-0.14512236
16	0xbe4046aa	-0.18776956
17	0xbe23eb0f	-0.16007636
18	0x3e2d571e	0.16927764
19	0x3d477d22	0.04870332
20	0x3d5ecc88	0.054394275
21	0x3e2f5506	0.17122278
22	0x3dcbd768	0.09953195
23	0xbe4ac188	-0.19800389
24	0xbb7eccf2	-0.003887948
25	0x3e44c732	0.19216612
26	0x3e2faafd	0.1715507
27	0x3d9fbeff	0.078001015
28	0x3e5e36fa	0.2170066
29	0xbdd3ec29	-0.10347778
30	0x3e6b64d8	0.22987688
31	0x3e8593e2	0.26089388
32	0x3ec421fa	0.38307172
33	0x3dbc4758	0.09193295
34	0x3e3fc586	0.18727693
35	0x3dec6be1	0.11544014
36	0xbe996363	-0.2995864
37	0x3bae5b17	0.0053209173
38	0xbe0bca53	-0.136514
39	0xbd2882c1	-0.04114032
40	0xbdd51a50	-0.10405409
41	0xbdc5b565	-0.09653739
42	0xbe1f6a66	-0.15567932
43	0xbe3aaa50	-0.18229032
44	0x3e26de2d	0.16295691
45	0x3e972965	0.2952377
46	0xbe31a230	-0.17347026
47	0xbe4e9c32	-0.20176771
48	0xbd76f39f	-0.06029093
49	0xbdae6f52	-0.085173264
50	0xbe8e3a92	-0.2777906
51	0x3e8920bf	0.26782796
52	0x3e6d0423	0.2314611
53	0x3e4113dd	0.18855233
54	0xbe193fc2	-0.14965728
55	0xbdb94cd7	-0.09047859
56	0x3ea2d059	0.31799582
57	0xbe11c059	-0.14233531
58	0xbe8c2bad	-0.27377072
59	0xbe907759	-0.28216055
60	0x3df980e7	0.12182789
61	0xbd2429eb	-0.04007904
62	0xbe2c805a	-0.16845837
63	0x3e8b3ccb	0.2719482
64	0xbd76560b	-0.06014065
65	0xbe0505f8	-0.12990558
66	0x3e4aa850	0.19790769
67	0x3de5c828	0.112198174
68	0x3ebe81f8	0.37208533
69	0x3e21d407	0.15803538
70	0x3e378502	0.17921832
71	0xbcf0a248	-0.029374257
72	0xbdbdb63a	-0.092632726
73	0xbd79d7d1	-0.060996834
74	0x3e963e36	0.29344338
75	0x3d7a4733	0.061103057
76	0x3c4d1308	0.012516744
77	0xbbb350ba	-0.00547227
78	0x3b43430e	0.0029794606
79	0xbeb82c43	-0.3597127
80	0x3ed02cf2	0.4065929
81	0x3e875260	0.26430035
82	0x3e17068b	0.1474859
83	0xbd82a9a8	-0.063800156
84	0xbec41453	-0.38296756
85	0xbe75302d	-0.23944159
86	0xbe940506	-0.28910083
87	0x3d6b44b2	0.05743856
88	0x3e90128e	0.28139156
89	0xbd8b4360	-0.0679996
90	0x3ea77d18	0.32712626
91	0xbe5f7e22	-0.2182546
92	0xbe3e0de5	-0.18559988
93	0xbe34dc76	-0.17662224
94	0x3e030357	0.12794243
95	0x3dc8f8bb	0.098130666
96	0x3e708398	0.23487699
97	0x3e939ef5	0.28832212
98	0x3e8a0d3c	0.26963222
99	0xbe78bf29	-0.24291672
100	0x3c22b947	0.009931869
101	0x3ec440d1	0.383307
102	0x3e72d78e	0.2371504
103	0x3df6238c	0.12018499
104	0xbe7d43ea	-0.24732938
105	0xbe0242ee	-0.12720844
106	0x3ea9e29d	0.33180705
107	0xbda9457f	-0.082652085
108	0x3dab5701	0.08366204
109	0xbbc58f8f	-0.0060290764
110	0xbdd7aaa8	-0.10530597
111	0x3e527a76	0.20554528
112	0x3ea03866	0.3129303
113	0x3ca369ed	0.01994797
114	0x3d90ccc4	0.07070306
115	0x3d291265	0.041277308
116	0xbe4d3f60	-0.20043707
117	0xbdc130ae	-0.09433113
118	0x3dc4066f	0.095715396
119	0x3ea203ed	0.3164362
120	0xbe687116	-0.22699389
121	0x3e37b35c	0.17939514
122	0x3d9291b5	0.07156698
123	0x3e168c7a	0.14702025
124	0xbe9cfe3b	-0.30662712
125	0x3e91966b	0.28435072
126	0x3e29bd26	0.1657606
127	0x3dc5eed2	0.09664692
128	0x3d8e40cc	0.06945953
129	0x3d979c32	0.07402839
130	0xbe3334b9	-0.17500581
131	0xbec24611	-0.3794408
132	0x3ed604cd	0.41800538
133	0xbe3a3522	-0.18184331
134	0xbe4376b5	-0.19088252
135	0xbe2bdd40	-0.16783619
136	0xbefd6dc4	-0.49497807
137	0xbe6a6ce4	-0.22893101
138	0x3e0aa7d3	0.13540582
139	0xbe79d92c	-0.24399251
140	0xbe648db1	-0.22319676
141	0xbe405e4f	-0.18785976
142	0x3c2585d3	0.010102707
143	0x3d8a7734	0.067610174
144	0x3ebbb318	0.36660075
145	0xbe537f9f	-0.20654152
146	0xbe8e483f	-0.27789494
147	0xbe3512a2	-0.17682889
148	0x3ea96539	0.3308504
149	0x3e79c4cf	0.24391483
150	0xbe128738	-0.14309394
151	0xbdaf4747	-0.08558517
152	0xbd0105bf	-0.03149962
153	0xbd7eea0e	-0.06223493
154	0x3e317e94	0.17333442
155	0xbe80b177	-0.25135395
156	0x3c9ebf83	0.01937843
157	0x3db6120a	0.088901594
158	0x3d987fa9	0.07446224
159	0xbecfcdb0	-0.40586615
160	0x3e08a72b	0.1334502
161	0xbe02ab39	-0.12760629
162	0x3cb514be	0.022104617
163	0x3e803e5f	0.25047585
164	0xbd1bd572	-0.038045354
165	0x3e83d61d	0.25749293
166	0xbe57db04	-0.21079642
167	0x3ee8c197	0.45460197
168	0x3e2e2a3d	0.170083
169	0xbe8b698e	-0.2722897
170	0x3e27ef0e	0.16399786
171	0x3e067fcd	0.1313469
172	0x3e4ca4ab	0.19984691
173	0xbdafe98c	-0.085894674
174	0xbdbf30aa	-0.09335454
175	0x3b9d0fd7	0.004793148
176	0xbbf9e6bb	-0.007626382
177	0x3e4f0378	0.20216167
178	0x3d8fcaf4	0.07021132
179	0x3e195862	0.14975122
180	0x3bd6de75	0.0065572807
181	0x3e4af648	0.19820511
182	0xbe9b2df3	-0.30308494
183	0xbe9de36d	-0.30837575
184	0xbeb62824	-0.355775
185	0xbd48b3af	-0.048999485
186	0x3e15c0fc	0.14624399
187	0x3e641f78	0.2227763
188	0x3e566566	0.20937118
189	0xbe00928b	-0.12555902
190	0xbe48c47c	-0.19606203
191	0xbe4e29d5	-0.20133145
192	0xbe166dad	-0.14690275
193	0xbec04cd1	-0.37558606
194	0xbe6713c9	-0.22566141
195	0xbe4b10fb	-0.19830696
196	0x3d3af9d5	0.045648415
197	0xbd0fa62d	-0.035070587
198	0xbe31df31	-0.17370297
199	0x3e1bf867	0.15231477
200	0x3de7546b	0.11295398
201	0xbebb32b6	-0.36562127
202	0xbe66259e	-0.22475287
203	0xbe9c38c3	-0.30512056
204	0x3eb47d1e	0.35251707
205	0x3e1c0315	0.1523555
206	0xbeb6dc7c	-0.3571509
207	0xbdefb129	-0.117037125
208	0x3dd78419	0.105232425
209	0xbd4de52e	-0.05026739
210	0x3e17b2e6	0.14814338
211	0x3e816b8a	0.25277358
212	0x3e0969da	0.13419285
213	0xbd97ee4b	-0.07418498
214	0x3dc4981c	0.09599325
215	0x3d97a000	0.074035645
216	0x3de16aef	0.11006724
217	0xbd85e46e	-0.0653771
218	0xbeadc6a6	-0.3394062
219	0x3e2b608d	0.1673605
220	0x3e275735	0.1634186
221	0x3e9831d6	0.29725522
222	0xbd267390	-0.040637553
223	0x3e4b0ecc	0.19829863
224	0xbe361178	-0.17780101
225	0xbdea9dcf	-0.11455881
226	0xbe3d4f35	-0.18487246
227	0x3eabeb77	0.33578083
228	0x3d868e3a	0.06570096
229	0xbd9097fa	-0.07060237
230	0x3e7a5e1d	0.24449964
231	0x3e982c65	0.2972137
232	0xbe8a77e4	-0.27044594
233	0x3e7d2269	0.24720158
234	0xbc7a72e9	-0.015286186
235	0xbe2a7bbf	-0.16648768
236	0xbd1ebecc	-0.038756177
237	0x3e0cbe56	0.13744482
238	0xbecaec77	-0.39633533
239	0x3e0c0114	0.13672286
240	0xbe51e420	-0.20497179
241	0xbd9834c8	-0.07431942
242	0xbe45d376	-0.19318947
243	0xbecb8572	-0.39750248
244	0xbd26b6df	-0.040701743
245	0x3c157d57	0.009124122
246	0xbe55573d	-0.2083406
247	0x3dd657d0	0.10465968
248	0xbe951cbe	-0.2912349
249	0xbeb43e75	-0.352039
250	0xbed25301	-0.41078952
251	0xbe8f7cf1	-0.2802501
252	0xbeb44edb	-0.35216412
253	0x3e53be44	0.2067805
254	0x3e39610d	0.18103428
255	0x3e2a7f5e	0.16650149

head.bias f4 [11]
0	0xbc892efc	-0.016746037
1	0x3e1a1171	0.15045716
2	0xbdbe038d	-0.09278021
3	0xbe59af89	-0.21258368
4	0xbe347ccc	-0.17625731
5	0xbdb0ea27	-0.08638411
6	0x3d603657	0.054739323
7	0xbcea19aa	-0.02857669
8	0xbe60be93	-0.21947698
9	0x3b890222	0.0041811625
10	0x3dce30f1	0.100679286

net.0.weight f4 [32]
0	0x3f82ebc8	1.0228205
1	0x3f831734	1.0241456
2	0x3f80214d	1.0010163
3	0x3f81d4b1	1.0143033
4	0x3f82d5e8	1.0221529
5	0x3f7e1ae2	0.9925977
6	0x3f82e3e2	1.0225794
7	0x3f82dc77	1.022353
8	0x3f82d68d	1.0221726
9	0x3f7e9840	0.99451065
10	0x3f81ce8f	1.0141162
11	0x3f7b17e8	0.98083353
12	0x3f82b24b	1.0210661
13	0x3f7d60d0	0.9897585
14	0x3f830c29	1.0238086
15	0x3f812fb9	1.0092689
16	0x3f830b0a	1.0237744
17	0x3f824c0f	1.0179461
18	0x3f803851	1.0017186
19	0x3f831410	1.0240498
20	0x3f82cd6f	1.0218943
21	0x3f7d7cca	0.9901854
22	0x3f8159b7	1.0105504
23	0x3f8091fb	1.004455
24	0x3f82e665	1.0226561
25	0x3f82865e	1.0197256
26	0x3f830a47	1.0237511
27	0x3f7bd63a	0.9837376
28	0x3f829975	1.0203081
29	0x3f7bffc3	0.98437136
30	0x3f805976	1.0027301
31	0x3f7da5b4	0.9908097

net.0.bias f4 [32]
0	0xbcb358e8	-0.02189298
1	0xbc534cd3	-0.012896734
2	0x3c9214ce	0.017832186
3	0xbcc0af5d	-0.02352112
4	0xbca82c9b	-0.020529082
5	0x3ac79e8c	0.0015229746
6	0xbcac20d5	-0.02101175
7	0xbcb39e4d	-0.02192607
8	0x3ca295aa	0.019846756
9	0xbc47b05d	-0.012188044
10	0xbc5f7488	-0.013638623
11	0xbc926274	-0.017869212
12	0xbc96284d	-0.018329764
13	0x3c14cccc	0.0090820305
14	0x3cc0190c	0.023449443
15	0xbcb8aae1	-0.022542419
16	0xbcbcea12	-0.023060832
17	0xbcafd413	-0.02146343
18	0xbbc91f04	-0.0061377306
19	0x3cc4a9a9	0.024006682
20	0x3cad1ceb	0.021131953
21	0xbade4a9b	-0.001695949
22	0xbb58365a	-0.003299138
23	0x3c9a16a7	0.01880963
24	0x3caf7eba	0.021422733
25	0x3c9135b2	0.0177258
26	0xbcc2c972	-0.023777697
27	0xbc594274	-0.013260473
28	0x3cbcfe09	0.023070352
29	0x3cab6ad6	0.020924967
30	0xbcc2f61c	-0.023798995
31	0xbcb2631c	-0.021775775

net.1.weight f4 [32, 32]
0	0xbcb16e2c	-0.02165898
1	0x3e3584a8	0.17726386
2	0x3e15ee1d	0.14641614
3	0xbe04b08d	-0.12957974
4	0xbd8810a2	-0.066437975
5	0x3d546f58	0.051864
6	0x3e0e740d	0.13911457
7	0xbe0c9681	-0.13729288
8	0x3e49c7ea	0.19705167
9	0x3e0b4175	0.13599189
10	0xbdda955a	-0.10673018
11	0x3e3fe5ff	0.1874008
12	0xbd322ce2	-0.043499835
13	0x3df1908a	0.11795147
14	0xbdfdf004	-0.12399295
15	0xbd61fd29	-0.055173073
16	0x3c10f81f	0.008848219
17	0xbe2c387b	-0.1681842
18	0x3e0a4fb5	0.13506968
19	0x3cfdb649	0.03097071
20	0xbe2c4346	-0.16822538
21	0x3e083834	0.1330269
22	0x3e3c013f	0.1835985
23	0xbe265467	-0.16243134
24	0x3e0da74a	0.13833347
25	0x3da22967	0.07918053
26	0x3a8a724d	0.0010562629
27	0x3e3def91	0.18548419
28	0xbd129e5b	-0.03579555
29	0xbd36158c	-0.044454142
30	0x3e19d540	0.15022755
31	0x3d8f311c	0.06991789
32	0xbe37490c	-0.17898959
33	0x3e1b5e3e	0.1517267
34	0xbdd6543f	-0.104652874
35	0x3dac7c4a	0.08422144
36	0xbd592dc7	-0.053022172
37	0x3da331d6	0.0796849
38	0xbdcac776	-0.099013254
39	0x3de8e0d7	0.1137101
40	0x3e1b4cf5	0.15166076
41	0x3dd9768c	0.10618314
42	0xbdcfe15b	-0.10150405
43	0xbe0794be	-0.13240334
44	0xbd1d5af6	-0.038416825
45	0x3befb666	0.0073154448
46	0x3dd9a52e	0.10627209
47	0xbcd76be7	-0.026296569
48	0xbdf8b05c	-0.12143013
49	0xbd3b56cd	-0.045737077
50	0x3e30319d	0.17206426
51	0x3e173132	0.1476486
52	0x3da287a1	0.079360254
53	0xbde736f0	-0.11289775
54	0xbdb4d98a	-0.08830555
55	0xbe0d5fc3	-0.13806061
56	0x3e1178c6	0.14206228
57	0x3de3e84d	0.11128292
58	0xbe22e677	-0.15908228
59	0xbd723786	-0.059134983
60	0x3e05c4e4	0.13063389
61	0x3e1a5eb9	0.15075196
62	0x3e32c495	0.17457803
63	0x3d90568a	0.07047756
64	0x3dde5afc	0.10857198
65	0xbdaafe26	-0.08349256
66	0xbe0b51e4	-0.13605458
67	0x3d808a2e	0.06276356
68	0x3cd8026d	0.026368344
69	0x3d07145d	0.032978404
70	0x3e146a16	0.14493594
71	0xbced6ea3	-0.02898342
72	0x3e25bada	0.1618456
73	0xbe0866bb	-0.13320439
74	0x3e005576	0.12532601
75	0xbde9d6ad	-0.11417899
76	0x3b5af2be	0.0033408846
77	0xbe3134e7	-0.17305337
78	0xbdc1651e	-0.09443115
79	0xbda8e368	-0.08246499
80	0x3e19ac44	0.1500712
81	0xbdff3578	-0.1246137
82	0xbd459f95	-0.048247892
83	0xbbb8b1cf	-0.005636431
84	0x3d89f2d6	0.067357704
85	0x3daa7e43	0.08324864
86	0x3e0b2b3b	0.1359071
87	0xbd78b6af	-0.060721096
88	0x3e3c3cf8	0.18382633
89	0x3e453583	0.19258694
90	0x3e3578d4	0.17721874
91	0x3e0b5ed1	0.13610388
92	0x3e3581f5	0.17725356
93	0xbd80b24c	-0.062840074
94	0xbde8803a	-0.11352582
95	0x3dd3f996	0.10350339
96	0xbc283a81	-0.010267855
97	0xbe321010	-0.1738894
98	0xbe143bab	-0.14475887
99	0xbe17c49e	-0.14821097
100	0xbe0c80f5	-0.13721068
101	0x3ddf52c2	0.10904457
102	0x3d460a73	0.04834981
103	0xbe0c79a3	-0.13718276
104	0xbdc38988	-0.095477164
105	0x3d9f4199	0.07776184
106	0xbd627b13	-0.055293154
107	0xbdd16197	-0.10223692
108	0x3c80e08a	0.015732069
109	0xbdeadf6d	-0.11468396
110	0xbd75ea98	-0.06003818
111	0xbd0a07fa	-0.033699013
112	0x3e312df8	0.17302692
113	0x3e10b573	0.14131717
114	0x3d797a17	0.06090745
115	0xbde7a0a0	-0.11309934
116	0xbd87133d	-0.06595466
117	0x3d9c01a6	0.07617502
118	0xbdbc718d	-0.092013456
119	0x3daf9601	0.08573533
120	0x3df192f2	0.11795606
121	0x3c897e42	0.016783837
122	0x3d0a6b0c	0.033793494
123	0x3d0672f4	0.03282447
124	0x3d1d97d1	0.03847486
125	0x3d416526	0.047215603
126	0xbe4523eb	-0.19251983
127	0x3e01e714	0.12685806
128	0x3bf139aa	0.0073616104
129	0x3e13fc49	0.14451708
130	0x3e2076ea	0.15670362
131	0x3d37ebde	0.044902675
132	0x3b1e5af4	0.00241631
133	0xbe185128	-0.14874709
134	0xbd956bc0	-0.07295942
135	0x3dfb25b9	0.122630544
136	0x3d11b391	0.03557164
137	0xbc592d1e	-0.013255386
138	0x398c5bcb	0.00026771272
139	0xbde6069c	-0.112317294
140	0xbe1954ed	-0.14973803
141	0x3d5921b0	0.053010643
142	0xbe15733c	-0.1459474
143	0x3e06963b	0.13143246
144	0x3d68a800	0.056800842
145	0x3cf24403	0.029573446
146	0xbd0d9351	-0.03456432
147	0xbd5a6cf0	-0.053326547
148	0xbd820f3f	-0.06350564
149	0x3dc8a146	0.097963855
150	0xbd87ccfd	-0.06630895
151	0x3d901c2e	0.07036625
152	0xbddc25b9	-0.107493825
153	0x3ca73d93	0.020415103
154	0xbdf92841	-0.12165881
155	0x3da55417	0.080726795
156	0x3de29a5e	0.110645995
157	0x3e3036d4	0.17208415
158	0xbde82aab	-0.11336263
159	0x3ca84f43	0.020545607
160	0xbe373c95	-0.17894204
161	0xbdbdd04e	-0.092682466
162	0x3d9bf7c3	0.07615616
163	0x3e207d9a	0.15672913
164	0xbe26f80d	-0.16305561
165	0xbd250a7c	-0.0402932
166	0x3d7befb2	0.06150789
167	0xbc7a489f	-0.015276103
168	0xbd29606f	-0.041351732
169	0x3d729cfa	0.059231736
170	0x3c78c09c	0.01518264
171	0x3c4a57ad	0.012350005
172	0x3cdc4c07	0.026891721
173	0xbd8dbbab	-0.069205604
174	0x3e1cd37a	0.15315047
175	0xbd38a762	-0.045081504
176	0xbe08de3a	-0.13366023
177	0xbe067577	-0.13130747
178	0xbdf96ef4	-0.12179366
179	0x3dfc9313	0.1233274
180	0xbe04e435	-0.12977679
181	0xbdb45a71	-0.08806313
182	0xbd7312d1	-0.059344117
183	0x3cfe38b7	0.031032903
184	0x3e4252c6	0.18976888
185	0xbccf1b06	-0.02528144
186	0x3e191fb5	0.14953502
187	0x3d5166be	0.051123373
188	0x3da35240	0.07974672
189	0x3de34a9d	0.11098216
190	0x3dad60e3	0.08465745
191	0x3d0e78ac	0.03478305
192	0xbd5da14a	-0.054108895
193	0x3a0806e4	0.0005189015
194	0xbd1c08f3	-0.038094472
195	0x3d80c5aa	0.062877014
196	0x3cb89d5b	0.02253597
197	0xbe46036a	-0.1933724
198	0xbda72606	-0.08161549
199	0xbd334ea4	-0.04377617
200	0x3e38e385	0.18055542
201	0x3d56bc89	0.052425895
202	0xbc33f452	-0.0109835435
203	0xbe1330d1	-0.1437409
204	0xbe2ac20c	-0.16675586
205	0x3d850200	0.06494522
206	0x3cdcba22	0.026944224
207	0x3dc438a7	0.09581118
208	0x3e1b3bd0	0.15159535
209	0xbdbef9ab	-0.09324964
210	0x3e053c71	0.13011338
211	0x3d717c52	0.05895645
212	0xbdb4b49e	-0.088235125
213	0x3db4d1e4	0.08829096
214	0xbe160cca	-0.14653316
215	0x3cc712e9	0.02430101
216	0x3e0d2d0d	0.13786717
217	0x3d9f7a85	0.077870406
218	0x3c2eb439	0.010663086
219	0x3ab7313d	0.0013976466
220	0x3b646a26	0.0034853308
221	0xbd85dd31	-0.065363295
222	0xbcbb9960	-0.022900283
223	0xbe037ae7	-0.12839852
224	0x3c8bf2dc	0.017083578
225	0xbc80481a	-0.01565938
226	0x3d8a24ee	0.06745325
227	0xbdb47a41	-0.088123806
228	0xbda42736	-0.080152914
229	0x3dbc452d	0.09192882
230	0xbd693ac4	-0.05694081
231	0xbd3e52fb	-0.046465855
232	0x3e0df81d	0.13864179
233	0x3d4c7abf	0.049921747
234	0xbd95b6c1	-0.07310248
235	0xbd846950	-0.06465399
236	0xbe34c04d	-0.17651482
237	0xbe44f93f	-0.19235705
238	0xbde01519	-0.10941524
239	0x3d7386ac	0.059454605
240	0xbc43acb0	-0.011943027
241	0x3baf8ed1	0.005357601
242	0x3e032a1c	0.12809032
243	0x3da27229	0.079319306
244	0x3e287cb6	0.16453823
245	0x3dfd40ed	0.12365899
246	0x3dcd492c	0.10023722
247	0x3b340307	0.0027467625
248	0x3e456736	0.19277653
249	0xbe14f1a5	-0.14545305
250	0xbdf006ca	-0.11720045
251	0xbd6f50ff	-0.058426853
252	0x3e002065	0.12512358
253	0xbc37dc5e	-0.011221973
254	0xbe0ccc15	-0.13749726
255	0xbcb4c8e4	-0.022068448

net.1.bias f4 [32]
0	0x3d1dca08	0.03852275
1	0xbda895bf	-0.08231687
2	0x3df14c4d	0.11782131
3	0x3dc4c1f4	0.09607306
4	0xbddab973	-0.10679903
5	0x3d67ea83	0.056620132
6	0x3c602fa2	0.013683232
7	0x3d20b23b	0.039232474
8	0x3d9ddf41	0.07708598
9	0xbe3e83a9	-0.18604912
10	0x3dfc47c1	0.123183735
11	0xbbc2ca0a	-0.005944495
12	0xbd2688b4	-0.040657714
13	0x3e07c281	0.13257791
14	0xbe2c75fa	-0.1684188
15	0xbdc898c3	-0.09794762
16	0x3daaa7dd	0.08332799
17	0x3e201ef6	0.1563681
18	0x3d325895	0.04354151
19	0x3d8381bf	0.064212315
20	0xbd18d429	-0.037311707
21	0xbd4d99be	-0.050195448
22	0x3e1a80f1	0.1508825
23	0x3e165e18	0.14684331
24	0x3c2c72d1	0.010525421
25	0x3a527ac3	0.0008029157
26	0x3dd05766	0.1017292
27	0xbd81222c	-0.06305346
28	0x3df47c33	0.119377516
29	0xbc5fcba7	-0.013659394
30	0xbe081641	-0.13289739
31	0x3db5f9d3	0.08885541

net.3.weight f4 [32, 32]
0	0x3df32689	0.118725844
1	0xbd16a7df	-0.036781188
2	0xbd5c77bd	-0.05382513
3	0x3c1caa7d	0.009562132
4	0xbd243164	-0.040086165
5	0xbe10b69f	-0.14132164
6	0x3e0dfe4c	0.13866538
7	0xbac224ac	-0.0014811954
8	0xbd99fe55	-0.07519213
9	0x3c976411	0.018480333
10	0x3da7beed	0.08190713
11	0x3d4805ed	0.048833776
12	0xbd95de28	-0.073177636
13	0xbdacadb2	-0.08431567
14	0xbcf8931d	-0.030343587
15	0x3e0b851b	0.13624994
16	0xbc584815	-0.013200779
17	0x3da707de	0.081557974
18	0xbdcc97f4	-0.0998992
19	0xbd8fb003	-0.070159934
20	0x3da778d1	0.08177341
21	0x3e02b804	0.12765509
22	0xbd8a6e43	-0.06759312
23	0x3d58ca1d	0.052927125
24	0x3dff1e55	0.12456957
25	0xbe16d4ac	-0.14729565
26	0x3d38d1a4	0.045121804
27	0x3db4cee9	0.088285275
28	0x3e16f80c	0.1474306
29	0x3e096591	0.13417651
30	0xbd62f731	-0.05541152
31	0x3e170e07	0.14751445
32	0xbe41e40f	-0.18934654
33	0xbe3fc1e8	-0.18726313
34	0x3ce2a115	0.0276647
35	0xbc312363	-0.0108116595
36	0x3dc3073d	0.09522865
37	0xbddb041c	-0.10694143
38	0xbdd1639c	-0.10224077
39	0x3c6a4dcc	0.014300775
40	0xbd0b6f41	-0.034041647
41	0xbda6267b	-0.08112808
42	0xbc66168d	-0.014043462
43	0x3dbd5705	0.09245113
44	0xbc80a3f8	-0.015703186
45	0xbd378d6f	-0.044812616
46	0xbd8cb596	-0.06870572
47	0xbd74817d	-0.059693802
48	0x3c3729b4	0.011179376
49	0xbd1be06d	-0.038055826
50	0x3c8f9d8f	0.017531184
51	0xbc7cc7c8	-0.015428491
52	0x3d459741	0.04823995
53	0xbce34db1	-0.027747007
54	0x3e277e85	0.16356857
55	0x3cc8e1c9	0.024521725
56	0xbdbe447a	-0.092904046
57	0xbd90c3e7	-0.070686154
58	0x3dbea128	0.09308082
59	0x3c7be9ac	0.015375536
60	0x3d8bf3ed	0.068336345
61	0xbde9a951	-0.11409248
62	0x3d6635e9	0.056203756
63	0xbd083c08	-0.033260375
64	0x3b00a09d	0.0019626983
65	0xbdd22239	-0.10260434
66	0x3dae09d6	0.0849797
67	0xbdac8c40	-0.08425188
68	0x3dd0e3db	0.1019971
69	0x3d84fbd9	0.06493349
70	0xbdea6daa	-0.11446698
71	0xbdda2414	-0.106514126
72	0x3e48f633	0.19625168
73	0x3d8fcbaf	0.070212714
74	0x3e1f03b3	0.15528755
75	0x3e1dfbe4	0.1542812
76	0x3e1c8813	0.15286283
77	0x3de978bb	0.11399981
78	0x3d9317d8	0.07182282
79	0x3e149659	0.14510478
80	0x3d98798a	0.07445057
81	0xbe1d998c	-0.15390605
82	0x3cf0cdd9	0.02939503
83	0xbce0faae	-0.027463283
84	0x3d38a593	0.04507978
85	0xbe1223c4	-0.14271456
86	0xbe02ef07	-0.12786494
87	0x3b3fa1fe	0.0029240842
88	0x3dd0a7c1	0.101882465
89	0xbd3ce3ef	-0.046115812
90	0xbd190ba1	-0.037364606
91	0x3e1f6cc0	0.15568829
92	0xbe206c31	-0.15666272
93	0xbdb58ec7	-0.08865123
94	0x3d0a734f	0.033801373
95	0x3e122e99	0.14275588
96	0x3e0812a6	0.13288364
97	0xbde40657	-0.11134022
98	0xbe27e2bc	-0.16395086
99	0xbcefe427	-0.029283596
100	0xbce8f20d	-0.028435731
101	0x3d5e15ee	0.054220133
102	0xbd45e019	-0.04830942
103	0x3e02d46e	0.12776348
104	0x3e0659a8	0.13120139
105	0xbd3240fd	-0.04351901
106	0xbdae7387	-0.08518129
107	0x3e3d24cf	0.18471073
108	0x3d85404e	0.06506406
109	0xbdde59f3	-0.10857
110	0x3daea598	0.08527678
111	0x3e101722	0.14071324
112	0xbe376d44	-0.17912775
113	0xbd2bae1f	-0.0419141
114	0x3e15d957	0.1463369
115	0xbe1466f9	-0.14492406
116	0xbdebe5f7	-0.11518472
117	0xbdad3b9e	-0.08458637
118	0x3e29d652	0.16585663
119	0xbdb83537	-0.08994525
120	0x3d9804b8	0.07422775
121	0x3db50fa4	0.08840874
122	0x3d998835	0.074966826
123	0xbe017b28	-0.12644637
124	0xbdd49a5e	-0.10381006
125	0xbdf4a62a	-0.11945756
126	0xbc98993d	-0.018627757
127	0xbe106b9d	-0.14103551
128	0xbd8d1543	-0.06888821
129	0x3e370dba	0.1787633
130	0xbe080431	-0.13282849
131	0xbe243b75	-0.16038306
132	0xbd9f1e40	-0.077694416
133	0x3e02ff79	0.12792768
134	0xbd9943ab	-0.0748361
135	0x3dc115f3	0.094280146
136	0xbdf7b3d4	-0.12094846
137	0xbc1590f0	-0.009128794
138	0x3d13af17	0.03605565
139	0x3e3bfd60	0.18358374
140	0x3c74fc71	0.014952765
141	0xbe3af8c8	-0.18258965
142	0x3e00734a	0.1254398
143	0x3d8c6370	0.06854904
144	0xbde7096c	-0.11281094
145	0x3da41933	0.08012619
146	0xbe2e66dc	-0.17031425
147	0x3db423c7	0.087958865
148	0xbddf3142	-0.10898067
149	0xbdb7801e	-0.08959983
150	0x3d87ccd4	0.06630865
151	0x3e304c3d	0.17216583
152	0xbdc01fe7	-0.09381085
153	0x3e227400	0.15864563
154	0xbe312c7e	-0.17302129
155	0x3d931116	0.07180993
156	0x3e14abe3	0.14518695
157	0xbdb74032	-0.08947791
158	0x3df3b5e5	0.11899928
159	0xbd9206f7	-0.07130235
160	0xbc1c9608	-0.009557255
161	0x3d02fb3b	0.031977873
162	0x3e44b63d	0.19210143
163	0x3ddd3d92	0.10802759
164	0x3c90538c	0.017617963
165	0x3e115265	0.14191587
166	0xbdd1c14a	-0.10241945
167	0x3e4a6978	0.19766796
168	0xbe1305d9	-0.143577
169	0xbd2ad01b	-0.04170237
170	0xbe055fe3	-0.13024859
171	0xbc527c20	-0.0128469765
172	0x3e0c219a	0.13684693
173	0x3cb8dc7b	0.02256607
174	0xbe2bd63e	-0.16780946
175	0x3d2e609d	0.042572606
176	0xbd75e22a	-0.06003014
177	0x3e1fbbdd	0.15599008
178	0x3dd69f61	0.10479618
179	0x3dcade31	0.09905661
180	0x3da9bfd0	0.082885385
181	0xbdd25d6b	-0.10271724
182	0x3e27ede4	0.16399342
183	0xbe1dae4d	-0.15398522
184	0xbd22028f	-0.03955322
185	0x3cff4ef9	0.031165587
186	0x3c0c2482	0.008553626
187	0xbc20f65b	-0.009824361
188	0xbd9c34ac	-0.07627234
189	0xbcccf0ec	-0.025017224
190	0x3d61c70e	0.055121474
191	0x3dca376f	0.09873854
192	0x3d37826e	0.04480212
193	0x3cc5ffcc	0.024169825
194	0xbc2ff22f	-0.010738893
195	0x3c80df0b	0.015731355
196	0xbdf66c2c	-0.12032351
197	0x3c6c9333	0.014439392
198	0xbd70bc52	-0.058773346
199	0x3da8ae46	0.08236365
200	0xbdc3237a	-0.09528251
201	0x3dc0e20b	0.09418114
202	0xbc4b044f	-0.012391164
203	0xbd7e885e	-0.06214177
204	0x3dba7f75	0.09106342
205	0x3d61f36f	0.055163797
206	0x3c08461a	0.008317495
207	0xbd5e9901	-0.054345135
208	0xbe2a0a27	-0.16605435
209	0x3ddc99ea	0.10771544
210	0x3de5b58a	0.112162665
211	0x3d565b5d	0.052333225
212	0xbd84917a	-0.0647306
213	0xbc2c335e	-0.010510294
214	0x3c9a03bf	0.018800614
215	0x3c48f1a6	0.012264645
216	0xbe43af96	-0.1910995
217	0xbcc7244b	-0.024309298
218	0x3d523a4e	0.051325135
219	0xbdf5e927	-0.12007361
220	0x3e102534	0.14076692
221	0xbdd4aa86	-0.10384087
222	0xbd5dc243	-0.05414034
223	0x3d059637	0.03261396
224	0x3d97645f	0.07392191
225	0xbd7e48d1	-0.062081162
226	0xbdb7e845	-0.08979849
227	0xbe10fc86	-0.1415883
228	0x3e259f86	0.16174135
229	0x3e16d17e	0.14728352
230	0x3d8e6ae7	0.06953984
231	0xbc72d2f5	-0.014820804
232	0xbdb525a8	-0.08845073
233	0x3e112390	0.14173722
234	0x3d90be9e	0.07067607
235	0x3cc7b6dd	0.024379188
236	0xbd7a1c22	-0.061061986
237	0x3e18d0d7	0.14923416
238	0x3e3a2b7a	0.18180647
239	0x3d3278fe	0.04357242
240	0x3c9c3855	0.01906983
241	0xbdcbe203	-0.09955218
242	0x3ab824c8	0.0014049048
243	0x3e0c30b6	0.13690457
244	0xbcac8635	-0.021060089
245	0xbe3e807e	-0.18603703
246	0x3dc51afb	0.09624287
247	0xbd104301	-0.03522015
248	0xbd7e634b	-0.062106412
249	0xbd7baec6	-0.061445974
250	0x3dc77264	0.09738615
251	0x3ccd8c79	0.025091397
252	0x3db0699b	0.08613893
253	0x3d4390fa	0.047745682
254	0xbe06cf89	-0.13165106
255	0x3cd49e5d	0.02595442

net.3.bias f4 [32]
0	0xbddf6277	-0.109074526
1	0xbe1a5315	-0.15070756
2	0xbdc5eb9c	-0.096640795
3	0xbde07f83	-0.10961821
4	0x3acd7924	0.0015676362
5	0xbdfb833a	-0.12280889
6	0xbe2be0ac	-0.16784924
7	0x3e19e4e1	0.15028717
8	0xbe1ce162	-0.15320352
9	0xbd8fae3c	-0.070156544
10	0xbdd36e75	-0.103238024
11	0x3daa189f	0.08305477
12	0x3d3dbdfa	0.046323754
13	0xbe077931	-0.13229825
14	0x3e12b019	0.14324988
15	0x3dd95198	0.10611266
16	0xbe381ffd	-0.17980953
17	0x3e434292	0.19068363
18	0x3de1fd8c	0.11034688
19	0x3d48c2bd	0.049013842
20	0xbd9dbcd3	-0.07702031
21	0xbe1a9da3	-0.15099196
22	0x3d3bcf4d	0.045851994
23	0xbd646301	-0.05575848
24	0xbe1bf3ef	-0.15229772
25	0xbd4ebcca	-0.050473012
26	0x3df75c7c	0.12078187
27	0xbe172878	-0.14761531
28	0x3dae2185	0.08502487
29	0xbd8e8099	-0.06958122
30	0x3d180d4f	0.037122067
31	0xbe219296	-0.15778574
