feature-compress-incremental/outputs/compress32_addcls_replay20/last_incremental.ckpt (torch, 70839 bytes, 4 tensors)

mapper.weight f4 [32, 512]
-0.056689892 0.025805766 0.013565987 0.09543428 -0.12768598 -0.03290134 0.14315744 0.18860699
-0.004367252 -0.06517468 0.012240856 -0.056338795 0.049025193 -0.10215832 -0.062843055 -0.10155017
-0.028439818 -0.025857307 0.09201076 0.09467732 -0.19021697 -0.06512535 -0.02179086 -0.01584255
0.08491844 -0.09970664 -0.011712741 -0.026842302 -0.022166044 0.04185745 0.1897104 0.1086354
-0.072478764 0.0018642151 0.012075598 -0.04597396 0.008032512 -0.08349438 0.04879918 0.12196487
0.006267868 -0.0039235223 -0.13175727 -0.123284824 -0.09011716 -0.049544558 -0.10578378 0.09059721
0.21122362 -0.0013945462 0.04686136 0.015499427 0.0068398477 0.11198974 -0.014033402 -0.03368399
-0.067245126 0.006947066 0.1525467 -0.024523385 0.013007885 -0.03375934 0.0884809 -0.1279458
0.01520096 -0.040747333 0.02902053 -0.076411985 0.031993255 0.02171089 0.058756948 -0.10115635
-0.074276745 -0.16851978 -0.0926007 -0.06886694 0.03370707 -0.008108684 0.11824412 -0.077451184
0.05329569 0.06738645 0.039819542 -0.06873052 0.025459664 0.19883788 0.042338345 0.081217624
-0.11343598 0.04796571 0.17336616 0.022241084 -0.139564 -0.050030924 0.12753516 0.07298475
0.040467285 0.14055234 -0.041254748 -0.046051983 0.0702223 0.0237256 -0.00380778 0.029716508
0.10301592 0.15753968 -0.015165676 0.11337984 -0.14354028 0.008688511 -0.087730095 -0.03620943
-0.11481855 0.106380485 -0.11347972 -0.0059746574 -0.0415647 0.089875534 0.010864871 0.040061742
0.00950208 -0.051829267 0.05201736 -0.04810705 -0.043267053 -0.12379553 0.10667494 -0.004937001
0.029119402 0.104119614 -0.0012456288 -0.12350653 -0.07163464 0.09337169 0.09251885 0.0069514024
0.076055795 -0.0734923 0.035016038 -0.052139245 0.06597325 -0.09480385 -0.06746307 0.10939827
0.043774363 -0.0106450915 -0.0022373735 0.08053387 0.10185384 -0.064591296 -0.032039262 -0.09439715
0.13150644 0.005617858 0.16546777 -0.111751564 0.12933916 0.0021115772 -0.07260681 -0.03902538
-0.106758274 0.109984145 0.02705807 -0.044008855 0.04342704 0.0003742544 -0.1181839 0.0021571561
0.035045907 -0.14081655 -0.071325816 -0.10032261 0.09600224 0.036386915 0.077386655 0.0091230385
-0.136363 -0.0046765627 0.012886378 0.16355796 0.048484102 0.107609145 -0.029294455 0.10725635
0.18878882 0.010495957 0.117042124 -0.04261257 -0.04533949 0.14920634 -0.07895695 0.13833298
-0.07814654 0.102159366 -0.058184903 0.004440119 0.044014603 0.08179412 -0.0062623844 0.071054295
-0.04037292 -0.23009585 0.07543655 0.16347586 -0.064914376 -0.203712 0.05574036 -0.004713809
-0.10220997 -0.09932608 0.024594784 -0.0137046715 0.0009836233 -0.039039038 0.22036012 0.10174087
0.016795086 0.058742337 -0.0731196 -0.10203498 -0.03116956 0.002284343 -0.060388148 -0.1275276
0.0942042 -0.095402 -0.043934535 0.072735816 -0.025703467 0.052079108 -0.06374213 -0.0047200765
0.024341114 -0.26902825 -0.09701189 -0.061728187 -0.011264403 -0.07718848 0.021232763 -0.07549892
-0.06339825 0.063693084 0.10003624 -0.1082726 -0.057451546 -0.116417386 -0.09862396 -0.11890945
-0.10875775 -0.04406388 0.08341485 -0.06801745 -0.0349945 0.051538467 0.060926 -0.097916566
00000000: a933 68bd 9d66 d33c e043 5e3c 0c73 c33d
00000010: 1dc0 02be 8ec3 06bd dd97 123e 3122 413e
00000020: 2a1b 8fbb 4d7a 85bd df8d 483c 82c3 66bd
00000030: a4ce 483d 6238 d1bd dcb3 80bd 89f9 cfbd
00000040: 9ffa e8bc b4d2 d3bc 2370 bc3d 2fe6 c13d
00000050: 3dc8 42be 7160 85bd bf82 b2bc 3cc8 81bc
00000060: b8e9 ad3d ff32 ccbd cce6 3fbc 63e4 dbbc
00000070: 9095 b5bc b872 2b3d 7143 423e 3d7c de3d
00000080: bf6f 94bd ae58 f43a bbd8 453c 314f 3cbd
00000090: cc9a 033c 1aff aabd a6e1 473d b8c8 f93d
000000a0: b062 cd3b e490 80bb 61eb 06be c17c fcbd
000000b0: 588f b8bd 3cef 4abd 2ba5 d8bd 088b b93d
000000c0: 014b 583e 35c9 b6ba b3f1 3f3d 4ff1 7d3c
000000d0: cd20 e03b e05a e53d 5bec 65bc 39f8 09bd
000000e0: d0b7 89bd 37a4 e33b 3435 1c3e 44e5 c8bc
000000f0: 061f 553c 3c47 0abd 7935 b53d 3904 03be
00000100: 730d 793c ade6 26bd 76bc ed3c e37d 9cbd
00000110: 5c0b 033d 09db b13c 20ab 703d 0f2b cfbd
00000120: 681e 98bd 7390 2cbe 70a5 bdbd 1c0a 8dbd
00000130: 6d10 0a3d 49da 04bc f929 f23d ba9e 9ebd
00000140: 954c 5a3d e801 8a3d d119 233d 96c2 8cbd
00000150: c990 d03c 289c 4b3e f96a 2d3d 6d55 a63d
00000160: 2051 e8bd b177 443d e686 313e ef32 b63c
00000170: dde9 0ebe 3aed 4cbd 9498 023e 0779 953d
00000180: 06c1 253d f4ec 0f3e bdfa 28bd 01a1 3cbd
00000190: b6d0 8f3d 315c c23c f38b 79bb 0970 f33c
000001a0: 03fa d23d 1552 213e 7579 78bc b133 e83d
000001b0: 39fc 12be 425a 0e3c d6ab b3bd 5750 14bd
000001c0: fd25 ebbd 03de d93d 0e68 e8bd 0fc7 c3bb
000001d0: bf3f 2abd aa10 b83d 9202 323c c817 243d
000001e0: 9dae 1b3c ed4a 54bd 2810 553d e60b 45bd
000001f0: cb38 31bd 8388 fdbd 6478 da3d 91c6 a1bb
00000200: d08b ee3c aa3c d53d 5e44 a3ba fef0 fcbd
00000210: 2fb5 92bd a839 bf3d 867a bd3d 97c8 e33b
00000220: 24c3 9b3d 2283 96bd fa6c 0f3d f68f 55bd
00000230: fc1c 873d 8528 c2bd 142a 8abd 330c e03d
00000240: bf4c 333d c068 2ebc e6a0 12bb f1ee a43d
00000250: bf98 d03d 7148 84bd 9a3b 03bd 4b53 c1bd
00000260: a0a9 063e 0216 b83b 6270 293e 01de e4bd
00000270: 7c71 043e 6362 0a3b e1b2 94bd 14d9 1fbd
00000280: 15a4 dabd 5e3f e13d e3a8 dd3c a142 34bd
00000290: 8de0 313d 9337 c439 670a f2bd 135f 0d3b
000002a0: 4c8c 0f3d 3732 10be 4513 92bd f175 cdbd
000002b0: d39c c43d 720a 153d e57c 9e3d cc78 153c
000002c0: bea2 0bbe da3d 99bb 6321 533c bd7b 273e
000002d0: 4497 463d 2f62 dc3d edfa efbc 38a9 db3d
000002e0: db51 413e 3cf7 2b3c c8b3 ef3d 858a 2ebd
000002f0: e7b5 39bd 8cc9 183e 2eb4 a1bd 29a7 0d3e
00000300: 4b0b a0bd ee38 d13d 4b53 6ebd 6b7e 913b
00000310: a848 343d ad83 a73d b034 cdbb ea84 913d
00000320: 135e 25bd 3f9e 6bbe 7a7e 9a3d 3766 273e
00000330: d4f1 84bd e199 50be 0150 643d 4c76 9abb
00000340: 7653 d1bd 796b cbbd 007b c93c 8f89 60bc
00000350: ecec 803a 66e7 1fbd 15a6 613e 845d d03d
00000360: d995 893c ce9b 703d bbbf 95bd b7f7 d0bd
00000370: 4e57 ffbc eab4 153b 9059 77bd 9896 02be
00000380: 22ee c03d 2062 c3bd b3f4 33bd 84f6 943d
00000390: 1490 d2bc e750 553d 3c8b 82bd dfaa 9abb
000003a0: 0467 c73c 12be 89be 2bae c6bd b2d6 7cbd
000003b0: 558e 38bc fe14 9ebd 55f0 ad3c 2e9f 9abd
000003c0: f1d6 81bd 8571 823d cddf cc3d 06be ddbd
000003d0: 5052 6bbd 3d6c eebd 5cfb c9bd cc86 f3bd
000003e0: 62bc debd 547c 34bd 68d5 aa3d bc4c 8bbd
000003f0: 6556 0fbd 001a 533d 8b8d 793d 7b88 c8bd

mapper.bias f4 [32]
-0.026861215 0.055926498 -0.06339766 0.0515886 -0.057436068 -0.06387688 0.07747612 -0.083146244
0.044656657 0.053944737 -0.037316214 -0.010992577 -0.026047233 -0.10040638 0.09570268 -0.0117644565
-0.07022072 -0.002520759 0.06414841 0.005003536 0.031038783 0.05471644 0.03678689 -0.06433164
0.009035844 0.05487546 0.06017864 0.06573746 0.07161081 -0.046373498 0.030169878 0.089415476
00000000: 0d0c dcbc 2f13 653d a2d6 81bd 914e 533d
00000010: 1542 6bbd e2d1 82bd cdab 9e3d 9448 aabd
00000020: e6e9 363d 28f5 5c3d e3d8 18bd 361a 34bc
00000030: 0261 d5bc dca1 cdbd c4ff c33d b5bf 40bc
00000040: e1cf 8fbd 5133 25bb 3e60 833d b4f4 a33b
00000050: 0c45 fe3c 591e 603d daad 163d 4fc0 83bd
00000060: 140b 143c 17c5 603d e17d 763d 5da1 863d
00000070: b0a8 923d 23f2 3dbd d226 f73c 761f b73d

head.weight f4 [11, 32]
-0.19981386 0.23636892 -0.1826807 0.14605093 -0.014808184 -0.1443295 0.29696766 -0.095579416
0.067077555 0.2625717 -0.21666697 0.18864766 -0.16274972 -0.19151607 0.14725325 -0.14527611
-0.18499841 -0.15598625 0.16063556 0.050717015 0.055171408 0.16881344 0.09805051 -0.19516739
0.0010319401 0.19053099 0.13093108 0.06950716 0.21236922 -0.10740628 0.23185341 0.2435542
0.37115008 0.054582812 0.17761655 0.11407662 -0.3005674 0.008584314 -0.13644637 -0.047683988
-0.10496498 -0.059842054 -0.15410848 -0.16041851 0.1704276 0.29618773 -0.17409238 -0.20540568
-0.059390873 -0.0792831 -0.32394233 0.2705225 0.23377936 0.18880475 -0.14588888 -0.08938233
0.32091555 -0.14455815 -0.28743204 -0.30175745 0.11714453 -0.052779473 -0.16811149 0.23641706
-0.08185889 -0.14968628 0.17973346 0.10682512 0.36185014 0.17629804 0.17739256 -0.027629662
-0.108375885 -0.038315658 0.3005828 0.06299468 0.026746111 0.0017287967 -0.0037887408 -0.35443917
0.39671364 0.26500562 0.1345003 -0.061613884 -0.36497667 -0.24167609 -0.29090822 0.070643686
0.2774622 -0.07666009 0.31474215 -0.24915762 -0.19749606 -0.1778146 0.12828463 0.071428284
0.22908954 0.2828623 0.26366332 -0.23710811 0.00016652084 0.3799285 0.24253255 0.123380326
-0.25486803 -0.106355004 0.32913777 -0.06474616 0.07317548 0.0020591521 -0.11261088 0.20269588
0.32495838 0.030313907 0.041033313 0.047689565 -0.19386002 -0.08876141 0.10204955 0.31182295
-0.22104704 0.18857293 0.04668028 0.11949464 -0.3031954 0.27689993 0.18225099 0.07464213
0.0423179 0.038704537 -0.17914727 -0.3770139 0.39565948 -0.1795501 -0.18944019 -0.16887634
-0.4994744 -0.18886827 0.14065701 -0.22011559 -0.21884544 -0.18578874 0.008112456 0.055363946
0.36521548 -0.19984126 -0.312045 -0.17050207 0.33053046 0.24211635 -0.13651948 -0.08427292
-0.02706237 -0.06423044 0.13374516 -0.28458923 0.0054324805 0.07142042 0.08189645 -0.4087811
0.11529729 -0.15349013 0.018478012 0.2441673 -0.037054803 0.27325362 -0.20805219 0.44824755
0.16710109 -0.24008739 0.16941386 0.13689695 0.19712351 -0.08395675 -0.095341064 0.0020513348
-0.005302006 0.21470131 0.06410493 0.14864059 0.0049156263 0.19488895 -0.28934604 -0.3054084
-0.34851775 -0.039540213 0.10075521 0.21778494 0.20424262 -0.1387847 -0.19317204 -0.23470944
-0.18317333 -0.3838192 -0.22857805 -0.19724075 0.04375814 -0.030853312 -0.17363495 0.12724741
0.112478465 -0.32750145 -0.2227782 -0.27872825 0.35308293 0.15301125 -0.3603899 -0.12005491
0.106552556 -0.041124403 0.14255066 0.25428358 0.13499533 -0.07557119 0.098277114 0.07662432
0.11554403 -0.06200561 -0.3506622 0.1630095 0.15816855 0.29112768 -0.037189923 0.16199163
-0.20020564 -0.13188498 -0.19391292 0.32742098 0.059253387 -0.0786736 0.22956263 0.2657533
-0.26195395 0.26030815 -0.021246111 -0.14579903 -0.032294378 0.13459864 -0.37688157 0.11318122
-0.21251333 -0.07405052 -0.20034166 -0.3705013 -0.03397336 0.01668245 -0.19010262 0.098259255
-0.26968697 -0.34827685 -0.42201415 -0.29404905 -0.3535317 0.19843286 0.18691613 0.15276743
00000000: 019c 4cbe b20a 723e a610 3bbe 608e 153e
00000010: 069e 72bc 1dcb 13be 250c 983e 24bf c3bd
00000020: f55f 893d cc6f 863e f2dd 5dbe da2c 413e
00000030: dda7 26be ca1c 44be 8ec9 163e 43c3 14be
00000040: 3970 3dbe dcba 1fbe a67d 243e a5bc 4f3d
00000050: 6afb 613d 6edd 2c3e b5ce c83d f6d9 47be
00000060: 2a42 873a 8e1a 433e cc12 063e c559 8e3d
00000070: 5177 593e d3f7 dbbd fb6a 6d3e 4666 793e
00000080: 6207 be3e 3a92 5f3d 1de1 353e 01a1 e93d
00000090: f8e3 99be 39a5 0c3c 99b8 0bbe 4950 43bd
000000a0: e1f7 d6bd f11c 75bd 9dce 1dbe c044 24be
000000b0: 9384 2e3e eba5 973e 4645 32be de55 52be
000000c0: d843 73bd 2e5f a2bd c5db a5be ed81 8a3e
000000d0: db63 6f3e 0856 413e e563 15be 150e b7bd
000000e0: 0b4f a43e 0d07 14be 4b2a 93be f47f 9abe
000000f0: 79e9 ef3d 4a2f 58bd 6b25 2cbe 5017 723e
00000100: a2a5 a7bd 5c47 19be 0c0c 383e 21c7 da3d
00000110: 6c44 b93e 7987 343e 65a6 353e 9a57 e2bc
00000120: 2df4 ddbd e1f0 1cbd fde5 993e 5b03 813d
00000130: a91a db3c cb98 e23a 864c 78bb 0d79 b5be
00000140: 0d1e cb3e d1ae 873e 72ba 093e d75e 7cbd
00000150: 39de babe f079 77be ecf1 94be a3ad 903d
00000160: 870f 8e3e f7ff 9cbd e225 a13e 2d23 7fbe
00000170: 683c 4abe 0815 36be 0c5d 033e fe48 923d
00000180: 7396 6a3e 54d3 903e e1fe 863e 78cc 72be
00000190: 199c 2e39 fd85 c23e 745a 783e d3ae fc3d
000001a0: 107e 82be a7d0 d9bd bf84 a83e a299 84bd
000001b0: 07dd 953d d7f2 063b 88a0 e6bd 828f 4f3e
000001c0: f260 a63e df54 f83c 8c12 283d 2256 433d
000001d0: 3e83 46be 8bc8 b5bd 5bff d03d 42a7 9f3e
000001e0: 285a 62be 4319 413e d233 3f3d 9bb9 f43d
000001f0: 6d3c 9bbe d4c5 8d3e 01a0 3a3e f9dd 983d
00000200: 8955 2d3d a688 1e3d 6272 37be f707 c1be
00000210: e193 ca3e fbdb 37be 9cfc 41be ebed 2cbe
00000220: 1cbb ffbe af66 41be 6408 103e fb65 61be
00000230: 0519 60be 673f 3ebe 1bea 043c 4ec5 623d
00000240: 86fd ba3e 30a3 4cbe 5dc4 9fbe 1898 2ebe
00000250: 4a3b a93e 59ed 773e c3cb 0bbe 4897 acbd
00000260: e7b1 ddbc 408b 83bd 7ef4 083e aeb5 91be
00000270: f302 b23b df44 923d 53b9 a73d c24b d1be
00000280: fc20 ec3d 842c 1dbe 335f 973c fe06 7a3e
00000290: c7c6 17bd e6e7 8b3e a20b 55be b480 e53e
000002a0: 8c1c 2b3e 78d9 75be d47a 2d3e b72e 0c3e
000002b0: bfda 493e 84f1 abbd 2d42 c3bd b06f 063b
000002c0: 73bc adbb a9da 5b3e 7249 833d 3d35 183e
000002d0: 4313 a13b f890 473e 2a25 94be 7d5e 9cbe
000002e0: eb70 b2be ebf4 21bd bf58 ce3d 0403 5f3e
000002f0: fa24 513e 941d 0ebe e4ce 45be ac57 70be
00000300: ca91 3bbe f383 c4be 5d10 6abe 7bf9 49be
00000310: bc3b 333d 16c0 fcbc 5ccd 31be 254d 023e
00000320: 1c5b e63d 45ae a7be f81f 64be 78b5 8ebe
00000330: 49c7 b43e fbae 1c3e 0685 b8be 59df f5bd
00000340: 3a38 da3d 1072 28bd cdf8 113e 7531 823e
00000350: 373c 0a3e 11c5 9abd 8345 c93d 36ed 9c3d
00000360: 59a2 ec3d 98f9 7dbd ff89 b3be f6eb 263e
00000370: f0f6 213e b00e 953e 7654 18bd 22e1 253e
00000380: b502 4dbe db0c 07be 1c91 46be b9a3 a73e
00000390: aeb3 723d a01f a1bd 7712 6b3e d110 883e
000003a0: d41e 86be 1c47 853e 530c aebc 574c 15be
000003b0: 1c47 04bd 3ad4 093e 9ff6 c0be 8ecb e73d
000003c0: 189d 59be cda7 97bd 5d26 4dbe 59b2 bdbe
000003d0: a627 0bbd a2a9 883c 43aa 42be 263c c93d
000003e0: 6914 8abe 5851 b2be 3d12 d8be 998d 96be
000003f0: 1b02 b5be fc31 4b3e f166 3f3e 116f 1c3e

head.bias f4 [11]
-0.019437756 0.15064307 -0.09927057 -0.21905926 -0.17834975 -0.089585885 0.053877365 -0.02311188
-0.21961369 -0.0008727585 0.079636626
00000000: ee3b 9fbc 2d42 1a3e 5e4e cbbd 1251 60be
00000010: 51a1 36be ce78 b7bd 83ae 5c3d 2055 bdbc
00000020: 69e2 60be d5c9 64ba 8718 a33d
