feature-compress-incremental/outputs/compress16_initial/last.ckpt (torch, 37055 bytes, 4 tensors)

mapper.weight f4 [16, 512]
-0.0707078 -0.013103938 0.030676857 -0.014467134 -0.08968913 -0.14889361 0.08451675 -0.018616393
-0.06799075 -0.09917203 -0.005231355 0.12530342 0.01753387 -0.13710395 -0.09804966 -0.20827079
-0.1453229 -0.03960644 0.1428099 0.18132105 -0.07952539 -0.17410274 0.16361658 -0.13300537
0.06001086 -0.06406334 0.043347627 -0.09075672 0.014584208 0.02638293 0.19433287 0.108493365
0.024409784 0.12218861 -0.09740835 -0.16205308 0.026994733 -0.045263708 0.20823377 0.11908495
-0.10878026 0.12686044 -0.0700811 -0.06066727 -0.14765045 0.041218344 -0.10715042 0.1617846
0.3124613 0.023528334 -0.015164473 0.07307983 0.054622386 0.020008838 -0.018249225 -0.027498454
0.04919656 0.12975208 0.17262132 -0.22455671 -0.10914137 -0.20998874 -0.024022115 -0.15052515
-0.3037979 -0.114693165 0.045590084 -0.067808546 0.056646988 -0.026629215 0.031210138 -0.030251224
-0.043202642 -0.14790198 0.17034942 -0.06608033 0.040595938 0.015891517 0.030607918 0.018429073
-0.017636685 0.104076445 0.050698575 -0.20350102 0.04077173 0.13754952 0.035071608 0.059650987
-0.13626593 0.005705823 0.019739164 0.05478325 -0.010755854 -0.11336073 0.12257803 0.07324547
-0.28589863 0.13393837 0.0647644 0.02066842 0.14038503 0.020301035 -0.02296118 0.05869221
0.06566923 0.07938203 -0.264361 -0.052653287 0.122929126 -0.0043015215 -0.068231516 -0.14430462
-0.035428394 0.1017576 -0.04110537 0.14034393 -0.0008223072 0.076519474 0.11445028 -0.10303562
-0.04772073 0.05473545 0.07197037 -0.016640624 -0.13830464 -0.19954205 0.0027612778 -0.04731028
0.10754202 0.035726056 -0.16242301 -0.25644475 -0.13264555 0.1948076 0.035777774 0.0721943
-0.08894739 0.12754597 0.07313149 -0.09635201 0.038448513 -0.24833414 0.008866157 0.2203902
0.16734624 0.05995056 0.045919057 -0.13955735 0.13372497 -0.2413456 0.048707813 -0.18301389
0.1715384 -0.016632028 0.15574357 -0.0644629 0.117700264 0.06249096 0.031412736 -0.012425335
0.055204272 0.14080717 -0.0654289 -0.14873186 0.10016549 -0.0073395814 -0.12631518 -0.038590014
0.014948481 -0.11873538 -0.080936976 -0.23941997 0.03339696 0.13084127 0.12029965 -0.014395325
-0.18426299 0.08349887 -0.15921207 0.14575705 0.09305215 0.04420492 -0.1537033 0.06513899
0.05197916 -0.08161182 -0.035891782 0.0085148765 0.050835196 0.24032138 -0.08894677 0.13677779
-0.15847102 -0.07577996 -0.19557163 -0.038480107 0.15109515 0.08357287 0.0009470135 0.10993732
-0.023435175 -0.2218026 0.18094431 -0.011157786 0.022172155 -0.064708285 0.03624732 -0.0523559
-0.16512758 0.09073147 0.0292526 -0.052172113 -0.020285474 0.08414781 0.067049555 -0.0063071614
0.023031652 0.0533211 -0.12955964 -0.1672947 -0.07163574 -0.21583912 -0.05831707 0.017636536
-0.016441427 -0.005800779 -0.085665435 0.0466463 0.019511318 -0.051385432 -0.030745672 0.116406776
0.049829733 -0.2291236 -0.0630895 -0.009601002 -0.04493669 0.09578641 0.024837296 0.10301392
0.20593609 0.01760243 0.2868687 -0.17434518 -0.11149747 -0.023982454 -0.1922856 -0.039739676
-0.13792038 0.07009717 0.03094724 0.026418447 -0.10745393 0.08425082 -0.16092092 0.0032596772
00000000: 40cf 90bd e6b1 56bc 084e fb3c 8f07 6dbc
00000010: efae b7bd 9177 18be 1e17 ad3d 6881 98bc
00000020: bc3e 8bbd b51a cbbd c96b abbb 8a4f 003e
00000030: 31a3 8f3c fa64 0cbe 43ce c8bd f044 55be
00000040: 87cf 14be 5d3a 22bd c23c 123e 3aac 393e
00000050: 35de a2bd fd47 32be 1b8b 273e 8f32 08be
00000060: f3cd 753d a433 83bd 488d 313d a9de b9bd
00000070: 9af2 6e3c 0421 d83c 32ff 463e c531 de3d
00000080: 07f7 c73c 063e fa3d 077e c7bd 3ef1 25be
00000090: 0f24 dd3c 7066 39bd 3c3b 553e cfe2 f33d
000000a0: 2fc8 debd b4e7 013e ae86 8fbd 3e7e 78bd
000000b0: ae31 17be 91d4 283d ae71 dbbd ddaa 253e
000000c0: edfa 9f3e 7ebe c03c 6974 78bc e1aa 953d
000000d0: b9bb 5f3d 93e9 a33c 667f 95bc 7044 e1bc
000000e0: 5582 493d bbdd 043e a5c3 303e 32f2 65be
000000f0: 8385 dfbd 4a07 57be 07ca c4bc 4423 1abe
00000100: 668b 9bbe 40e4 eabd abbc 3a3d 35df 8abd
00000110: ac06 683d 8325 dabc 67ac ff3c 6ad1 f7bc
00000120: 41f5 30bd 9e73 17be 1470 2e3e 2055 87bd
00000130: ed47 263d ed2e 823c 75bd fa3c 91f8 963c
00000140: cf7a 90bc 0826 d53d 4fa9 4f3d 9262 50be
00000150: 4200 273d c8d9 0c3e 3fa7 0f3d 9854 743d
00000160: 4c89 0bbe eaf7 ba3b 07b4 a13c 6764 603d
00000170: 5239 30bc ac29 e8bd 310a fb3d b901 963d
00000180: 4e61 92be 2427 093e 33a3 843d d150 a93c
00000190: 18c1 0f3e 5b4e a63c 1619 bcbc 3e67 703d
000001a0: 977d 863d 0c93 a23d 535a 87be f9aa 57bd
000001b0: 44c2 fb3d c7f3 8cbb f7bc 8bbd 97c4 13be
000001c0: 5d1d 11bd 4a66 d03d 1b5e 28bd 52b6 0f3e
000001d0: 1a90 57ba 3eb6 9c3d e964 ea3d 5704 d3bd
000001e0: d076 43bd 4732 603d 3465 933d eb51 88bc
000001f0: bb9f 0dbe c054 4cbe 8ef6 343b 6dc8 41bd
00000200: fe3e dc3d 7c55 123d 3852 26be ba4c 83be
00000210: 3cd4 07be a57b 473e b78b 123d 9bda 933d
00000220: 0d2a b6bd 699b 023e f6c5 953d 3454 c5bd
00000230: 307c 1d3d 4e4b 7ebe 5c43 113c f8ad 613e
00000240: d05c 2b3e b88e 753d 9f15 3c3d 1fe8 0ebe
00000250: 33ef 083e 4d23 77be d881 473d fe67 3bbe
00000260: c3a7 2f3e e43f 88bc 3e7b 1f3e 2005 84bd
00000270: d60c f13d 85f6 7f3d a4aa 003d a293 4bbc
00000280: e01d 623d c12f 103e 96ff 85bd 2a4d 18be
00000290: 9023 cd3d df80 f0bb c458 01be 9010 1ebd
000002a0: 79ea 743c 892b f3bd 49c2 a5bd 822a 75be
000002b0: 40cb 083d 41fb 053e aa5f f63d 5fda 6bbc
000002c0: 70af 3cbe 7501 ab3d 7d08 23be 5641 153e
000002d0: 2092 be3d 3810 353d 6664 1dbe 9767 853d
000002e0: 1ae8 543d 1924 a7bd 4303 13bd fb81 0b3c
000002f0: 9138 503d cf16 763e b929 b6bd 7a0f 0c3e
00000300: 3a46 22be 8632 9bbd ee43 48be 519d 1dbd
00000310: b0b8 1a3e 4128 ab3d 0041 783a d126 e13d
00000320: 20fb bfbc 3920 63be 7749 393e 25cf 36bc
00000330: 61a2 b53c c785 84bd 1278 143d 2473 56bd
00000340: 3417 29be 6cd1 b93d 26a3 ef3c 6db2 55bd
00000350: b92d a6bc b055 ac3d 4751 893d 4eac cebb
00000360: e0ac bc3c 3a67 5a3d 48ab 04be 4d4f 2bbe
00000370: c2b5 92bd ee04 5dbe e1dd 6ebd 7f7a 903c
00000380: 2cb0 86bc 7614 bebb 5c71 afbd 3110 3f3d
00000390: 33d6 9f3c 8879 52bd 59de fbbc ad66 ee3d
000003a0: 431a 4c3d 619f 6abe 1135 81bd 854d 1dbc
000003b0: 890f 38bd aa2b c43d 9677 cb3c f6f8 d23d
000003c0: e9e0 523e f932 903c 74e0 923e 8b87 32be
000003d0: c958 e4bd da76 c4bc 84e6 44be 12c6 22bd
000003e0: 003b 0dbe 1b8f 8f3d 1185 fd3c 806b d83c
000003f0: ce10 dcbd b28b ac3d 74c8 24be 4fa0 553b

mapper.bias f4 [16]
0.085916735 -0.039018337 -0.0691965 -0.04324705 0.11384673 0.0866274 0.11407343 0.09723104
-0.024879117 -0.06397132 0.051259696 -0.05106352 -0.06512108 -0.057290874 -0.058448523 -0.14569898
00000000: 1df5 af3d b1d1 1fbd e5b6 8dbd d223 31bd
00000010: 7928 e93d b569 b13d 559f e93d 1121 c73d
00000020: 4acf cbbc 6503 83bd b0f5 513d fb27 51bd
00000030: 335e 85bd d6a9 6abd b867 6fbd 1d32 15be

head.weight f4 [10, 16]
0.21338767 -0.34273726 -0.26393437 -0.34741378 0.29200566 0.24976918 0.3259709 0.17537722
-0.2686227 -0.09935333 0.2715955 -0.36314103 -0.28317776 -0.10820415 -0.28502712 -0.16679636
0.47738683 0.3075183 -0.4416685 -0.09655525 0.3860706 -0.2769143 -0.31837803 -0.01629606
0.25907063 -0.033568047 -0.025350144 0.4118632 0.49183565 0.08533291 0.153945 -0.02837785
-0.5706439 -0.30556005 -0.3808892 -0.3343743 -0.4998488 0.15686966 -0.35193208 0.03522605
0.13919897 0.1823908 -0.73638606 0.21454634 -0.10738896 0.46965507 0.0006450769 0.02920712
-0.36386347 0.5431788 -0.27832043 0.4689069 0.20689072 0.29280153 -0.39050594 -0.50053215
-0.14576836 0.45249358 -0.16935681 -0.26665467 -0.325394 0.25414437 0.3458525 -0.04754197
0.13253817 -0.29935056 0.2863926 0.0966651 -0.6142804 0.50939274 0.24921452 -0.38233498
-0.24700642 0.2797183 0.27477208 0.22358854 0.604274 0.16744955 0.5545878 0.26497853
-0.15295969 0.3936561 -0.09157045 -0.17078966 0.13117231 -0.28770322 0.30563232 -0.2543105
-0.21938781 -0.22626594 -0.2413822 0.31696877 -0.27417558 -0.476476 0.21370345 0.62643415
-0.109007195 -0.27715322 -0.17977002 0.22165288 0.34530658 -0.36657077 -0.04931171 -0.33204433
0.6839901 0.23822674 0.038985413 -0.47070912 0.38437548 -0.3455141 -0.017624255 0.44095486
-0.13052824 -0.11083054 0.39784843 0.44463232 -0.055070855 -0.2865671 -0.46960524 -0.70891577
-0.33199248 -0.50611204 -0.2888884 -0.34198335 0.23141134 -0.181181 -0.25843787 -0.3194294
-0.19766016 0.1968819 0.61012524 0.4298509 -0.03690183 0.17839588 0.13644587 0.35582894
0.37126175 0.23796904 0.3323203 0.5199551 -0.13285734 0.3398138 -0.39314225 -0.1186482
-0.26370725 0.16819775 0.394066 -0.24160604 -0.49113882 -0.40306598 -0.065785035 0.38548246
-0.24396223 0.4638246 0.17038408 -0.108646154 0.14835912 -0.2829875 0.17509124 -0.32884237
00000000: 4c82 5a3e 427b afbe 6822 87be 38e0 b1be
00000010: c481 953e 7ec3 7f3e a8e5 a63e 1696 333e
00000020: ea88 89be c279 cbbd 910e 8b3e 9fed b9be
00000030: adfc 90be 239a ddbd 13ef 91be aacc 2abe
00000040: 0c6c f43e 0a73 9d3e 6022 e2be c2be c5bd
00000050: 0cab c53e b6c7 8dbe 7202 a3be 517f 85bc
00000060: e8a4 843e a67e 09bd 1bab cfbc bcdf d23e
00000070: e2d1 fb3e 05c3 ae3d c2a3 1d3e aa78 e8bc
00000080: b815 12bf 5e72 9cbe e903 c3be 1c33 abbe
00000090: 2fec ffbe 71a2 203e 7130 b4be 3149 103d
000000a0: 2d8a 0e3e a7c4 3a3e cc83 3cbf 09b2 5b3e
000000b0: beee dbbd a176 f03e 611a 293a c543 ef3c
000000c0: 504c babe c40d 0b3f 0480 8ebe 9114 f03e
000000d0: 29db 533e 15ea 953e 65f0 c7be e022 00bf
000000e0: 4d44 15be 3dad e73e df6b 2dbe f686 88be
000000f0: 0b9a a6be 361f 823e 9413 b13e 5ebb 42bd
00000100: 16b8 073e 7a44 99be 0da2 923e 5af8 c53d
00000110: 7b41 1dbf 9067 023f 1732 7f3e 69c1 c3be
00000120: 40ef 7cbe 3d37 8f3e edae 8c3e 65f4 643e
00000130: b3b1 1a3f e577 2b3e 77f9 0d3f 44ab 873e
00000140: 77a1 1cbe 4b8d c93e 4a89 bbbd 7ce3 2ebe
00000150: 0952 063e d64d 93be d77b 9c3e fc34 82be
00000160: 33a7 60be 42b2 67be e52c 77be bb49 a23e
00000170: be60 8cbe aaf4 f3be 14d5 5a3e fd5d 203f
00000180: 2a3f dfbd 07e7 8dbe a215 38be f9f8 623e
00000190: 06cc b03e 2aaf bbbe 13fb 49bd b701 aabe
000001a0: fa19 2f3f b6f1 733e 2baf 1f3d c900 f1be
000001b0: ddcc c43e 39e7 b0be be60 90bc d6c4 e13e
000001c0: 32a9 05be 1ffb e2bd cab2 cb3e d9a6 e33e
000001d0: fa91 61bd ecb8 92be 1970 f0be 817b 35bf
000001e0: ebfa a9be 8f90 01bf 2ee9 93be 7118 afbe
000001f0: 18f7 6c3e 8387 39be f851 84be 408c a3be
00000200: 6d67 4abe 699b 493e 2b31 1c3f 6b15 dc3e
00000210: 6026 17bd 69ad 363e 77b8 0b3e 362f b63e
00000220: 0516 be3e 28ae 733e e325 aa3e c71b 053f
00000230: c10b 08be 13fc ad3e f149 c9be d4fd f2bd
00000240: a304 87be 083c 2c3e 05c3 c93e 9367 77be
00000250: 8c76 fbbe aa5e cebe 4eba 86bd f55d c53e
00000260: 3cd1 79be 6b7a ed3e 2a79 2e3e e081 debd
00000270: 74eb 173e bde3 90be 1e4b 333e 075e a8be

head.bias f4 [10]
-0.0006176255 -0.07370371 0.13775666 -0.0036444615 -0.31943882 -0.052821737 0.13728835 -0.17714761
-0.1556121 -0.074538045
00000000: 25e8 21ba f9f1 96bd 1510 0d3e ebd7 6ebb
00000010: 7c8d a3be 9b5b 58bd 5195 0c3e 2f66 35be
00000020: c758 1fbe 67a7 98bd
