feature-compress-incremental/outputs/compress128_initial/best.ckpt (torch, 271359 bytes, 4 tensors)

mapper.weight f4 [128, 512]
00000000: b562 0c3d e16e b43d 3924 3dbb 8127 35bb
00000010: e4a4 7b39 d22c 86bd 6d0f 1e3d d182 023d
00000020: 1991 debd 1c44 a7bd 34f6 cc3c 5ebb 063d
00000030: 5c51 3abd 5546 23bd 1c5f 4f3c fe11 99bc
00000040: 3656 92bd 9c0c 8dbd 0aca 773d 8aa0 133d
00000050: 1cf9 21bd ebb1 7bbc 9f12 a53d 56d5 d0ba
00000060: 6f4e 613d 2f04 b1ba e088 8b3d bd7d 363d
00000070: d6b3 66bc 6e0a 803c 8628 533d ec5c d63d
00000080: 83a7 a43c 8e08 9abc 4762 02ba 8d6a a2bd
00000090: 5655 da3b ed16 66bd 4706 303d 0a68 023d
000000a0: 0eb3 1a3d 3f4a 7f3d 01a7 88bd 21fa 22be
000000b0: 7dbd 16bc aa9d c23b 69a0 cc3d 5e4f 673d
000000c0: 884f c53d 7c3d bf3d 9a25 8d3c 1d34 d03d
000000d0: 9962 e83d 8e6c 5d3d 8d40 1cbc a78e 98bc
000000e0: acb0 d5bc 5a14 48bd e5d5 313d 3104 a7bc
000000f0: 82bc ff3c 442d c2bd 2d27 96bb b706 bfbd
00000100: e409 88bd 0170 6abd 8707 c6bc 1805 373b
00000110: 97d8 c7bc d6cd e23c 18d1 103c 20f0 2bbc
00000120: f3e9 31bd 2881 f7bd f43b 89bd 346c cebd
00000130: 801d 2dbd 53a6 3abc 2c87 483d 007a 263d
00000140: 8a88 5e3c d1e3 e53c e30c ecbc 89f5 97ba
00000150: e3de ebbc cf66 b83d 8f2b f1bc f7be 303d
00000160: bb60 993d c8c3 423c 43ca 093e 33f8 b33d
00000170: 4c0d 893d a81e aabd 602c d83d 1873 bf3d
00000180: 7fb5 abbc dd7b 443d 9f98 10bd 11b9 a93c
00000190: dbf9 91bc 6f3e 6abd 26f0 20bd 4915 543c
000001a0: 547e 523d 268f 9cbc 6ea7 eebc 3b10 403d
000001b0: 9032 62bb fd5c 263b bf4a cb3d 4872 6bbc
000001c0: 14a6 a1bc 9adc 603d 85bf 0a3c 7ab8 a73c
000001d0: ea03 14bd 6caa 76bb 7571 11ba 221d 56bd
000001e0: 7ae8 45bd 6631 39bd 9dca 883c 2421 51bd
000001f0: 3c3b 043d b0d8 08be 3730 5b3d e904 90bc
00000200: ea39 ff3d 9a16 ecbc 0575 313c a868 7a3c
00000210: 51f8 623d 4a1d 1e3d c40d 2e3d e13f a83d
00000220: a455 67bc 6225 793b 4b4a 71bd 9e91 223d
00000230: 6c29 c5bc 8529 9cbd a062 25bd 8848 8a3d
00000240: f174 0d3d fa6a e53b 989d 65bd 7ebf 01be
00000250: 9212 993d 5f05 cd3c bb18 1bbc e58c d7bc
00000260: 3997 843c e989 e1ba cf42 b23d 11a7 bcbc
00000270: 7f3c 703d c5e8 b03c ea36 27bd 4e0e 703d
00000280: 8d45 053c 614c a2ba 4ec8 cb3c 56f5 e33b
00000290: d6c9 54bd c7fa 85bd 4ddb 08bd b69c 053d
000002a0: 0c09 91bd d8dc f6bc 731f e43b a559 073c
000002b0: c4a8 9bbc 6855 a03c 4ae5 adbd 0485 59bd
000002c0: 6b4d 2dbd 1929 66bc 28c2 1cbd 361e c43d
000002d0: 2e67 073d 8083 923d 871c 00be c564 debc
000002e0: f96d 943d b69d 573d c2d7 043d 3e7d a5bd
000002f0: fef9 7cbc 1d15 74bd b84c 383d b4a8 be3d
00000300: b510 8bbd 27ee 6fbd a099 39bd 55f8 26bd
00000310: 4a90 a13d ead3 303c b95a 6a3d 945c 9a3d
00000320: 0616 663d ebe1 283d 4dbb bc3d 686e 6b3b
00000330: d359 0fbd 363d e1bd 552a b63c 1d45 cabb
00000340: 49ae 7abd bb64 703d b17b 293b 7894 933d
00000350: 6cb1 273d be81 4abd 9c92 2a3c 3b2a 4cbc
00000360: 2c5e e8bd 0677 72bd 89d7 51bd d0c4 e9bc
00000370: 85bb d5bb 7280 be3c e883 b33b 8729 463e
00000380: ce76 863d a753 7cbc 757c 653b 03dc 113d
00000390: 7000 14bd 6056 8a3d f15f 4abb 1420 8abc
000003a0: e0c7 073e 89fe 10be 937a f6bd 9427 07bd
000003b0: be08 c1bd ca15 293c 95d5 1dbd cc5b 213c
000003c0: 039c 7a3d 849a 4abd 7beb c53d 019f eabd
000003d0: 1cad 11bd 21cc b6bc 8bbe 1fbe 6777 c2bd
000003e0: 3169 f0bd 8e3c 9b3b 6e06 553d e0b1 ff3b
000003f0: 9e13 54bc 941a 7abd dd88 a1bd 69be 183d
0.03427382 0.08810211 -0.0028860702 -0.0027641954 0.00023998652 -0.065515175 0.03858893 0.031863037
-0.10867519 -0.08167288 0.025019743 0.03289353 -0.045487747 -0.039861996 0.012656953 -0.018685337
-0.0714535 -0.06887171 0.060495414 0.036041774 -0.03954421 -0.015362243 0.08060192 -0.001593272
0.05500644 -0.0013505275 0.06813216 0.044553507 -0.014080962 0.015629973 0.051552318 0.10466942
0.020099407 -0.018802907 -0.0004973751 -0.07930479 0.006663005 -0.056174207 0.042974737 0.0318375
0.037768416 0.062326666 -0.066724785 -0.15915729 -0.009200451 0.005939205 0.09991533 0.056472175
0.0963431 0.09337899 0.017229844 0.1016619 0.11346931 0.054058604 -0.0095368745 -0.01862271
-0.02608522 -0.048847534 0.043416876 -0.02038774 0.031217817 -0.0948129 -0.004582307 -0.09327453
-0.066425115 -0.05723572 -0.024173511 0.002792662 -0.02439527 0.02768604 0.008838914 -0.010494262
-0.043436002 -0.120851815 -0.06700888 -0.10079232 -0.04226446 -0.011392194 0.048957035 0.040643692
0.013582358 0.028062733 -0.028814739 -0.0011593561 -0.028792804 0.09003984 -0.029439716 0.04315087
0.07489153 0.011887498 0.13456063 0.087875746 0.06691989 -0.083066285 0.10555339 0.09348124
-0.020960568 0.047969688 -0.0353018 0.02071813 -0.017819336 -0.057188448 -0.039291523 0.012944528
0.051390007 -0.019111227 -0.029132571 0.04689048 -0.0034515 0.0025385015 0.09926366 -0.0143705085
-0.019732513 0.054897882 0.008468513 0.020473707 -0.036136545 -0.00376382 -0.00055482175 -0.052273877
-0.04831741 -0.045213126 0.016698176 -0.051056996 0.032283053 -0.1336391 0.053512778 -0.017580466
0.12462218 -0.028819371 0.010831122 0.015283741 0.055412594 0.03860215 0.042493597 0.08215309
-0.014119539 0.0038016667 -0.058908742 0.039689653 -0.024067603 -0.07625107 -0.04037726 0.067521155
0.034535352 0.007001278 -0.056058496 -0.12670705 0.07474245 0.025026975 -0.009466345 -0.026312301
0.01618539 -0.0017207238 0.08704149 -0.023028882 0.058651444 0.021595368 -0.040823855 0.058607392
0.008134258 -0.0012382382 0.024875786 0.0069567366 -0.0519503 -0.065419726 -0.033412267 0.032620154
-0.07081804 -0.030134603 0.006961757 0.008261119 -0.019001372 0.019571975 -0.08490999 -0.05310537
-0.04231016 -0.014047884 -0.0382711 0.09576075 0.033057384 0.07153988 -0.12510882 -0.02714766
0.07247538 0.05264064 0.032432325 -0.08080529 -0.015440462 -0.059590448 0.04499504 0.09309521
-0.06790296 -0.05857673 -0.045312524 -0.04076417 0.07888849 0.010792712 0.057215426 0.07537189
0.056173347 0.041231077 0.09215412 0.0035923962 -0.034997772 -0.10998003 0.022236982 -0.0061727897
-0.061201368 0.058689814 0.002586108 0.072060525 0.040940687 -0.049440138 0.010410931 -0.01246124
-0.11346087 -0.05919554 -0.05123094 -0.02853623 -0.006522598 0.023254607 0.005478371 0.19351779
0.06565629 -0.015400804 0.003501681 0.03561021 -0.03613323 0.06754756 -0.003087994 -0.016861
0.1325984 -0.14159597 -0.12035098 -0.03299673 -0.094254956 0.010320136 -0.038533766 0.009848546
0.06118394 -0.049463764 0.09664055 -0.11456109 -0.03556548 -0.022314133 -0.1560003 -0.094954304
-0.11738814 0.0047374433 0.052008085 0.007803187 -0.01294413 -0.061060503 -0.07887433 0.037290964

mapper.bias f4 [128]
00000000: fddc 923c 8733 8f3c 5e5c 713d c416 9bbd
00000010: b459 cd3c b1a3 38bd 7b8d 4d3d 4d26 9fbd
00000020: 44fc 513d 3c6d b23d abb6 94bc d432 303b
00000030: 8d8f 5fbd 0e10 6f3d bbd8 5bbc a4ee 7c3d
00000040: eb29 b1bc 9084 aabd 9d41 263d ab3f 8c3a
00000050: 5cf7 bdbc 21e4 f13c bb1b 5b3c dd06 653d
00000060: 4320 56bd f0a4 2c3d eb61 8d3c 9026 dd3c
00000070: a356 18bc 3909 7f3d ef5c c73a c895 1e3d
00000080: 2185 2d3c 7ce0 913b 660b aa3d ec8b b0bd
00000090: 8b84 f6bb de07 28bc 515e 97bd 837e c13c
000000a0: 44a3 4e3c f032 09bd d59c 3fbc 926d c7bc
000000b0: 3515 32bc a96e 5bbd acc6 b6bc f3c2 89bd
000000c0: 3806 7b3c 7bfc af3a 9be1 8ebd 414f 963d
000000d0: 8ee4 d8bb 0fe1 9a3d 8152 923d 12fe 1a3c
000000e0: f78b 3ebd 0fa2 923d 1259 373d 1c80 5dbc
000000f0: 784e 8d3c e151 e6bb db42 96bd 46da 10bc
00000100: 9557 67bc e9a7 d7bc 42ca 81bd 3b72 84bd
00000110: 8708 083d 7cca 643d d3d4 debc 17ba 8d3c
00000120: 9546 3e3d da7f da3c 178c fbbc 8696 efbc
00000130: 2b18 29bc 041f a7bc ef37 7bbd 8a4c 0dbc
00000140: a18f c1bc 3d80 423a d336 203d e63c a7bd
00000150: eeff 1b3c d54b e5bb 9459 75bd f7e1 ecbb
00000160: 21a8 873d 373b 513d be69 69bd 4551 e0ba
00000170: 0cb7 85bd e68c 38bd bb2d 833d 9892 9e3d
00000180: 2748 7f3d 5a58 213d 8ae1 a03d 1432 ddbc
00000190: b57e a83c d060 fabc 0ce9 84bc 12a6 46bc
000001a0: 1661 513d d3fe 2439 7d38 7f3d bce2 16bd
000001b0: 0825 473d b919 6fbd fee0 87bb a1de b73c
000001c0: 2c25 98bd a7a8 b6bc 8cb3 a53d 451d 5a3d
000001d0: a4c4 903b ae0e bc3c 692c 793c e749 823d
000001e0: 6062 7d3c 9b42 c23b 6c4a a53d d6f1 19bd
000001f0: 1f84 70ba 13d7 c03c 9f1c 733d a19f 75bd
0.017927641 0.017480625 0.05892598 -0.075727016 0.025067188 -0.045077983 0.050183754 -0.07770977
0.05126597 0.08712241 -0.01815351 0.0026885765 -0.05458026 0.05836492 -0.013418372 0.061751023
-0.021626433 -0.083260655 0.040589917 0.0010700127 -0.02318924 0.029527726 0.013373311 0.05591475
-0.05227686 0.042149484 0.017258605 0.026995927 -0.009298 0.062264655 0.0015210191 0.03871706
0.010590822 0.0044518095 0.08302955 -0.08620438 -0.0075231246 -0.010255782 -0.07391036 0.023619896
0.012612168 -0.033495843 -0.0116951065 -0.02434424 -0.010869314 -0.05357233 -0.022311531 -0.06726637
0.015321307 0.0013426685 -0.069766246 0.07339335 -0.0066190427 0.07562458 0.071446426 0.009459989
-0.0465202 0.071598165 0.04476268 -0.013519313 0.01724933 -0.0070288037 -0.073369704 -0.008841103
-0.014120002 -0.026325183 -0.06337406 -0.064671 0.033211257 0.055857167 -0.027201092 0.017300649
0.04645403 0.026672293 -0.030706448 -0.02924658 -0.0103207035 -0.020400532 -0.06133264 -0.008624205
-0.023628058 0.00074196217 0.039114784 -0.08165912 0.009521468 -0.0069975653 -0.05989988 -0.0072290855
0.06623865 0.051081862 -0.05698561 -0.0017114064 -0.06529054 -0.045056246 0.06405207 0.07742804
0.06232467 0.0393909 0.07855518 -0.027001418 0.020568231 -0.030563742 -0.016224407 -0.012124555
0.05111798 0.00015735188 0.06230973 -0.036837325 0.0486193 -0.05837414 -0.004146694 0.022445025
-0.07428965 -0.022297217 0.080908865 0.05325057 0.0044179726 0.022956219 0.015208342 0.06361752
0.015465349 0.00592835 0.080708355 -0.03758415 -0.0009174961 0.023540055 0.059353467 -0.059966687

head.weight f4 [10, 128]
00000000: 0f64 173d bfc3 00bd 74e3 cd3d 6940 a0bd
00000010: e13d a13d 940a 9bbd 4a17 e03d 76bf bbbd
00000020: 0389 073d f98f b73d f526 73bc a1fe 813d
00000030: 3e13 97bd d583 fb3d c681 813d fa37 b83d
00000040: 2ca6 9ebd 6442 a6bd 86b6 d63d 0d2a e73c
00000050: b6a0 29bc dab4 7d3d 434f 603d a460 d73d
00000060: b11c 8cbd 95bf 923d 081c dd3d 11a4 013d
00000070: 20e0 9bbd 2438 d03d c534 b53d a7dd e13d
00000080: d9cb 4f3d 9a6b b33d 500a 893d ece3 e6bd
00000090: bb4a 82bd ee43 013c bf22 91bd 6c86 e33d
000000a0: a1da e5bc 0d54 37bd ee17 733d 9e48 8fbd
000000b0: 5ee6 ffbd 06d2 ddbd c8b0 78bd e1a1 9bbd
000000c0: 17e9 1f3d 6c43 5c3d f6a7 3ebd f7b2 983d
000000d0: 2536 39bd 02e3 383d 2d39 ba3d 0ebf 9ebb
000000e0: 71a8 01bd 2790 f13d 03fc 093c 9d15 9abd
000000f0: aa21 463d 8efd 713d d636 97bd ba70 793d
00000100: 95ec b1bc 5609 81bd 478e 6dbd 7949 09bd
00000110: c664 ba3d 57de c33d ae6e d33c d867 cc3d
00000120: 0a05 923d 1ae4 0d3c 1f97 9bbd f9d5 983c
00000130: 4e81 77bd afe7 5bbd cdf0 e3bb 766c bcbc
00000140: 7ead c3bd 175d 8dbd c0aa 333d 4210 e8bd
00000150: c406 273d ac8a 803d 6898 47bd a5e1 c4bc
00000160: e85e c63d 1f9e b23d 8718 dfbd 558d f83c
00000170: 6917 d7bd ade1 b9bd d769 693d df66 113d
00000180: 5049 f63d 4ab6 953d 9f82 d33d 81f0 7dbd
00000190: 274e 2c3d 10e9 97bd a407 8ebd fa50 c7bd
000001a0: abac 8d3d 2b68 bd3d 4e37 df3d 147b a1bd
000001b0: b8ed c63d 49fd c6bd 8783 9cbd 3e16 803d
000001c0: e78c c9bd 4a15 9b3b 2ce0 6e3d 9ab7 2c3d
000001d0: 205a ab3d a91f 303d be27 ca3c 1722 ca3d
000001e0: 13e1 283d 5cd8 25bc d665 813d ef6f 8fbd
000001f0: 4ebb 743c c235 d63d 043b 673a 65ae 94bd
00000200: 0792 f83d 039e f3bd fbde f0bc fe3d 223e
00000210: 454f 16bd 5337 b03c 52d4 c43d 5c0a 16bd
00000220: a5e0 c13d fa05 04be 0073 debd 78d4 0cbe
00000230: 7afc a33d 6970 443d 72f2 593d a917 573d
00000240: e01c 4fbc 4738 413d 1f61 01bd c60d 06bd
00000250: 45bb c83c e429 bb3c d05c 19be 43e4 893d
00000260: 4db3 013b cc32 4d3d 9e8b e3bc abf2 0fbe
00000270: e2c3 0c3e f9ad 073d 2357 143c 6ee3 3e3d
00000280: 1c18 40bd 63a2 99bd bdb7 a43d 7c69 a5bd
00000290: eeb3 713d f936 143e 4b8e fdbc 2061 a4bd
000002a0: bedb 2f3e 77c7 033e c015 1cbe 9a8d c8ba
000002b0: 2520 65bd c01d af3d 03d1 3f3d 65bf bf3d
000002c0: 52ab d93c af71 8bbc 0f93 043e ec78 95bd
000002d0: a298 f4bd 9200 c83a a005 53bd 35c5 873d
000002e0: a027 333d b73d 513d 245f 263e 640f 94bb
000002f0: 44bc 4fbd 6a62 bcbd d470 a9bd fa5a ba3c
00000300: 1bae 563c 0f13 cdbd 9655 e0bd 9302 f23d
00000310: c008 9dbd bf25 1f3d 4c54 74bd 9388 91bb
00000320: 1c63 fdbd 1253 f2bd 0878 b8bd d79f 40bd
00000330: eed4 103e 1375 95bd 4d21 bfbd 26ec f23d
00000340: 0f4b 18bd 704a e8bc f493 6e3d 7190 c63d
00000350: 2ce4 36bd 238a 08bc 82b2 803d f454 06be
00000360: b46b 83bd 2416 debd bf98 bebd 766a 38bd
00000370: 1b68 afbc b076 e73d 00e8 eabd df43 e93d
00000380: de7c c1bd 3d20 bb3d feca 843c 9039 01be
00000390: 627b 1dbd d67e 97bd 34e6 efbd 3841 3dbd
000003a0: 805a f6bd b863 d03d e115 21bd a7e1 89bc
000003b0: 9875 7bbc d7d4 373d 0b9f 2a3e f7a5 6b3d
000003c0: e236 753d c1ae ab3c 9ca6 62bd 5bb0 16be
000003d0: 3a62 b23d 1624 1ebc 6623 86bd 7ed1 d83d
000003e0: a26b 743d 2e6c c4bd ad6a dcbd 0e98 5f3d
000003f0: 9ce5 4ebd 2529 623c ffa9 1cbd e4ea 24be
0.036960658 -0.031436678 0.10053149 -0.07824785 0.078731306 -0.07570377 0.10941942 -0.09167378
0.03308965 0.089630075 -0.014840831 0.06347395 -0.07376717 0.12281004 0.063235804 0.08995052
-0.077465385 -0.08118132 0.10484032 0.028218294 -0.010353258 0.06194005 0.05476309 0.105164796
-0.0684141 0.071654476 0.10796362 0.031650607 -0.07611108 0.10166958 0.088479556 0.11028605
0.050731514 0.08760758 0.0669142 -0.112739414 -0.0636191 0.007889731 -0.070867054 0.11109623
-0.028058352 -0.04475789 0.059348993 -0.069962725 -0.12495111 -0.108310744 -0.060715467 -0.07599235
0.03904065 0.053775236 -0.0465469 0.0745601 -0.045217652 0.045138367 0.09092937 -0.004844553
-0.03165478 0.11795073 0.008421901 -0.07523654 0.04837195 0.0590797 -0.07383506 0.06089852
-0.021719256 -0.06300609 -0.057997014 -0.033517335 0.09101252 0.09563892 0.025809612 0.09980744
0.071298674 0.008660341 -0.075971834 0.018656718 -0.06042605 -0.053687748 -0.006956196 -0.023000937
-0.095545754 -0.06902521 0.04386401 -0.11331226 0.040777937 0.062764496 -0.04872933 -0.024033377
0.09686071 0.087215655 -0.1089335 0.03034083 -0.10502512 -0.09076247 0.056985702 0.035498496
0.12025702 0.073101595 0.10327648 -0.06199694 0.04206672 -0.074175 -0.06935051 -0.09732242
0.069176994 0.09248384 0.108992204 -0.078848034 0.0971331 -0.09716279 -0.07642274 0.06254242
-0.09841328 0.0047327625 0.058319256 0.042167284 0.08366799 0.042998943 0.024677154 0.09869783
0.041230273 -0.010122385 0.06318252 -0.070037715 0.014937235 0.10459472 0.00088207447 -0.072598256
0.121372275 -0.11895373 -0.0294032 0.1584396 -0.03669669 0.021510756 0.096108094 -0.036630973
0.09466676 -0.12892905 -0.10861778 -0.13752925 0.080071405 0.047958765 0.05320973 0.0525128
-0.012641162 0.04717281 -0.031586763 -0.03272798 0.02450336 0.022847123 -0.14976811 0.067329906
0.001979071 0.05009727 -0.027776536 -0.14057414 0.13746598 0.033124898 0.009053978 0.046603613
-0.046897992 -0.07501676 0.08042858 -0.0807676 0.059009485 0.14474095 -0.03095164 -0.080263376
0.17173669 0.12869059 -0.15242672 -0.001530099 -0.05593886 0.08550596 0.04683019 0.093626775
0.02657095 -0.017021982 0.12946723 -0.07298455 -0.11943175 0.0015258959 -0.051519036 0.06629411
0.04373896 0.051084246 0.16247231 -0.0045184363 -0.050716653 -0.091984585 -0.082734734 0.02274846
0.013103033 -0.10013401 -0.10953824 0.11816897 -0.076676846 0.038854357 -0.059650704 -0.0044413297
-0.12372419 -0.11832251 -0.09007269 -0.047027435 0.14143726 -0.07297721 -0.093325235 0.11861448
-0.037180956 -0.028355807 0.058246568 0.09695519 -0.044651195 -0.008333716 0.06284048 -0.13118345
-0.06417027 -0.10844067 -0.09306478 -0.045023404 -0.021411946 0.11301935 -0.11470032 0.113898985
-0.09447645 0.09137008 0.016210075 -0.12619615 -0.038447745 -0.07397239 -0.1171383 -0.046204776
-0.1202898 0.1017527 -0.039327506 -0.016831232 -0.015347861 0.044880714 0.16662233 0.057531323
0.059866793 0.020957353 -0.055334672 -0.14715712 0.087101415 -0.009652158 -0.065497205 0.105868325
0.05967296 -0.09590946 -0.10762534 0.05458837 -0.05051194 0.013803755 -0.03824806 -0.16105229

head.bias f4 [10]
00000000: 4c06 d83d 04c4 c03c d433 e1bd b352 c8bd
00000010: 7096 8bbd 40a6 cebd 2bb5 3a3d 517d f4bc
00000020: 64db 3fbd 3a98 a3bd
0.10548076 0.023530968 -0.109962136 -0.097813986 -0.06815803 -0.100903034 0.04558293 -0.029844912
-0.046840087 -0.07988019
