feature-compress-incremental/outputs/compress32_addcls_replay10/last_incremental.ckpt (torch, 70839 bytes, 4 tensors)

mapper.weight f4 [32, 512]
000000 83 95 75 bd 0e ac d5 3c 08 03 6e 3c f4 62 c4 3d
       -0.05995704 0.026083019 0.01452709 0.09589186
000010 81 a2 02 be 2a f3 04 bd 0b 3d 12 3e 3a 4b 41 3e
       -0.12757303 -0.03245846 0.14281099 0.18876353
000020 ec be 8f bb 90 f8 85 bd 4d 9e b2 3c 26 f4 64 bd
       -0.0043867733 -0.0654155 0.021804 -0.0558969
000030 f1 27 48 3d 62 06 d3 bd aa 94 89 bd b9 b5 cf bd
       0.048866216 -0.10303952 -0.067178085 -0.10142083
000040 9d 46 ed bc eb e8 d2 bc 08 8f b9 3d 6d 5e bc 3d
       -0.028964335 -0.02574583 0.09060484 0.09197698
000050 ca 0c 42 be e0 58 86 bd 6c c6 9a bc 1e 5d 7d bc
       -0.18950191 -0.0655992 -0.018893443 -0.015464095
000060 ff 7a b0 3d ef dc ca bd 9a 52 3d bc 33 fb d7 bc
       0.0861721 -0.09905421 -0.011555338 -0.026364898
000070 03 9c bc bc f0 50 29 3d 1b 2b 42 3e b0 31 de 3d
       -0.023023611 0.041336954 0.18961756 0.10849321
000080 00 28 92 bd 06 61 31 3b ca 5b 55 3c 0d c0 3c bd
       -0.07136536 0.0027065887 0.0130223725 -0.04608159
000090 3a 25 ec 3b bb c1 af bd cb b1 46 3d d9 c8 f9 3d
       0.007206586 -0.08581873 0.0485094 0.12196512
0000a0 0f 17 e0 ba 95 65 95 bb 2d 12 07 be a7 f9 fb bd
       -0.0017096716 -0.0045592287 -0.13190527 -0.12303477
0000b0 57 4b b4 bd 19 e6 53 bd 0a c5 de bd d3 c2 bb 3d
       -0.088034324 -0.05173311 -0.10877426 0.09168019
0000c0 de 60 58 3e 6a 82 99 ba 5c af 3f 3d d4 d9 7b 3c
       0.21130702 -0.001171184 0.046798095 0.0153717585
0000d0 ee d1 fb 3b a9 f6 e4 3d e7 ea 6a bc 43 a2 09 bd
       0.0076849377 0.11179859 -0.014338232 -0.03360201
0000e0 3f 83 89 bd 3a 9f 56 3b e4 8f 1b 3e a2 bc ce bc
       -0.06714486 0.0032748715 0.15191609 -0.025236432
0000f0 96 51 85 3c b4 f6 06 bd 9d 95 b4 3d ca 82 f4 bd
       0.016274255 -0.03295012 0.08817599 -0.119390085
000100 da 76 77 3c cd af 1b bd dd a0 dd 3c fe 34 a1 bd
       0.01510402 -0.038009454 0.027054245 -0.078714356
000110 50 f6 02 3d 58 11 ae 3c 64 64 6f 3d 5d 77 cc bd
       0.031973183 0.021248505 0.05844535 -0.09983704
000120 10 a7 98 bd 66 1a 31 be d1 db be bd 3c 68 8d bd
       -0.0745374 -0.17295226 -0.093192704 -0.06904647
000130 44 27 02 3d a1 82 f4 bb c7 05 f2 3d 60 1e 9d bd
       0.031775728 -0.0074618612 0.11817508 -0.07671809
000140 37 6a 5a 3d 6d a2 8a 3d b9 f8 1b 3d e4 d9 8c bd
       0.05332395 0.067692615 0.038078997 -0.06877497
000150 72 b7 c4 3c 4b 6c 4b 3e 56 7b 29 3d 5d f0 a3 3d
       0.024013255 0.19865529 0.041377388 0.0800483
000160 ba 04 e9 bd d5 17 42 3d fd e1 30 3e 68 1f 0d 3d
       -0.11377855 0.04738601 0.17273708 0.03445378
000170 7c ac 0b be b3 85 51 bd fc 18 02 3e 4a 1a 96 3d
       -0.13640016 -0.051152896 0.12704843 0.07329233
000180 86 06 25 3d d4 59 12 3e 17 4e 2b bd a3 29 39 bd
       0.040289424 0.14292079 -0.04182252 -0.045205723
000190 8b 59 99 3d b7 94 c7 3c 70 ce 85 bb bd 20 01 3d
       0.07487782 0.024362905 -0.004083447 0.031525362
0001a0 ee ce d2 3d 94 30 20 3e be 6b 82 bc 5d 17 e7 3d
       0.10293375 0.15643531 -0.015920516 0.11283753
0001b0 ed c9 13 be 00 4a 09 3c 8e d7 b3 bd 92 c7 12 bd
       -0.14432497 0.008379459 -0.08781348 -0.035834856
0001c0 e4 a0 f0 bd 60 35 d8 3d db a9 e8 bd 23 80 aa bb
       -0.117494375 0.105570555 -0.11360522 -0.0052032634
0001d0 15 37 30 bd 3f 71 b9 3d 9a c0 0e 3c 9d 6b 23 3d
       -0.04302128 0.09054803 0.008712912 0.03989755
0001e0 69 f9 1e 3c 2f 1c 51 bd d0 76 57 3d cc 78 48 bd
       0.009703019 -0.05105227 0.052603543 -0.048943326
0001f0 61 33 30 bd 4b 8e ff bd e8 6e d9 3d a3 1b 97 bb
       -0.04301775 -0.12478312 0.10616857 -0.004611449
000200 4e f5 f0 3c 9e a2 d7 3d 32 86 fb ba 76 45 fb bd
       0.029413845 0.10529064 -0.0019189774 -0.12269108
000210 53 64 92 bd bb 8f bf 3d 64 5e c0 3d 22 84 bf 3b
       -0.071480416 0.09353586 0.093930036 0.005844609
000220 88 d7 9a 3d df 24 95 bd e6 f4 10 3d fe 45 53 bd
       0.075606406 -0.07282423 0.035389803 -0.05158042
000230 ac 4c 88 3d 65 3f c3 bd fb 5e 89 bd 33 64 df 3d
       0.06655249 -0.09533576 -0.06707569 0.10907783
000240 db 57 35 3d d5 bb 4a bc cc b3 49 bb c1 ea a4 3d
       0.04427324 -0.012373884 -0.0030777333 0.08052588
000250 ec 34 d0 3d 2b b9 83 bd 6f 4b 02 bd 92 8c bd bd
       0.10166344 -0.06431802 -0.03181022 -0.09255327
000260 75 d4 01 3e c7 a0 da 3b be e6 28 3e 46 e1 e0 bd
       0.12678702 0.006671998 0.16494271 -0.109804675
000270 82 7f 04 3e d9 a1 d7 3a 72 f9 95 bd 2e 85 1d bd
       0.12939265 0.0016451433 -0.073229685 -0.03845709
000280 54 0e d8 bd 5d 39 e3 3d bf a1 dd 3c 5f d3 30 bd
       -0.10549608 0.110949256 0.027054666 -0.04317033
000290 fa 9a 34 3d ff 44 8a b9 7b 14 ee bd 63 00 2d 3b
       0.04409311 -0.00026372817 -0.11625 0.0026397936
0002a0 3a 5c 05 3d d0 87 11 be 7c 9e 91 bd e3 13 cd bd
       0.032558657 -0.14211965 -0.071103066 -0.10013559
0002b0 74 aa c3 3d 00 96 10 3d d0 8d 9e 3d 7c 66 17 3c
       0.09553996 0.0352993 0.07741892 0.009240743
0002c0 16 78 0c be e3 66 49 bc e1 70 57 3c 8a 77 27 3e
       -0.13717684 -0.0122925965 0.013149471 0.16354194
0002d0 37 84 4f 3d 96 a9 da 3d 47 0a f0 bc b0 5e dc 3d
       0.0506632 0.10676877 -0.029301776 0.10760248
0002e0 19 b3 41 3e 1a 4d 2b 3c c2 13 ef 3d 89 8d 2d bd
       0.18915977 0.010455394 0.116736904 -0.042371307
0002f0 95 33 29 bd 66 d2 17 3e f2 87 a5 bd 3e 5b 0d 3e
       -0.041308958 0.14826354 -0.0808257 0.13804337
000300 c3 96 a1 bd 43 0f d2 3d ee 2c 6e bd 11 27 85 3b
       -0.07890084 0.10256817 -0.058148317 0.004063495
000310 97 24 3f 3d d1 0f a7 3d bd 80 cd bb 37 37 8f 3d
       0.046665754 0.081573136 -0.0062714503 0.06992953
000320 3f 6b 29 bd c9 ed 6b be 7a 35 9f 3d a0 9c 26 3e
       -0.041362043 -0.23039927 0.07773872 0.16270685
000330 6e 0f 87 bd c4 7c 50 be 8d a0 65 3d 77 77 c0 bb
       -0.0659474 -0.20360094 0.056061316 -0.0058736163
000340 42 9b d3 bd 9e ff cb bd 64 3a d0 3c b2 83 76 bc
       -0.103323475 -0.099608645 0.025418468 -0.015046047
000350 f2 9c 86 3a 00 86 14 bd c1 d8 60 3e 42 8a cc 3d
       0.0010270162 -0.036260605 0.21957685 0.09987308
000360 3a 93 8a 3c 9f d0 6d 3d e6 77 95 bd 97 f7 cd bd
       0.016915906 0.058060285 -0.072982594 -0.1005699
000370 56 ac 01 bd 35 3a b3 3b 10 84 77 bd b3 df 01 be
       -0.031658493 0.0054695853 -0.06042868 -0.1268299
000380 b1 fb bd 3d 56 b6 c3 bd 12 2e 22 bd 1d 35 93 3d
       0.09276522 -0.09556262 -0.039594717 0.07187865
000390 15 40 d5 bc fb 72 56 3d 25 fc 82 bd 17 d1 95 bb
       -0.026031533 0.052355748 -0.06395749 -0.0045720446
0003a0 ea e1 c6 3c a9 90 89 be 33 fc c5 bd 2a 5f 7a bd
       0.024277646 -0.2686818 -0.09667244 -0.06112591
0003b0 18 1f 50 bc 22 fd 9a bd 1d 18 a1 3c 46 e9 9b bd
       -0.012702726 -0.075678125 0.019664818 -0.07612853
0003c0 82 ea 81 bd 77 ed 81 3d b5 22 d0 3d b1 46 e1 bd
       -0.06343557 0.06344121 0.1016287 -0.109998114
0003d0 f3 25 6a bd 8c 16 ed bd 29 c0 c9 bd d3 14 f5 bd
       -0.057165097 -0.11576566 -0.09851105 -0.119668625
0003e0 07 f5 de bd 95 07 32 bd 76 56 ab 3d 51 f6 89 bd
       -0.10886579 -0.043464262 0.083661005 -0.06736434
0003f0 8a ca 13 bd 3d a8 4f 3d 29 87 6c 3d 65 1d c9 bd
       -0.03608183 0.050697554 0.057746086 -0.0982006

mapper.bias f4 [32]
000000 57 6a de bc 0f ac 73 3d 94 8a 82 bd 79 74 4d 3d
       -0.027150316 0.05949026 -0.06374088 0.050159905
000010 fa e8 69 bd af a5 82 bd d2 19 9c 3d de 15 aa bd
       -0.05710695 -0.06379258 0.07622112 -0.08304952
000020 95 19 43 3d 9c c8 5a 3d 34 21 17 bd 14 f1 38 bc
       0.04763182 0.053413972 -0.0368969 -0.011287946
000030 4b 65 d7 bc 63 5f ce bd 43 78 c4 3d c5 78 40 bc
       -0.026293417 -0.10076787 0.095932506 -0.011747544
000040 fd 3d 96 bd f8 18 42 bb 7b 3d 84 3d f9 d6 a1 3b
       -0.07336042 -0.0029616933 0.06457039 0.004938957
000050 02 d1 fc 3c 82 4a 5f 3d 1c 39 18 3d 11 98 83 bd
       0.030861381 0.054514416 0.03716384 -0.06425489
000060 0c f1 0f 3c 01 c7 61 3d 8e 2d 77 3d b8 03 87 3d
       0.008785497 0.055121426 0.06034618 0.06592506
000070 a4 cb 92 3d c4 71 3d bd 69 d1 fb 3c 48 b1 b5 3d
       0.071677476 -0.046251073 0.030739503 0.08871704

head.weight f4 [11, 32]
000000 8e c6 4c be 83 5f 72 3e e2 30 3b be 25 db 14 3e
       -0.19997618 0.23669247 -0.18280366 0.14536722
000010 26 26 6f bc 9e fb 13 be 72 c2 98 3e 1f 37 c3 bd
       -0.014596498 -0.14451453 0.2983585 -0.09531998
000020 9d 5e 89 3d 2e bb 86 3e 66 14 5e be 39 88 41 3e
       0.06707499 0.26314682 -0.21687469 0.18899621
000030 18 7c 26 be 79 4a 44 be 3f 0b 17 3e 6d a9 14 be
       -0.16258276 -0.19169034 0.14750384 -0.14517756
000040 77 b7 3d be f9 76 1f be 91 c8 24 3e d5 90 4f 3d
       -0.18527018 -0.15572728 0.16092135 0.050675232
000050 fd 93 62 3d f7 08 2d 3e 0a fe c8 3d bf fd 47 be
       0.055316914 0.16897951 0.09814079 -0.1953039
000060 3c 4b 75 3a 1d 31 43 3e 92 88 03 3e 55 f5 8e 3d
       0.0009357219 0.19061704 0.12845066 0.06980387
000070 eb 49 59 3e c5 4b db bd b1 c4 6d 3e 37 a1 79 3e
       0.21219604 -0.10707811 0.23219563 0.24377905
000080 e6 b0 bd 3e 6f 1f 4b 3d 6a 6d 35 3e 2f 73 ed 3d
       0.37049025 0.049590524 0.1771752 0.11594235
000090 a8 62 99 be 49 a6 09 3c e8 3f 0b be 19 7e 40 bd
       -0.2995808 0.008401462 -0.13598597 -0.046995256
0000a0 81 00 d8 bd 6d 2d 62 bd 19 fa 1c be ec dc 22 be
       -0.10546971 -0.055219103 -0.1532978 -0.15904588
0000b0 7f a3 2e 3e 67 bb 97 3e db a8 32 be 81 19 51 be
       0.17054556 0.29635164 -0.17447226 -0.20419885
0000c0 cd 8b 72 bd 35 ee a0 bd 15 c0 a4 be 28 0d 8a 3e
       -0.059215356 -0.078579344 -0.32177797 0.26963162
0000d0 dc a7 6e 3e 93 d2 40 3e 3c 0c 15 be 3f 5f b7 bd
       0.23306221 0.18830328 -0.14555448 -0.089537136
0000e0 8c a8 a3 3e 01 1f 12 be cd 2b 93 be 77 c8 9a be
       0.3196453 -0.1426964 -0.28744355 -0.30231068
0000f0 b0 21 ef 3d f9 d3 5a bd 2f f9 2b be 66 36 6f 3e
       0.11676347 -0.05342481 -0.16794275 0.23360595
000100 9b e0 9d bd 4b 2a 1c be 0f a4 38 3e e9 47 dd 3d
       -0.07708856 -0.15250508 0.18031333 0.108047314
000110 09 fb b9 3e a5 79 30 3e d7 02 36 3e 67 72 ee bc
       0.36324337 0.17233904 0.17774521 -0.029107286
000120 9d 64 de bd d6 f7 12 bd b8 5e 9a 3e 9d ba 83 3d
       -0.10859034 -0.035880886 0.3015039 0.06432078
000130 b1 38 e3 3c d5 20 06 3a a7 f8 6b ba c3 f0 b6 be
       0.027736994 0.00051165867 -0.00090015907 -0.35730562
000140 47 0a cc 3e 60 27 88 3e 44 64 0c 3e 36 72 80 bd
       0.3985159 0.2659254 0.13710123 -0.06271784
000150 6f 63 b9 be 3c 14 73 be d2 a7 94 be 8f bf 8a 3d
       -0.36208674 -0.23738188 -0.29034287 0.06774818
000160 65 31 8f 3e 6a b8 90 bd 7e fc a1 3e 5f 24 80 be
       0.27967373 -0.07066424 0.3163795 -0.2502775
000170 93 c9 48 be 9a bc 33 be 32 02 03 3e 12 64 99 3d
       -0.19608144 -0.17552415 0.12793806 0.0748979
000180 ed 5a 69 3e 4a a4 8f 3e 14 6c 86 3e 71 65 71 be
       0.22788592 0.2805503 0.26254332 -0.23573853
000190 29 e6 75 39 96 74 c2 3e fe de 79 3e 0a 31 fd 3d
       0.00023450762 0.37979573 0.24401471 0.12362869
0001a0 2c 1f 83 be e1 2e d5 bd 1c 5c a8 3e f3 27 82 bd
       -0.2560972 -0.10409332 0.32882774 -0.06355276
0001b0 6b 76 98 3d 83 9a a3 b9 98 3f ea bd fa bb 4c 3e
       0.074444614 -0.00031204903 -0.11437911 0.19993582
0001c0 8c b0 a2 3e 41 ea 0c 3d 9a 0f 46 3d 79 12 55 3d
       0.3177532 0.03440309 0.048354723 0.05201957
0001d0 0d c4 4a be d8 d0 cc bd 6b 73 c9 3d 32 6f 9f 3e
       -0.1980135 -0.10000771 0.09836467 0.31139523
0001e0 28 a6 63 be 75 90 3f 3e 10 00 1d 3d 76 d6 00 3e
       -0.22231352 0.1870745 0.038330138 0.1258181
0001f0 37 49 9a be 6d bc 8b 3e 9b bb 3a 3e 05 cb a0 3d
       -0.30133983 0.27292195 0.18235628 0.07851223
000200 e9 64 2a 3d c1 2f 1e 3d c8 c7 38 be e1 28 c1 be
       0.04160014 0.03861976 -0.1804496 -0.377265
000210 5e 20 cc 3e 0c 3f 38 be 37 e6 41 be e5 5b 2d be
       0.39868444 -0.179928 -0.18935476 -0.16929586
000220 14 7f 00 bf 58 46 41 be 98 0b 0f 3e 66 57 60 be
       -0.50193906 -0.1887449 0.13969266 -0.2190834
000230 dc 56 60 be 47 39 3e be d7 76 00 3c 1b 2a 5a 3d
       -0.21908134 -0.18576537 0.007840834 0.05326281
000240 ce 10 bb 3e 83 a9 4d be a7 d6 9e be 7e 45 2c be
       0.36536258 -0.20084195 -0.31023142 -0.16823384
000250 eb df a9 3e be f0 78 3e e0 df 0c be b3 91 ad bd
       0.33178648 0.24310586 -0.13757277 -0.084750555
000260 84 08 d2 bc 6e af 85 bd 51 9c 04 3e 5e df 92 be
       -0.025638826 -0.06527601 0.12950255 -0.2868604
000270 b2 d4 d4 3b 91 81 90 3d 6a d2 b1 3d 0a 03 d1 be
       0.006495082 0.07055963 0.086827114 -0.4082263
000280 2c ed eb 3d 17 7c 21 be 9c f1 9f 3c 31 cf 7b 3e
       0.11519846 -0.15769993 0.019524388 0.24590756
000290 13 c3 16 bd a4 ed 8c 3e 3c de 54 be 13 97 e5 3e
       -0.03680713 0.27525055 -0.207879 0.44841823
0002a0 ee 1b 2b 3e 5c 29 76 be 21 c3 2d 3e 2c 19 0e 3e
       0.16709873 -0.24039215 0.16968967 0.1387679
0002b0 d6 ef 4a 3e 13 f1 ab bd 24 40 c1 bd 41 e5 67 3b
       0.19818053 -0.08395591 -0.09436062 0.0035384449
0002c0 50 6c ad bb 7e de 64 3e cf 6f 83 3d e7 ea 17 3e
       -0.005292453 0.22350499 0.0641781 0.14835702
0002d0 81 79 95 3b 18 15 47 3e f5 40 94 be b8 2b 9c be
       0.0045616035 0.1944164 -0.28955808 -0.30502105
0002e0 0c 96 b2 be f0 b0 22 bd ea 26 d6 3d 75 f3 5e 3e
       -0.34880102 -0.039719522 0.10456641 0.21772559
0002f0 dd d4 50 3e 72 f5 0e be 5d dc 45 be 0e 4d 6f be
       0.20393701 -0.13960817 -0.19322343 -0.23369238
000300 02 51 3d be ee 7d c6 be 01 e8 6a be 35 30 4a be
       -0.18487933 -0.38767952 -0.22940065 -0.19744952
000310 18 01 34 3d 32 a7 f9 bc b6 62 31 be 9b 82 00 3e
       0.043946356 -0.030475233 -0.17322811 0.12549822
000320 40 38 e5 3d c0 2f a6 be b3 5e 63 be 36 b3 8d be
       0.111923695 -0.32458305 -0.22204094 -0.2767579
000330 4a 70 b4 3e ff cc 1d 3e 22 29 b7 be 95 7d f6 bd
       0.3524192 0.15410231 -0.3577357 -0.120356716
000340 ca b1 db 3d 9b 17 2e bd 86 52 11 3e 95 58 82 3e
       0.1072727 -0.04250298 0.14191636 0.25458208
000350 5d a1 0a 3e 6d 72 99 bd 28 cd c7 3d 09 7f 9c 3d
       0.13538118 -0.07492528 0.09755927 0.076414175
000360 e7 37 e7 3d 25 64 7d bd 9c b2 b3 be 23 f3 26 3e
       0.112899594 -0.061863083 -0.35097206 0.16303687
000370 eb f2 22 3e db 93 93 3e 7a 75 16 bd c2 e6 24 3e
       0.15912978 0.28823742 -0.036733128 0.16103652
000380 9f 4f 52 be 77 2f 14 be 27 76 40 be a6 86 a5 3e
       -0.20538186 -0.14471231 -0.18795072 0.3232929
000390 63 fa 81 3d 81 46 93 bd 7a 32 70 3e 63 84 89 3e
       0.063465856 -0.07191182 0.23456755 0.26858816
0003a0 ec 53 89 be 28 cc 82 3e 64 85 4b bc 2d 14 12 be
       -0.2682184 0.25546384 -0.0124219395 -0.14265509
0003b0 d3 8c ec bc bd 9a 0b 3e 54 35 c6 be 48 c3 eb 3d
       -0.028875744 0.13633247 -0.3871256 0.11511856
0003c0 dd 9b 52 be 7b de 8b bd 93 ed 57 be a4 27 c0 be
       -0.2056727 -0.06829544 -0.21086721 -0.37530243
0003d0 e9 9a 1d bd a1 9c 40 3c 79 fd 4a be 32 64 d7 3d
       -0.038477812 0.011756093 -0.19823255 0.105171576
0003e0 55 a9 8b be 34 5d b4 be 36 47 d6 be 1f 25 9c be
       -0.27277628 -0.35227358 -0.41851205 -0.3049707
0003f0 ae 64 b6 be f5 a6 4c 3e a3 bb 3a 3e df 04 13 3e
       -0.35623688 0.19985564 0.1823564 0.14357327

head.bias f4 [11]
000000 43 3f 9e bc fd 80 19 3e a5 5a c4 bd ad a8 61 be
       -0.019317275 0.14990611 -0.095876016 -0.22037001
000010 06 62 36 be c2 e6 b7 bd e2 d6 5b 3d 59 d7 e6 bc
       -0.1781083 -0.089795604 0.053671725 -0.028178858
000020 7a c0 62 be 5a 86 c2 ba 45 14 a3 3d
       -0.22143736 -0.0014841065 0.079628505
