feature-compress-incremental/outputs/compress32_addcls_stage3_ncfm/best_incremental.ckpt (torch, 82005 bytes, 10 tensors)

mapper.weight f4 [32, 512]
00000000: 4a87 babd 3340 953d 6def 693d 79e5 643d
00000010: 80a6 b3bd e842 383c 3127 c43d ebc7 103e
00000020: f844 52bd 11ec 9bbc 7649 39bc 651f a3bd
00000030: e1e9 c23c b6f6 6fbd 1173 eebc b6e2 f8bd
00000040: a563 1fbd 67ad 843c 5282 bb3d 34b7 623d
00000050: 8f8b 2abe 0614 ecbc b4ec 18bd 40cf e43c
00000060: 8b0a e93d 7700 5dbd f5cb 4dbd 1c32 983c
00000070: 7c0b 15bd df0a 763d 01ce 153e 14aa 793d
00000080: 0f36 d4bc cb1b 473d ae9e 733d 11b9 14ba
00000090: d28a 13bd 287c 93bd be7f ec3a df19 9c3d
000000a0: ea8b 013c bae1 63bc d751 b3bd e094 b0bd
000000b0: 1be6 39bd 9f27 d0bc dd5d d1bd 6098 f23d
000000c0: c047 323e b940 343d 8000 b33d e096 f7bc
000000d0: 5e2f a63b b8e8 1f3e bdf6 043d e35f 773c
000000e0: 0345 29bd 6bde 79bc 7cb3 4a3e 539b 89bd
000000f0: 4d08 fcbb f283 633c 0f85 043e 4590 b2bd
00000100: 9e84 a7bc 5c2d 71bd 2d13 ca39 b514 06bd
00000110: 9b48 77bc 5392 c9bc 8552 4b3c d31a 8abd
00000120: ebac ebbd 3f16 00be 5fa6 e9bd a1ca dcbd
00000130: 8405 2a3d fe6c 4bbd bbc1 943d 5f52 03bd
00000140: ab5b 1a3c 5ee3 a53c 07bd 633c 810d e5bd
00000150: 4d3c b4bc eec3 1c3e 5aa7 d73b a17a 0e3d
00000160: e08f 14be e423 5d3a 27e6 073e 7e72 8a3d
00000170: 5b0b f6bd af34 c2bd a230 303e 11fa c13d
00000180: 6212 b13d 36b4 103e 1b35 7ebd f8d1 02bc
00000190: 3115 893d f2d7 a13c a5ea 4abd a26e 933d
000001a0: a056 ee3d 8ea0 093e b0c8 72bd 5c77 893d
000001b0: b7e1 d1bd d287 583d 6a92 3bbd 1acc 223c
000001c0: 99f8 b4bd aaae 1a3e 98cd f7bd bb86 a53c
000001d0: efeb 19bc 1dbc da3d ab78 b2bc 2b70 a7bb
000001e0: 0318 5a3d 923e 69bb b1b6 c53d b5a2 62bd
000001f0: 0047 4d3b 09c9 a9bd b78e 763d eed8 2b3d
00000200: 2a3c 96bc 3314 b03d b75e 1a3b db24 c2bd
00000210: 8ba6 ccbc c275 0b3e 6eed 3b3d 6469 c8bc
00000220: 6e94 993d 5598 0ebd a574 a53d a8c3 b3bd
00000230: 0e2e cd3d 8b01 55bd 0da9 e7bd ce8f b03d
00000240: 46c7 803d dc82 ffba 2a01 47bd 66df 143d
00000250: f6b2 713d daf2 d5bd 8db1 6c3c 1a37 77bd
00000260: 4e2d 173e 73f7 5b3d 08c5 f13d 7c35 1cbe
00000270: 7626 ac3d b7b0 36bd b8f5 f0bd 3615 103c
00000280: d1bf 78bd 662f 823d 1ccb 423b 4413 553b
00000290: 50b8 5b3c 9657 2c3d 9ebe 96bd ebad 483d
000002a0: d58b 52bc fab6 debd 7189 cdbc 7510 62bd
000002b0: 2336 4e3d 7af8 4cbc b48a 493d 5ba7 593d
000002c0: ba6c b9bd 4372 893c 19c2 3b3d c85b 4f3e
000002d0: 8aaa 953d d591 833d b8e4 93bd d1e2 8c3d
000002e0: 789c 143e 929d 13bd 8d86 9d3d daf4 6d3b
000002f0: 70d7 8dbd bde9 d13d 7949 0cbd 70b7 ea3d
00000300: 0a4b ffbd e36d e03d d5cf 23bc b3fa 7fbb
00000310: 7165 c03d 993d 263d ef93 2abd ffd7 7f3d
00000320: 0531 adbd c909 54be 5c87 003d 6dc9 ed3d
00000330: 8750 dbbd 0c4c 22be 8151 d03d 5f95 273d
00000340: 070d f9bd e597 0ebe 404c 8b3d 1c8d ff3c
00000350: 68bb 4b3d 7ab0 1abd 5cf7 323e 76ab 123e
00000360: 4301 7c3d aa88 463c 5bd4 02bd 63e2 7dbd
00000370: 9357 543c 9958 19bd 1b45 d6bd bf29 26be
00000380: 3b1f 093e 5639 47bd c828 e2bc 6d5b 003d
00000390: 2f73 94bd 0cb7 003c ca1b ccbd 76e9 293d
000003a0: e6db bebc f765 67be 9a63 10be d704 8bbc
000003b0: f6dc 713c fc12 e6bd 4897 633d 2503 edbc
000003c0: 808f e2bd 0c41 df3d f4d2 ab3d 3c37 99bd
000003d0: c07e 22bc f8ba 90bd 7636 55bd 317b f6bd
000003e0: caa2 1dbe 117b b5bd 962e 1c3d b667 afbc
000003f0: ea6f abbd 4ebe cb3b dd55 2d3d 2d9d 0fbe
-0.091078356 0.07287636 0.0571131 0.055882905 -0.08771992 0.01124642 0.09577788 0.14138763
-0.051335305 -0.019033464 -0.011309018 -0.079649724 0.023793163 -0.05858489 -0.029107602 -0.12152617
-0.038913388 0.016195966 0.09155716 0.055350497 -0.166548 -0.028818142 -0.037335113 0.027930856
0.11378964 -0.05395552 -0.050243337 0.018578582 -0.036387905 0.06006896 0.14629366 0.060953215
-0.025904683 0.04861049 0.0594775 -0.0005673329 -0.03602106 -0.07201415 0.0018043441 0.07622122
0.007906893 -0.013908798 -0.08755844 -0.08622146 -0.04538546 -0.025409518 -0.10222981 0.118454695
0.17410183 0.044007037 0.0874033 -0.03022331 0.0050715646 0.15616119 0.03246187 0.015098545
-0.04132558 -0.0152507825 0.1979503 -0.06719079 -0.007691419 0.013886439 0.12941383 -0.087189235
-0.020448979 -0.05888115 0.0003854273 -0.03273459 -0.015092994 -0.024605906 0.012409811 -0.067433976
-0.11507591 -0.12508486 -0.11408686 -0.10780836 0.041509166 -0.04966449 0.07263514 -0.032060977
0.009421269 0.020250019 0.013900048 -0.11184216 -0.02200141 0.15309116 0.006581229 0.034784917
-0.14508009 0.0008435829 0.1327139 0.06760119 -0.12013885 -0.09482705 0.17206052 0.094715245
0.08646084 0.14131245 -0.062062364 -0.007984631 0.06693495 0.019756291 -0.04954018 0.07198836
0.11637616 0.13440153 -0.05927342 0.06712219 -0.1024813 0.052863903 -0.04579393 0.009936357
-0.08836479 0.15105692 -0.12099761 0.020205846 -0.00939463 0.10680411 -0.021786055 -0.005109807
0.053245556 -0.0035590273 0.09653986 -0.05533095 0.0031322837 -0.082902975 0.060194697 0.041954927
-0.018339235 0.08597603 0.002355499 -0.09479686 -0.024981758 0.1361914 0.045880727 -0.024464317
0.07499014 -0.034813244 0.08078889 -0.08777553 0.1001855 -0.052003425 -0.11311541 0.086211786
0.062880084 -0.0019493955 -0.048585095 0.03634586 0.05900856 -0.10446711 0.014446628 -0.060355283
0.14763376 0.053702783 0.11805159 -0.15254778 0.08405773 -0.044602122 -0.11765617 0.00879412
-0.060729805 0.06356697 0.0029723113 0.0032512704 0.013410643 0.042075716 -0.07360576 0.048993986
-0.012850721 -0.10874744 -0.025089951 -0.055191476 0.050344598 -0.012510413 0.049204543 0.05313812
-0.09053941 0.016778117 0.045839403 0.20249856 0.07307918 0.064243 -0.07221359 0.06879199
0.14512813 -0.036038943 0.07691679 0.0036309273 -0.06925857 0.1024966 -0.034249756 0.11460769
-0.124654844 0.10958459 -0.0099982815 -0.003905934 0.093943484 0.040586088 -0.041644987 0.06246185
-0.08456615 -0.20706858 0.03137909 0.116106845 -0.10708719 -0.15849322 0.10171796 0.040913936
-0.12160688 -0.1392513 0.06801653 0.031195216 0.04973927 -0.037765957 0.17477173 0.1432322
0.06152464 0.012117544 -0.0319408 -0.061983477 0.012960332 -0.03743801 -0.104623996 -0.16226862
0.1339082 -0.048638664 -0.027607337 0.03133719 -0.07248532 0.007856142 -0.09966238 0.04148241
-0.023298215 -0.2259749 -0.14100495 -0.016970081 0.014762154 -0.1123409 0.055564195 -0.028932163
-0.11062527 0.109010786 0.083898455 -0.07481238 -0.009917915 -0.070669115 -0.05205389 -0.12035216
-0.1539413 -0.08861364 0.038130365 -0.021411758 -0.08370955 0.0062177544 0.042318214 -0.14024802

mapper.bias f4 [32]
00000000: eebf 97bd 9129 2e3d 348c 89bd 53ec bc3d
00000010: a569 98bd 1c50 73bd 3e78 893d 0c40 b3bd
00000020: 838d 433c 999e af3d c752 e6bc edb0 8e3d
00000030: cedd 04bd 57cd c3bd 1c0b bd3d 8a44 5fbd
00000040: ba18 0abd 5c20 9f3b 7066 c13c 2136 423d
00000050: f8e1 2a3d 7b71 833d ca4d 4c3d b653 d3bc
00000060: 6bdc 1c3c cbde c13d a743 1cbb 875f 833d
00000070: a8d9 963d 019f 70bd 5a65 c63c 0af1 6c3d
-0.074096546 0.04252011 -0.06716195 0.09224763 -0.07442025 -0.05940257 0.067123875 -0.0875245
0.0119355945 0.08575172 -0.028115643 0.0696734 -0.032438092 -0.0956065 0.092306346 -0.054508723
-0.033714987 0.0048561525 0.023608416 0.047414903 0.041719407 0.06418129 0.049878873 -0.025796752
0.009574036 0.094663225 -0.0023844035 0.06414705 0.073657334 -0.058745388 0.02421825 0.05784706

head.weight f4 [13, 32]
00000000: 5fc8 0abe 4cc8 8e3e 0d39 0ebe 3bc2 233e
00000010: 5f23 023d 1768 45be 7583 8a3e 9cad 58bd
00000020: bae4 1e3d bae7 523e 77a8 59be 6b5b 0d3e
00000030: 24f1 17be 3d85 16be 6b8a d13d 10a0 c7bd
00000040: a82f 12be a3a9 52be 7af8 563e 0d67 7c3a
00000050: 3c58 183c 54f5 033e e2b4 5d3d cc77 7abe
00000060: a5dd 03bb 8b22 273e 2e8a 613e 50ee 073d
00000070: a747 523e 59e1 00be a129 613e cf71 903e
00000080: 2252 c33e f1d6 013e 139e 653e 8e3a 043e
00000090: 5051 83be 9509 1bbd 2687 e9bd 8af9 83bb
000000a0: 508b 03be bc0c 0fbe ac95 1ebe af34 69be
000000b0: c99c 093e 004c ab3e 0b78 60be dd97 21be
000000c0: d7cc a0bc 14f3 02be 6964 71be 4ae5 633e
000000d0: 0f7b 413e 8962 223e 9060 2ebe f294 0abe
000000e0: 31b6 943e 763b 10be 56e6 69be 7971 99be
000000f0: 1a53 e83d 1adc 6dbd 521e ffbd f662 973e
00000100: 976a fdbc 7e54 d0bd 71fb 5b3e ea89 f73d
00000110: 8854 cd3e 0843 e83d e234 313e d99f 3d3c
00000120: 0c8e ddbd c67e d8bd ecb7 803e b69a 6a3c
00000130: 24bc 873c f61c 223d 4589 2dbd 55e9 a0be
00000140: e6b1 d73e bbaf 603e 7e5d 3f3e 19fb e0bd
00000150: b592 d7be 1959 53be 25cc 86be 6616 393c
00000160: 039a 7d3e f348 81bd adab b73e a8e8 65be
00000170: b9c2 30be df44 42be 71aa f93d 4cd3 fa3d
00000180: a30f 643e dda6 843e 6476 843e 60d9 64be
00000190: c72f 423d 6dc6 b03e 9c98 6b3e 0836 1e3e
000001a0: 4a60 5ebe 94f0 2bbe f010 973e 640c 01be
000001b0: afdf cb3d 1ddc 153d 652c 15be 8c7d 723e
000001c0: b73e ae3e 13f4 a2bc 3e81 e03d 779b 25ba
000001d0: 3aa5 75be c39a a8bd 689f 8a3d b206 8e3e
000001e0: 078e 60be 2dfb 1b3e df2b e33d 871c f93d
000001f0: c1c5 8dbe 76f5 813e 6112 293e 269e 043e
00000200: 713a c83d 4cd0 bd3d a07f 10be 54ff b7be
00000210: 7653 e03e df5d 41be 8b78 21be 2213 0ebe
00000220: 9175 f2be e3ef 85be 1a89 f13d f951 8fbe
00000230: c578 4fbe 103f 20be 12da a3bc 382d d93d
00000240: 4a0c ca3e 176f 74be f964 7cbe 3d8c 53be
00000250: 6114 983e eaf8 563e 5bc8 08be 4677 efbd
00000260: 8349 1ebd 626b 4abd 5fa7 5c3e 25cd 78be
00000270: a6d2 023d da5f a83d 9c02 d53d 1a31 c0be
00000280: 8537 233e c92d cdbd b539 543d b593 7b3e
00000290: 1dbd 013c e47d 583e 155f 2ebe e3be d33e
000002a0: c02a 083e 7048 a3be c146 2c3e f7f5 ab3d
000002b0: 923d 213e adc4 2abd 95a8 0dbe cd21 593d
000002c0: 8624 103d ef8e 1f3e fbeb cc3d f4cd d53d
000002d0: b118 1fbd 05a3 2d3e 0452 a7be 54f0 a9be
000002e0: 526f a0be 3f32 91bd 0ebb 443e 84f7 343e
000002f0: bae1 373e b3c8 08be 2044 1cbe e553 22be
00000300: c692 dcbd e575 abbe 70f1 40be 350a 42be
00000310: 444d b63d d7ba a2bd ef72 14be cab5 273e
00000320: 5656 9a3d 340d d1be 4d3e 4bbe 91fd b3be
00000330: e953 9f3e ebab 413e cf87 c2be c8d7 92bd
00000340: 97df 133e 824e c2bd 8e2b 3c3e e669 553e
00000350: ec49 bc3d 890d 87bd 7634 743d 5228 e53c
00000360: 3a7f d43d 241f 85bd ac03 97be 1fbe fb3d
00000370: 7650 183e 3456 823e 1066 a2bb d852 5d3e
00000380: ac02 0dbe f3a9 b3bd e356 1bbe 820a a23e
00000390: ef07 d63d bfc9 dfbd a9ed 6a3e c754 a53e
000003a0: 9de7 8bbe 4bb1 563e d760 a0bc 00c8 56be
000003b0: e6c9 ccbc b857 373e 38bb dcbe 804e 363e
000003c0: b23c 2cbe a245 ecbd dca1 1ebe 8544 d3be
000003d0: 01b2 9ebd bbf6 49bb 5e62 5ebe f37a 7d3d
000003e0: 878e 8dbe c742 abbe f6cb bdbe e7b0 92be
000003f0: f452 aabe 141b 393e eb78 2c3e c273 3b3e
-0.13552998 0.2788719 -0.1388895 0.15992062 0.031772014 -0.19277988 0.2705342 -0.05289994
0.03879235 0.20596209 -0.2125567 0.13804404 -0.14838082 -0.14699264 0.10231479 -0.097473264
-0.14275992 -0.20572524 0.20993224 0.0009628393 0.00929838 0.12886554 0.05412758 -0.24459761
-0.0020121124 0.16321771 0.22025368 0.033186257 0.20535146 -0.12585963 0.21988536 0.2821183
0.381486 0.1267965 0.22423582 0.12912962 -0.25647974 -0.037850935 -0.11402731 -0.00402755
-0.12846112 -0.13969702 -0.15486783 -0.22774003 0.13438715 0.3345642 -0.21920793 -0.15780587
-0.019628925 -0.1278804 -0.2357346 0.22255436 0.188946 0.158579 -0.17029023 -0.1353338
0.2904525 -0.14085183 -0.22841772 -0.29969385 0.11343975 -0.058071233 -0.12456955 0.2956769
-0.030934615 -0.101723656 0.21482636 0.12086852 0.40103555 0.1134091 0.1730533 0.011573755
-0.10818109 -0.10571055 0.2514032 0.0143191125 0.016569205 0.0395784 -0.04236724 -0.31428018
0.42127913 0.21942036 0.18688008 -0.10985393 -0.42104116 -0.20639457 -0.26327625 0.011296844
0.24765782 -0.06312742 0.35873166 -0.22452033 -0.17261781 -0.18971585 0.12190712 0.12247333
0.2227159 0.25908557 0.25871575 -0.22348547 0.047408845 0.34526387 0.23007435 0.15450299
-0.21716419 -0.16790992 0.2950511 -0.12602383 0.09954774 0.03658687 -0.14567716 0.23680705
0.34032223 -0.019891774 0.10962151 -0.00063174166 -0.2398881 -0.082326435 0.067686856 0.27739483
-0.21929179 0.15232535 0.11092352 0.12163644 -0.27689937 0.25382584 0.16510917 0.12950954
0.09776772 0.09268245 -0.14111185 -0.35936987 0.43813676 -0.18883465 -0.1576864 -0.13874486
-0.4735532 -0.26159582 0.11793728 -0.27992228 -0.20260914 -0.15649056 -0.020001445 0.10604328
0.394625 -0.23870502 -0.24647893 -0.20658965 0.29703048 0.2099339 -0.1335768 -0.116926715
-0.038644325 -0.049418814 0.21548222 -0.24297006 0.03193917 0.08221407 0.10400888 -0.37537462
0.15939148 -0.100184985 0.051812846 0.24568065 0.007918623 0.21141773 -0.17028458 0.41356573
0.13297558 -0.31891203 0.16823865 0.083965234 0.15746143 -0.04169147 -0.1383384 0.05301075
0.03519108 0.15581869 0.10005947 0.10439673 -0.038841907 0.16956718 -0.3267976 -0.33191168
-0.3133493 -0.07089662 0.1921198 0.17672545 0.17957202 -0.1335781 -0.15260363 -0.15852316
-0.10770182 -0.33488384 -0.18842101 -0.18949206 0.08901456 -0.07945793 -0.14496969 0.16377941
0.075359985 -0.40830386 -0.19847985 -0.35154393 0.31118706 0.18913238 -0.3799424 -0.07170063
0.14440762 -0.094876304 0.1837599 0.20841178 0.09193787 -0.065943785 0.059620343 0.027973328
0.10375829 -0.0650008 -0.2949499 0.12292122 0.14874443 0.25456393 -0.0049560145 0.21613634
-0.1377055 -0.087726496 -0.15169863 0.31648642 0.10450732 -0.10927152 0.22942223 0.32291242
-0.27325144 0.2096607 -0.019577427 -0.20974731 -0.024998616 0.17904556 -0.43111587 0.17803383
-0.16820028 -0.11536719 -0.15491432 -0.41263214 -0.07748795 -0.0030817229 -0.21717212 0.06188483
-0.27647802 -0.33449385 -0.37069672 -0.2865059 -0.33266413 0.18076736 0.16843002 0.18305877

head.bias f4 [13]
00000000: 16f4 83bd 91d5 d83d ce6a 0ebe 770a 82be
00000010: 5a04 55be bc38 08be b760 1d3c 70b5 8dbd
00000020: 8317 85be bcde a8bc 5aca 683d d9ac 233d
00000030: 6298 293e
-0.0644304 0.105876096 -0.1390793 -0.2539861 -0.20802441 -0.13302892 0.009605578 -0.06919372
-0.259945 -0.02061402 0.056833602 0.039959762 0.16562036

net.0.weight f4 [32]
00000000: dae4 863f ee8d 823f 2242 813f ae89 823f
00000010: a3e9 843f 7612 803f 4cbf 823f ffa6 833f
00000020: 35f5 843f 455a 803f 43a3 873f 890c 7d3f
00000030: 1ce4 813f e403 803f 5085 843f 3f62 803f
00000040: 760b 853f 006b 7e3f ffaa 7e3f cf6a 853f
00000050: fed4 873f c78f 7f3f b38b 853f f8f0 823f
00000060: 9e4f 823f 0fda 873f d1ee 843f 139a 813f
00000070: 6fd3 863f cf50 823f c12a 823f e47a 7f3f
1.053859 1.0199564 1.0098307 1.0198267 1.03838 1.0005634 1.0214629 1.0285338
1.0387331 1.0027548 1.0596699 0.9884725 1.0147738 1.0001187 1.0353184 1.0029982
1.0394123 0.9938202 0.9947967 1.042322 1.0611875 0.9982876 1.0433258 1.0229788
1.0180547 1.0613421 1.0385381 1.0125145 1.0533274 1.0180911 1.0169297 0.9979689

net.0.bias f4 [32]
00000000: a91a 3abd 2bfc e03c 1287 293c f651 21bc
00000010: 8ab1 07bd ac56 b73b 8985 cbbc 9979 e7bc
00000020: 3cac d03c acec adbb 8c4c 45bd f06c 2ebc
00000030: faf8 ccbc a7f9 01bb ab1b 123d 65ff 6bbc
00000040: 660e 26bd dab3 4dbd 95e8 02bb 763a 283d
00000050: da8e 7b3d 8ee5 45bc 6c76 113d aa80 833c
00000060: 13ac dc3c dff5 9e3c 065d 0abd b705 48bc
00000070: 4194 373d 0ccc ed3c 9e66 1bbd 49de 2e3c
-0.04543558 0.027463993 0.010347145 -0.009846201 -0.0331283 0.005595049 -0.024843948 -0.028256224
0.025472753 -0.0053077545 -0.048168704 -0.01064609 -0.025021065 -0.0019832642 0.035670917 -0.0144041525
-0.040541075 -0.050220348 -0.0019975055 0.041071378 0.06141553 -0.012078656 0.035513327 0.016052563
0.02693752 0.01940435 -0.03378012 -0.012208394 0.04481912 0.029027961 -0.03793966 0.010673114

net.1.weight f4 [32, 32]
00000000: 756b 4dbd a7fa 463e 5016 fa3d 0c0e dcbd
00000010: ff8d babd 81f6 853d 1878 093e 07e5 24be
00000020: 6503 573e e9f9 243e 5392 15be e6f1 5b3e
00000030: e5c1 b3bd 2271 ba3d 15d7 c8bd cb44 a8bd
00000040: 9223 72bc 5b90 16be f668 e83d 1e98 573d
00000050: 6afa 15be f86e 173e 0e26 5d3e bd4b 17be
00000060: 69c0 103e bb32 ff3d 6afd 7ebc 59b6 6c3e
00000070: 3049 e5bb 1d7b 01bd efc3 183e ccba 9f3d
00000080: 433e 52be 877f 203e 843a fabd d5f0 b13d
00000090: a8d2 9bbd a618 af3d e178 eebd eba9 b83d
000000a0: d796 253e af11 023e c41d f4bd a19b d9bd
000000b0: f1d8 74bd e5c9 b0bc 51ff 0c3e 1969 3dbd
000000c0: 7786 11be 47fa 16bd a09a 203e b51a 2e3e
000000d0: b59e c63d 01f3 95bd afde 86bd 2d81 00be
000000e0: def5 143e e50a 083e b039 37be 75f4 5abd
000000f0: 310d 173e bb1e 103e f058 1f3e 3f89 363d
00000100: 0987 9a3d 88ec 81bd 1021 2abe 9a8d a83d
00000110: eb76 bcbb ae0c 663d 0ff0 053e 82c9 66bd
00000120: 0b6c 3c3e dc53 d3bd 6d12 a23d b00f a7bd
00000130: 8eaa 2bbd 038b 52be 4328 83bd 12f4 e9bd
00000140: 3775 f53d 333d cebd eb36 98bd 0013 af3c
00000150: 30d1 c13d 924b f33d 5ca2 3a3e 8671 3cbd
00000160: 18b8 2a3e e86a 753e 98ba 1f3e d79d 3b3e
00000170: 3e2c 603e 5df6 6abd a310 ffbd 4ded d43d
00000180: a8ef 0d3c 5ffd 30be 0a88 0abe 8a11 1abe
00000190: 2ed2 08be 92e3 e13d 7a7e 6b3d d76b 01be
000001a0: 79a0 cebd 7898 8b3d a974 7abd 9136 e5bd
000001b0: 06d7 f43c 5075 cfbd 1ea6 9bbd 7b18 d3bc
000001c0: 4e33 3a3e dc8c 0f3e c853 7e3d 1900 febd
000001d0: 5e40 98bd 0df5 a83d dbda bbbd 7db9 a83d
000001e0: 8865 e33d 7f5d e4bb 1c75 283d 87ce fd3c
000001f0: 8512 123d cbae 6d3d 633e 3cbe 64ec 093e
00000200: 5e13 1e3d d2f3 203e 297f 363e 3f57 773d
00000210: f13a 8e3c ab63 20be a13f 34bd 8704 153e
00000220: a8ea 833c b04a 11bd f19a e8ba c628 0bbe
00000230: 5474 14be 624c a43d 5703 34be e866 193e
00000240: adc4 a43d 1339 6d3c 6f71 95bc 2212 a2bd
00000250: be85 b1bd 044d c43d 30ec adbd d9bf 3d3d
00000260: d470 f6bd 8a28 c33b 459a c3bd 71ae 9f3d
00000270: 12a6 d23d 7c4f 263e 397a b3bd 0dc1 243d
00000280: a47a 5ebe f41b d6bd 2ca6 1f3d 50a8 173e
00000290: d7cb 4fbe 9e2d 46bc 8e3f d23c 9cc1 61bd
000002a0: 1ffa c8bc 96d5 c83d 0f06 ecbc 2613 563d
000002b0: 04ae 83bc ad15 dfbd 9276 453e 13e2 aebd
000002c0: c3ec 2dbe 8e19 cebd 3769 27be 46ae 263e
000002d0: 185b bbbd ddb4 89bd b670 73bc f14a 963d
000002e0: fc6b 613e ad53 363c fd2b e23d 767e 863d
000002f0: 6f3f f63d ddc6 153e 798b 4f3d 4672 f93c
00000300: 5450 5cbd bb3d 1dbc 98ae 2cbd ce07 1b3d
00000310: a670 8d3c 6ca8 42be 6b4f 9fbd f21b 45bd
00000320: 7b77 423e e0ae 683d 9e8d cebb c962 10be
00000330: 8c18 1ebe 1a6c 843d 0946 dd3c 2f8c bb3d
00000340: 7f83 163e 5a1d b2bd 85aa ff3d 1aeb 6f3d
00000350: f3d1 aebd 1460 d93d 7251 15be 4760 e23c
00000360: bb41 153e 6702 5c3d 9824 2a3c 672f f4bc
00000370: aa6a e63b 4589 a6bd d7a7 90bc 7519 0abe
00000380: 0f21 d93b 6d39 b4bc 7613 693d eaea d0bd
00000390: 37a7 b9bd 18d9 ce3d a2d3 75bd 0b8c 6fbd
000003a0: 5bc2 193e b275 783d c46d 9ebd 6829 60bd
000003b0: 2581 2bbe 13e4 4dbe 04d0 ccbd 2553 483d
000003c0: a363 b7bc c90e 703c 4041 f23d 4915 b13d
000003d0: 1910 323e aa0b 213e 544f de3d babb 523c
000003e0: 09fa 523e 0d7b 28be 03a9 00be ccf6 a2bd
000003f0: 7514 0c3e 2376 60bc 566f 0ebe 1934 e5bc
-0.050151307 0.19431554 0.12211287 -0.10744867 -0.09109115 0.065411575 0.13424718 -0.16102992
0.20997389 0.16110958 -0.146066 0.21478996 -0.08777217 0.091036096 -0.09806649 -0.08216246
-0.014778988 -0.14703505 0.11348145 0.052635305 -0.14646307 0.14788425 0.21596548 -0.14774986
0.14135899 0.12460848 -0.015563348 0.23116435 -0.00699725 -0.03161155 0.14918493 0.077993006
-0.20531563 0.15673648 -0.12218192 0.08688513 -0.07608539 0.08549623 -0.116441496 0.09016784
0.16170822 0.12702058 -0.1191974 -0.10625387 -0.059777204 -0.021580646 0.1376927 -0.046242807
-0.1421145 -0.036859777 0.15683985 0.17002375 0.0969824 -0.0732174 -0.06585442 -0.12549277
0.14546916 0.13285406 -0.178931 -0.05345579 0.14751126 0.14074223 0.1556127 0.04456448
0.07545287 -0.06343943 -0.16614175 0.08230133 -0.005751481 0.056164436 0.13079856 -0.056344517
0.1840059 -0.10318729 0.07913671 -0.08157289 -0.0419107 -0.20560841 -0.06404164 -0.11423506
0.119852476 -0.100702666 -0.0743235 0.021371365 0.094637275 0.11879648 0.18225998 -0.046006702
0.16671789 0.23966563 0.15598524 0.1832193 0.21891877 -0.057363857 -0.12454345 0.10396824
0.0086630955 -0.17284153 -0.13528457 -0.15045753 -0.13361427 0.11029734 0.057493664 -0.12638794
-0.100892015 0.068161905 -0.061146412 -0.11192048 0.029887687 -0.101297975 -0.07600044 -0.02576851
0.18183634 0.14018577 0.06209162 -0.124023624 -0.07434152 0.08249865 -0.09172603 0.08238504
0.1110335 -0.0069691534 0.04112731 0.030982269 0.035662193 0.058028024 -0.18383174 0.13469082
0.03859269 0.1571801 0.17821945 0.06038594 0.01736209 -0.1566302 -0.044005994 0.14552508
0.016103104 -0.03547162 -0.0017746371 -0.13589773 -0.144975 0.08022381 -0.17579399 0.14980662
0.080453254 0.01447894 -0.018242566 -0.07913615 -0.086680874 0.09585002 -0.08492315 0.04632554
-0.12033239 0.0059557604 -0.09550909 0.07796944 0.10285582 0.16241258 -0.087635465 0.04022317
-0.21726471 -0.104545504 0.038976833 0.148103 -0.20292602 -0.012095837 0.02566507 -0.05511628
-0.02453333 0.09806363 -0.028811483 0.052264355 -0.016074188 -0.10892806 0.19283512 -0.08539214
-0.16984849 -0.10063468 -0.1634873 0.16277418 -0.09148234 -0.0672395 -0.014858415 0.07338513
0.22013849 0.011128348 0.11043546 0.06567089 0.12023818 0.14626642 0.05067012 0.030449998
-0.053787544 -0.009597237 -0.042158693 0.03784924 0.017265629 -0.1900956 -0.0777882 -0.048122354
0.1899089 0.0568074 -0.006303503 -0.14100184 -0.15439051 0.06465931 0.027010934 0.09157597
0.146986 -0.086970046 0.12483696 0.05857382 -0.085361384 0.106140286 -0.1458185 0.0276338
0.14575855 0.05371323 0.010384701 -0.02980776 0.0070317583 -0.08131651 -0.017658157 -0.13486274
0.0066262553 -0.022000039 0.056903325 -0.10201056 -0.09065097 0.10100001 -0.060016282 -0.058483165
0.15015547 0.060659118 -0.0773578 -0.054726988 -0.16748483 -0.20106535 -0.10000613 0.048907418
-0.022386378 0.014651963 0.11828852 0.08646638 0.17388953 0.15727106 0.108549744 0.01286214
0.20603193 -0.1645319 -0.12564473 -0.07957229 0.13679679 -0.013700041 -0.13909659 -0.027978944

net.1.bias f4 [32]
00000000: 6f21 813d 3c58 75bd d3bf 173e 28e2 b33d
00000010: 63a3 05be 4ceb c43d e1d1 853c ce66 483d
00000020: dfc6 9e3d 356e 3cbe 02bf 083e 4def 2c3d
00000030: b109 56bd a148 bf3d 9819 4ebe e7a4 dcbd
00000040: 81cb d63d abf3 f43d 4acd b63d 57c5 973d
00000050: 5e08 01bd 30e2 74bd 4943 e83d 51f9 153e
00000060: 439f 093d 3d8a 933b 43af e63d 0fef 73bd
00000070: 6de4 ff3d e4b3 c93b 407c fabd dda5 c13d
0.06305205 -0.0598986 0.14819269 0.0878337 -0.13050608 0.09615192 0.01633543 0.048926167
0.077527754 -0.18401416 0.13354114 0.042220403 -0.052255336 0.09340025 -0.2012695 -0.1077364
0.10488034 0.119605385 0.089258745 0.074106865 -0.03150212 -0.05978602 0.113409586 0.14645888
0.03359915 0.0045025633 0.11263897 -0.059554156 0.12494741 0.006155478 -0.1223073 0.09455464

net.3.weight f4 [32, 32]
00000000: b233 f93d e10b 0cbd 9fa9 5fbd 64d7 823c
00000010: b703 26bd 4134 0fbe 5a06 253e 7456 ba3a
00000020: 6e75 9bbd 48a9 a23c 5c63 a33d f4fb 933b
00000030: b7d4 9cbd 2c72 3ebd 07db 10bd 427e 0b3e
00000040: 74b0 89bc 10fa a63d 3029 cbbd e9e0 92bd
00000050: 3a25 ac3d 5df0 253e 817e 88bd d6fd ca3c
00000060: 4bac 063e 6e1a 1abe 8e72 373d b38f ab3d
00000070: 4b52 1d3e dcb1 073e 311c 7abd 5a04 173e
00000080: 8b0f 5bbe 1752 2abe bb5e 123d 1f8c 853c
00000090: d601 913d 5e84 b5bd cc84 f2bd c011 263d
000000a0: 6240 60bd 87b3 d8bd 1fb6 1abd 0a27 e23d
000000b0: 8687 963c e83f 4cbd 1f84 babd 170e adbd
000000c0: 7919 073d 8bda 84bd 0d03 503d 83d2 173c
000000d0: 765f 3b3c 775f f238 09e2 0e3e 475d 293c
000000e0: b0ac b4bd f896 36bd 240d 883d b7c8 8dbb
000000f0: e740 a63d a5a6 0abe 22f0 203d 85c2 c7bb
00000100: 4d91 3d3d 995a 82bd ee3c ff3d 0ebc 49bd
00000110: 75c8 7e3d 165c da3d 912a 06be bd34 8dbd
00000120: 8b30 203e 94ff 003d fa1c ec3d 2ec8 213e
00000130: 70fc 443e 4730 dc3d aaa9 073d 1a27 d83d
00000140: bd45 eb3d 256b 46be 5e28 953d 8466 413c
00000150: fe58 1d3c d898 15be bf1e 2cbe f666 ac3c
00000160: 4f02 123e 8c41 c9bb 120a 9ebd 612f f23d
00000170: 7584 efbd edf4 04be 49b2 8dbb 6208 3b3e
00000180: 21df 2a3e c665 97bd bc4a 04be 4795 fe3b
00000190: 8634 8cbd a2ba c33d 76ca 85bd a275 293e
000001a0: 3658 ba3d 5f6c a8bd c1d2 00be 71ef 403e
000001b0: 1658 d43d 6714 e6bd 0a8f 3e3d 986d ce3d
000001c0: 2aae 0dbe c4e1 a7bd f8d3 443e 4e49 d7bd
000001d0: 6f40 1cbe be80 c2bd 3bae 003e 8981 a8bd
000001e0: 0c9c d93d 4f59 053e a43f 0f3d 1c3b 28be
000001f0: 66ca 85bd 6c61 24be d72b 53bd 99f1 cfbd
00000200: e285 93bd 6315 323e ae20 0abe b7d6 2dbe
00000210: db4b 97bd f48a fd3d a075 bbbd 3fcd b53d
00000220: de46 f0bd fcdc dcbb 9681 273d 3bde 683e
00000230: 916a 783c cda5 62be 3cef 073e b1e6 923d
00000240: 4961 e5bd 0d9e aa3d 649f 31be 70a5 b03d
00000250: 2d77 dfbd e0ed febd b9c2 8c3d f207 4a3e
00000260: a2a8 cebd 715f 223e 56a2 2dbe 2018 9f3d
00000270: 0fb0 0c3e 393d aebd 0b44 fe3d 692d 98bd
00000280: ea5b a5bb 9801 1d3d 470a 483e 0905 ef3d
00000290: 3507 673c 6168 153e 9204 9cbd b4fd 503e
000002a0: a8e6 16be 9866 33bd 77cd 0abe ab6f 73bd
000002b0: 3aae 0c3e e759 7d3d ce81 32be 651c 203d
000002c0: 6d96 73bd c32a 1c3e 4ac3 d53d d3a4 d03d
000002d0: f3be b43d ea4c 8bbd 13b3 253e 8a02 35be
000002e0: e295 f4bc 0ef4 013d 04ff a23b fc19 94bc
000002f0: eefb 8bbd eb10 e5bc ffa3 353d 183a d13d
00000300: 89c4 103c fb47 c63c c418 83bc 4e04 b53c
00000310: 6ff4 f5bd d2a2 5b3c aed2 39bd 759d ad3d
00000320: 4c5b c1bd 9da3 c33d c94f 53bc 9c9f bdbd
00000330: 8b38 b73d 3a4c bc3d d609 943b fa1a 5cbd
00000340: 0d8d 2ebe a9bd dd3d 8d30 e73d c9f8 4c3d
00000350: c68f 8dbd 7970 df3c 0923 a93c 3a20 e0bc
00000360: 69ad 4fbe ee53 e0bc 32d4 523d fdd7 f9bd
00000370: 1150 123e 5ada d4bd 48cb 67bd 1427 033d
00000380: f51d e23d 1403 fabc d680 80bd 83b5 e7bd
00000390: ddc9 0a3e f850 3b3e f257 923d 05a3 853c
000003a0: dd93 fbbd b885 ea3d 5d57 0f3d fd9f 1e3b
000003b0: 0034 21bd ca30 1a3e ac77 1a3e c4a6 453c
000003c0: 985f 5e3d aca6 06be cead 043d 3acb 2e3e
000003d0: 7afb 10bd 867c 52be 5372 823d 56ab 0cbd
000003e0: 1c8c 0abd de09 d2bc 7713 883d 4a00 0abc
000003f0: fc0f f73d d34a 8e3c b382 22be afd3 6a3d
0.12168063 -0.034191016 -0.054605123 0.015971847 -0.040530887 -0.13984777 0.16115704 0.0014216439
-0.07590757 0.01985611 0.07977936 0.004516119 -0.0765776 -0.0464956 -0.03536513 0.13622382
-0.016807772 0.081531644 -0.09919965 -0.071718045 0.08405538 0.16204973 -0.06664754 0.024779242
0.13151662 -0.15049145 0.044786982 0.08377018 0.15363424 0.13251442 -0.06106204 0.14747754
-0.21392648 -0.16632877 0.035734873 0.016302167 0.07080428 -0.08863138 -0.11841735 0.04054427
-0.0547489 -0.10581117 -0.03777134 0.11042602 0.01837517 -0.049865633 -0.09107231 -0.08449953
0.032983277 -0.06486996 0.05078416 0.0092664985 0.011436334 0.00011557241 0.13953413 0.01033718
-0.08822 -0.04457757 0.066431314 -0.0043269056 0.08117848 -0.13540132 0.03929151 -0.0060961866
0.046281148 -0.063649364 0.12462793 -0.04925161 0.06220289 0.10662095 -0.13102175 -0.06894825
0.15643518 0.03149374 0.11528964 0.15799019 0.19236922 0.10751396 0.03312079 0.10554333
0.11487911 -0.1937681 0.0728309 0.011804227 0.009603737 -0.14609087 -0.16808604 0.02104519
0.14258693 -0.006141847 -0.077167645 0.11825443 -0.11695186 -0.12984057 -0.0043242318 0.18264917
0.1668668 -0.073924586 -0.12919134 0.00776926 -0.068459556 0.09557082 -0.06532757 0.1654878
0.09098856 -0.08223795 -0.12580396 0.1884134 0.103683636 -0.1123436 0.04652313 0.10079497
-0.1383597 -0.08197358 0.19221485 -0.10512029 -0.15258954 -0.09497212 0.12566464 -0.08227832
0.10625467 0.1302235 0.0349728 -0.16428798 -0.06532745 -0.16052788 -0.05155548 -0.10153503
-0.072032705 0.17390971 -0.13489029 -0.16976438 -0.07387515 0.12380019 -0.091532946 0.08877038
-0.11732267 -0.0067402106 0.040895067 0.22741024 0.015162126 -0.2213356 0.13274854 0.07172907
-0.11200196 0.08330927 -0.17345959 0.08625305 -0.10911403 -0.12447715 0.06873078 0.19729593
-0.10090758 0.1585672 -0.16956457 0.07768273 0.13739036 -0.08507771 0.12415322 -0.07430536
-0.0050463574 0.038331598 0.1953517 0.11670882 0.014100839 0.14590599 -0.07618059 0.2040928
-0.14736426 -0.043799013 -0.13554941 -0.059432667 0.13738337 0.061853316 -0.17432329 0.03908958
-0.05946963 0.15250687 0.10437639 0.10187688 0.08825483 -0.068017796 0.16181593 -0.1767675
-0.029856626 0.03172689 0.004974248 -0.018078797 -0.06835161 -0.027962169 0.044345852 0.10216159
0.00883592 0.024204245 -0.01600302 0.02209678 -0.12009513 0.013405519 -0.045366935 0.08477298
-0.094412416 0.09552691 -0.01289744 -0.09258959 0.089463316 0.091942266 0.004517774 -0.053736664
-0.17045994 0.108271904 0.11288557 0.050041948 -0.06912188 0.02727531 0.020646589 -0.027359117
-0.20280994 -0.02738377 0.051471896 -0.121993996 0.14288355 -0.1039321 -0.05659035 0.03201969
0.1104087 -0.030519046 -0.062745735 -0.113139175 0.13553567 0.18292606 0.071456805 0.016313085
-0.12284062 0.11451286 0.034995425 0.0024204247 -0.03935623 0.15057674 0.15084714 0.012063686
0.054290384 -0.13149518 0.032392316 0.17069712 -0.035396077 -0.20555314 0.06369462 -0.034343086
-0.033825025 -0.02563947 0.066443376 -0.0084229205 0.12063596 0.017369663 -0.1587017 0.057330783

net.3.bias f4 [32]
00000000: 2d5f dfbd 17b3 01be 2f25 69bd 7695 8ebd
00000010: da32 e3ba e3d4 f4bd b9cd 2cbe 16c3 393e
00000020: 10e3 48be 9d26 b8bd 4fa6 b0bd 4b40 fe3d
00000030: 57fb 323d b730 04be 454e 0b3e d8e3 a03d
00000040: 7bdd 12be 1b11 473e 28cd d93d 3cb2 413d
00000050: 7dd6 dcbd 453a 10be ad82 4e3d 2c5e bdbc
00000060: cc42 49be 0c36 36bd c5f9 be3d c5c8 d8bd
00000070: a86b a73d fbc1 86bd c0e8 0e3d 4146 26be
-0.10906825 -0.12665974 -0.056920227 -0.06962101 -0.001733388 -0.119546674 -0.16875352 0.18140826
-0.19617867 -0.0899174 -0.08625471 0.12414607 0.043696728 -0.12909208 0.13604076 0.07855958
-0.143423 0.19440119 0.106348336 0.04728912 -0.10783098 -0.14084728 0.05041759 -0.023116194
-0.19654387 -0.044485137 0.093249835 -0.10585169 0.08174831 -0.065799676 0.034889936 -0.16237737
