feature-compress-incremental/outputs/compress32_addcls_stage3/best_incremental.ckpt (torch, 71351 bytes, 4 tensors)

mapper.weight f4 [32, 512]
00000000: eaad bfbd 15d0 8b3d b457 4e3d e66f 723d
00000010: 5517 b9bd bf81 d63b e167 d03d 5c62 153e
00000020: 6f6a 40bd 7a22 c3bc 3b3d 03bc 117d aabd
00000030: 5dff 723c ef25 81bd 2d56 02bd da70 04be
00000040: 6a69 5dbd 8723 5b3c 20a7 9e3d bfcd 6b3d
00000050: 130b 29be 5b8f e2bc 666e ecbc b521 cc3c
00000060: 696a c63d f844 6bbd 4e02 5cbd 47a2 793c
00000070: b82b 1ebd 181d 743d 8a79 1a3e 1348 873d
00000080: 8ebf f1bc 7d69 373d 6e21 613d 84fd 98bb
00000090: 1cde 00bd 0f56 6cbd 3c9d da3b 0792 a33d
000000a0: 4a35 fb3b 560c 93bc 605b c2bd e835 b5bd
000000b0: 64e6 49bd 064c 96bc e30f babd 9f40 f73d
000000c0: edb2 333e 6d2b 1e3d 17fa b13d b42e dabc
000000d0: 576d d6bb 65ba 1b3e 581e e03c 3b38 1c3c
000000e0: 5f44 0ebd c5d2 383b eac2 453e 47c4 83bd
000000f0: 2d59 753b d57c 123c b4ed fb3d fcaa b2bd
00000100: 7b5a b8bc d9ef 35bd 08b5 c2bb 06f1 15bd
00000110: 1e97 26bc bc7e a8bc 9cdf 853c e898 82bd
00000120: ad75 eabd 01f4 03be 40df 07be b39a d2bd
00000130: ae5b 833d 348d 3bbd f2d7 9b3d b51b 13bd
00000140: c30e 333c 9c67 b63c 7017 883c 8607 e1bd
00000150: 59ee 8abc 5589 203e cf68 213b dee5 203d
00000160: d6ce 1cbe 71c9 f03b 56d1 053e 76ed 873d
00000170: 9ff9 d1bd ee9f babd 70c5 2b3e e62a da3d
00000180: a69f a93d 4ba7 023e c4b6 85bd f2b7 45bb
00000190: 0d67 403d 80cc 1f3d c6ae 3cbd f648 863d
000001a0: 9e71 0f3e acaa 033e 6fff 69bd 2ed8 913d
000001b0: ec0a d4bd 749c 4e3d fe3e 45bd aa1d c63b
000001c0: 550a afbd d5ed 153e 687a 0abe 3ace dc3c
000001d0: f017 0bbc ae3b ef3d 9841 c6bc af93 24bb
000001e0: 6095 503d 2b18 12bc cd82 bf3d 93c4 b2bd
000001f0: 1308 85ba c794 b4bd b142 833d 9e35 193d
00000200: 86c3 61bc f6c4 893d 1548 613c 211d d6bd
00000210: eaab f5bc 433c 083e 6dec 533d 6832 c1bc
00000220: 9e11 883d 32c3 10bd f74b 9d3d 87df b9bd
00000230: 2f3f c93d 2b44 5fbd 8844 dcbd bd00 a23d
00000240: 8cca 983d 4027 83bc f102 3abd b153 193d
00000250: e940 773d d66a d7bd 9e0b 2d3c 2a7b 75bd
00000260: a1b5 2f3e 686c 4b3d bc89 fa3d 6ccd 17be
00000270: cb22 b43d 22ac 25bd a795 e9bd 7257 823b
00000280: 912c 86bd c4a6 8c3d f14c 40bc f362 e4ba
00000290: f5c0 543c f0c4 223d 6c4d a2bd f4c9 333d
000002a0: ab9f 05bc fb5c d7bd 0009 f0bc fe4c 6ebd
000002b0: a328 6a3d 74d4 d8bb 4043 2f3d 9cba 4b3d
000002c0: a6f9 c6bd 7ae7 af3a bc0f 4d3d fd79 4d3e
000002d0: 5743 9e3d 0973 863d ca8f 92bd 8696 963d
000002e0: 0e7e 163e 04d0 02bd fc08 a03d 515c ea39
000002f0: 6409 99bd d996 d83d 78c0 1abd ccf1 d23d
00000300: 6f19 efbd aed3 d73d c67d 71bc ab73 58bc
00000310: 1e6d b23d 597d 2c3d 2f73 30bd 0409 383d
00000320: 82f6 a7bd 73ac 56be 5cca 0b3d 2dc8 f63d
00000330: 8e2e d8bd 56be 26be 4db1 c83d fb12 1c3d
00000340: ce77 05be 3168 10be d534 833d 155d d33c
00000350: cd06 343d c7f2 a2bc d415 383e 69e5 133e
00000360: 43f3 6f3d dbaa 8c3c 39fa 01bd 8928 82bd
00000370: 9abd 0f3c ec8b 11bd 3182 cdbd e4d0 25be
00000380: dfc6 fe3d ff8e 56bd 5bb9 a0bc 1a3f f83c
00000390: 0568 8bbd f240 3f3c da7b c3bd 681d 1b3d
000003a0: 7191 92bc 83da 69be 6405 0abe c83f a3bc
000003b0: 7de8 573c 1716 e1bd 0d0a 723d 9ff8 09bd
000003c0: 0ed4 d8bd 0883 d73d b229 a23d 9151 8ebd
000003d0: d326 69bc fce7 99bd 50ab 63bd b2c9 c8bd
000003e0: 4c1f 1bbe 1112 aebd 0bab 263d 1dad d5bc
000003f0: ec59 9ebd 0292 103c 2179 bb3c fb59 0cbe
-0.09359343 0.06826798 0.05037661 0.059188746 -0.09037653 0.0065462287 0.10176063 0.14588302
-0.046976503 -0.02382015 -0.008010204 -0.08324636 0.014831391 -0.063060634 -0.031820465 -0.12933674
-0.05405561 0.01337517 0.0774672 0.05756926 -0.1650813 -0.027656248 -0.028861236 0.024918417
0.09688265 -0.05743882 -0.053713135 0.015236444 -0.038615912 0.05959806 0.15085426 0.06605544
-0.029510286 0.044778336 0.05496352 -0.0046688933 -0.03146182 -0.05769926 0.006671576 0.07986837
0.0076662647 -0.017950218 -0.09490085 -0.088481724 -0.049291983 -0.018346798 -0.090850614 0.12072872
0.17548724 0.038615633 0.08690279 -0.026633598 -0.006543796 0.15207823 0.027358219 0.009534891
-0.034733173 0.00282018 0.19312635 -0.06433921 0.0037437186 0.008940895 0.12301198 -0.08724019
-0.022504082 -0.04441819 -0.0059419908 -0.03660681 -0.010167865 -0.020568244 0.016341977 -0.06376821
-0.11448226 -0.12886049 -0.13268757 -0.10283413 0.06413971 -0.04578896 0.07609548 -0.035915095
0.010928812 0.022266202 0.016612738 -0.10987763 -0.016959356 0.15677388 0.0024629121 0.03928172
-0.15313277 0.0073482324 0.13068137 0.06637089 -0.102526896 -0.091125354 0.16774535 0.106527135
0.08282404 0.1275913 -0.065290004 -0.0030169454 0.046973277 0.039013386 -0.046065114 0.06556885
0.14008185 0.12858075 -0.057128366 0.07121311 -0.10353646 0.050442174 -0.048155777 0.0060460167
-0.085468926 0.14641507 -0.13523257 0.026953805 -0.008489594 0.11681305 -0.0242012 -0.002511244
0.050923705 -0.008916895 0.0935112 -0.087289 -0.0010149501 -0.088174395 0.06409205 0.03740465
-0.013779527 0.067270204 0.013750096 -0.10454775 -0.029989202 0.13304238 0.051739145 -0.023583606
0.06643985 -0.035342403 0.07680505 -0.090758376 0.098265044 -0.05450837 -0.10755259 0.07910297
0.07460508 -0.016009927 -0.04541296 0.03743333 0.060364638 -0.10518424 0.010561852 -0.05993191
0.1715913 0.04966393 0.12233302 -0.14824456 0.08795699 -0.04044736 -0.11405497 0.0039777094
-0.06551469 0.068677455 -0.011737094 -0.0017424509 0.012985458 0.039738595 -0.07924923 0.04389377
-0.008155744 -0.105157815 -0.029301167 -0.058178894 0.05716766 -0.0066171233 0.042788744 0.04973851
-0.097155854 0.0013420426 0.050063834 0.20066066 0.07727688 0.0656491 -0.07156332 0.07352929
0.14696524 -0.03193666 0.07814214 0.0004470074 -0.07472494 0.10575647 -0.03778121 0.10300025
-0.11674773 0.105384216 -0.014739459 -0.013211171 0.08712219 0.04211173 -0.043078598 0.044930473
-0.082013145 -0.20964222 0.03412853 0.12049899 -0.105557546 -0.16283545 0.097994424 0.03810404
-0.13033983 -0.14102246 0.06406561 0.02580122 0.0439518 -0.019891156 0.17977077 0.14442982
0.0585816 0.017171314 -0.03173277 -0.06355388 0.008773232 -0.03553383 -0.10034598 -0.16192967
0.124402754 -0.052382465 -0.019619634 0.030303527 -0.068069495 0.011673199 -0.09545107 0.03786984
-0.017891617 -0.22837262 -0.13478619 -0.019927874 0.013177988 -0.109905414 0.059091616 -0.03368437
-0.10587321 0.10523039 0.07918109 -0.06949151 -0.014230448 -0.07514951 -0.0555833 -0.09804095
-0.15148658 -0.0849954 0.040690463 -0.026083523 -0.07731995 0.0088238735 0.022884907 -0.137062

mapper.bias f4 [32]
00000000: 42c5 8ebd 15d0 563d 6d93 83bd 6eb2 4c3d
00000010: 1e93 c8bd 65ba a2bc 8c75 9b3d 78e5 60bd
00000020: c4cf 763d 55f5 583d 89a2 a7bd 723c 18bc
00000030: de4f 92bd 31f5 9cbd 3829 693d 725c 4bbc
00000040: a2e6 97bd aebf 28bb 781d 353d 983f 1fbd
00000050: 3759 063d cd5e 393c 5a37 a53d 31e3 d9bd
00000060: bd49 fd3b 2712 253c 3534 953d 92e3 933d
00000070: 77db 923d 84e7 b9bd 42a8 083d 3976 b73d
-0.06971218 0.052444536 -0.064246036 0.04997485 -0.097936854 -0.01986427 0.0759078 -0.05490634
0.060256734 0.05296834 -0.08185298 -0.009291755 -0.0714414 -0.07663954 0.056924075 -0.012412177
-0.074170366 -0.0025749016 0.044217557 -0.038879007 0.032799926 0.011314106 0.08067198 -0.106390364
0.0077297376 0.010075129 0.07285348 0.0722114 0.07170766 -0.09077361 0.03336359 0.08958096

head.weight f4 [13, 32]
00000000: 0549 44be 5b36 463e 22bf 0cbe 50b6 423e
00000010: 4b13 923c 7b73 2cbe a560 ae3e 9684 f1bd
00000020: c622 c33c 2f23 9d3e 8508 2ebe e768 133e
00000030: a3ef 06be 4ddf 18be 4fb4 dc3d 6ae8 cbbd
00000040: 2f69 10be 698d 24be bb00 f33d 1897 ba3d
00000050: 5c4c 243c 227b 3b3e 78d6 4f3d 447f 17be
00000060: 810a 3b3d 1e8d 743e a231 af3d e7bd d53c
00000070: 39bb 6f3e 9f2d babd 64cb 883e 67ff 4b3e
00000080: 0daa ab3e e4d6 393c 3535 403e c174 223e
00000090: 2854 85be 7c7b 0abd 0c39 c3bd ea79 abbd
000000a0: 4c93 15be 665c 6bbc 77a2 e5bd 557f 1fbe
000000b0: 5022 203e 9cbd aa3e f922 48be fae2 2abe
000000c0: c56d 9bbc a2b5 c6bd 531d b7be d45b 893e
000000d0: 37d9 453e 703e 4a3e 9557 1cbe 664e 8cbd
000000e0: 7a99 a03e 986a cebd 45fc 9cbe 2256 aebe
000000f0: 34a3 163e a626 4fbd 31c5 03be c8b8 463e
00000100: 4a25 d0bd ef60 3dbe 58d6 253e 0e33 173e
00000110: f95c b43e f5a1 163e 56de 5b3e a175 0abd
00000120: 562d 0cbe 17c7 52bb cd32 993e 83c5 5e3d
00000130: 6050 fc3c 0e96 053d c497 f9bc ed4c a8be
00000140: 215f dd3e 9e67 723e c4f8 da3d 5787 efbc
00000150: 7b4a bfbe 404a 5bbe 873b 8ebe 6cf9 843d
00000160: 3357 8a3e 06ad 32bd f785 923e cd81 8bbe
00000170: 5baa 2fbe 8ee4 2bbe 4c44 213e 579c 2c3d
00000180: 98a0 483e aebe 7d3e 3f82 723e 9bc9 4dbe
00000190: 6801 2e3c fe4f af3e cce4 903e 0e4c d33d
000001a0: 7aad 8fbe df8e 89bd 3f72 b03e 732f 8dbd
000001b0: f688 a03d 3cd3 0b3d f82e 0ebe dd3f 373e
000001c0: 40e2 b73e 334d 95bb 4aed 2b3c 1740 b83d
000001d0: 998b 6ebe 2138 63bd 97fb bb3d 1191 923e
000001e0: 135f 36be af4e 6b3e c7c8 203c 63ab ab3d
000001f0: a48e 89be 901d 863e 1598 5f3e d3ef 283d
00000200: e6cd d63c 36f5 603c a67c 1abe cb11 b3be
00000210: 3888 c63e 13ab 37be d51d 28be 0534 25be
00000220: 1bcd 02bf bacd 28be f995 293e f69b 61be
00000230: 6587 54be e5a9 22be 29d2 85bc 8b2c 593d
00000240: 2080 cc3e 54c0 47be 2aad b0be d0c6 11be
00000250: fabc 9b3e 6ce6 773e e6db 03be 5d85 8abd
00000260: 1595 dd3a d654 07bd 54f0 e23d d18b 9dbe
00000270: b85e 0b3d 9781 8f3d 16af d53d 4851 ddbe
00000280: f241 be3d 31bb 4abe 6936 5a3d 94d0 933e
00000290: 41a6 053c 35fa 683e faf2 27be d328 cf3e
000002a0: cac5 fd3d b1a8 48be 9d39 5d3e d302 dd3d
000002b0: 0c32 3c3e ec99 2cbd 4ded ffbd 6fb8 e63c
000002c0: d2d5 1d3d 75c0 333e 1a75 b23c f99e 2b3e
000002d0: 1d9a 22bd 1c44 593e 8ae9 9abe 4d1b 85be
000002e0: 9398 9cbe f196 9d3b 29e0 853d b72c 333e
000002f0: 8719 693e dd07 02be 7f46 1bbe 3ff3 8fbe
00000300: 787b 48be c448 dabe 7d89 40be dbbd 1cbe
00000310: 3621 b53d cc7c 98bd 789e 04be 4b3e ac3d
00000320: c77c 8c3d 6f50 90be eaf1 34be bd73 8ebe
00000330: 8871 a73e 4c0e 483e 86cf b7be c16d a8bd
00000340: ed1d 1a3e a4eb 8ebd 876b cd3d f78f 853e
00000350: 091e bb3d 71a6 1abd 6562 7e3d dfcf c73d
00000360: edf1 163e ed87 8bbc 5474 b2be faf8 f33d
00000370: cfcc 3e3e 0847 8d3e 6610 713b b933 f13d
00000380: 166e 4abe db95 39be 6e12 22be 0e99 b93e
00000390: b71e 8e3d a5b3 c2bd d8da 893e 165e 793e
000003a0: 5570 96be 32de 933e 0102 9f3c b6ea 29be
000003b0: ae78 8abc be01 313e 58f0 ccbe fdcb ea3d
000003c0: 32f0 2cbe 00f4 bcbd 587a 81be 3da8 aebe
000003d0: b66a 96bd 74d7 483d 81cb 59be f022 f53d
000003e0: 5e3c 7cbe 0573 a1be 7a79 d6be 2625 acbe
000003f0: 00d7 a4be 85ab 423e cc84 553e a564 d43d
-0.1916848 0.19356672 -0.13744786 0.19014859 0.017831465 -0.16840927 0.3405811 -0.11792867
0.023820292 0.30690905 -0.16995437 0.14395486 -0.13177352 -0.14928932 0.10776579 -0.09956439
-0.14102624 -0.16069569 0.11865374 0.0911085 0.010027971 0.1830869 0.050741643 -0.14794642
0.045664314 0.23881957 0.085543886 0.026091529 0.23411264 -0.09090733 0.26717675 0.19921647
0.33528176 0.011342738 0.18770297 0.1586485 -0.2604077 -0.03380917 -0.09532365 -0.08372863
-0.1460697 -0.014365291 -0.11212628 -0.15575917 0.15638089 0.33347785 -0.19544591 -0.16688147
-0.01897324 -0.097026125 -0.3576456 0.26827872 0.19321142 0.1975038 -0.15267785 -0.06850891
0.31367093 -0.10078925 -0.30661216 -0.3405009 0.14710695 -0.050573967 -0.12868191 0.19406426
-0.10163362 -0.18494008 0.16195047 0.1476557 0.35227183 0.14710219 0.21471533 -0.033803586
-0.1368917 -0.0032162124 0.2992157 0.05438758 0.030800045 0.032613806 -0.030467875 -0.3287119
0.4323664 0.2367234 0.106919795 -0.02923934 -0.37361512 -0.21415043 -0.2777979 0.06492886
0.27019653 -0.04362204 0.28617832 -0.27247468 -0.17154829 -0.16786405 0.1574871 0.042141285
0.19592512 0.2477977 0.23682497 -0.20096438 0.010620452 0.34240717 0.28299558 0.10317241
-0.2806204 -0.067167036 0.34462163 -0.06893816 0.07838623 0.034136996 -0.13885105 0.17895456
0.35914803 -0.004556322 0.010493586 0.08996599 -0.2329544 -0.05547345 0.09178846 0.28626302
-0.17809705 0.22979234 0.009813494 0.08382299 -0.2686664 0.2619443 0.21835358 0.04124434
0.026221227 0.013730338 -0.15086612 -0.34974512 0.38775802 -0.17936353 -0.1641763 -0.16133125
-0.51094216 -0.16484728 0.16561116 -0.2203215 -0.20754774 -0.15885122 -0.016335564 0.053020995
0.39941502 -0.19506961 -0.34507114 -0.14235997 0.30417615 0.24208993 -0.12876853 -0.06763718
0.0016905392 -0.03303989 0.11080995 -0.30770734 0.034025878 0.07007139 0.104337856 -0.43226075
0.09289922 -0.1979797 0.053274546 0.2887007 0.008157314 0.22751696 -0.16401282 0.40460834
0.12391241 -0.195956 0.21604009 0.10791554 0.18378466 -0.04213898 -0.124964334 0.028164117
0.038533993 0.17553885 0.021784354 0.16759862 -0.039697755 0.21217388 -0.302563 -0.2599739
-0.30585155 0.0048092534 0.06536896 0.17497526 0.22763644 -0.12698312 -0.15163611 -0.2811527
-0.1957835 -0.4263364 -0.18802448 -0.15306799 0.08844225 -0.07445678 -0.12951076 0.08410319
0.06859737 -0.28186366 -0.17670408 -0.27822676 0.32703805 0.19536704 -0.35900515 -0.08224059
0.15050478 -0.06978539 0.10030275 0.260864 0.09136588 -0.037756387 0.062105555 0.09756445
0.14740725 -0.017032588 -0.34854376 0.11912723 0.18632816 0.27593255 0.0036783456 0.117774434
-0.19768557 -0.18123572 -0.15827343 0.36249584 0.06939452 -0.09506921 0.26924777 0.24352297
-0.29382578 0.2888046 0.019410135 -0.16593441 -0.016903248 0.17285821 -0.40027118 0.11464689
-0.16888502 -0.09226227 -0.25288653 -0.3411273 -0.07344572 0.049033597 -0.21269037 0.119695544
-0.24632403 -0.31533065 -0.41889554 -0.33622092 -0.32195282 0.19010742 0.20851439 0.10370759

head.bias f4 [13]
00000000: 5d22 82bd 7409 e03d 474b 04be 6b6b 82be
00000010: f4bd 52be d3c6 08be dc8b 163c c417 86bd
00000020: 8c6e 85be 0c84 36bd e6c4 1a3d eec6 78bd
00000030: 9208 03be
-0.063542105 0.10939303 -0.12919341 -0.25472578 -0.20580274 -0.13357095 0.0091886185 -0.06547502
-0.26060903 -0.044559523 0.037785433 -0.06073659 -0.12796238
