feature-compress-incremental/outputs/compress2_initial/last.ckpt (torch, 7871 bytes, 4 tensors)

mapper.weight f4 [2, 512]
0	0x3e405958	0.18784082
1	0x3e3aade8	0.18230402
2	0x3e5db923	0.21652655
3	0x3e261f49	0.16222872
4	0xbe2ee1a4	-0.17078263
5	0x3e24b150	0.16083264
6	0xbdc7c402	-0.097541824
7	0x3e324494	0.17408973
8	0x3d822b42	0.06355907
9	0xbe2a4481	-0.16627695
10	0x3e558447	0.20851241
11	0x3d19cb59	0.037547443
12	0x3e838200	0.2568512
13	0x3df959d9	0.1217534
14	0xbca95e8f	-0.020674972
15	0x3dd59c26	0.104301736
16	0x3c0b4ea0	0.008502632
17	0xbd825bbb	-0.063651524
18	0xbdd3cafd	-0.10341451
19	0xbf0f0ed9	-0.5588203
20	0xbebc81f2	-0.3681789
21	0xbe07ddfd	-0.13268276
22	0xbed8bf3e	-0.42333406
23	0xbdf0ed48	-0.11764008
24	0xbd916f99	-0.07101364
25	0xbda83636	-0.08213465
26	0xbe7f0031	-0.24902417
27	0xbcb023af	-0.02150139
28	0x3e039c71	0.12852646
29	0x3e99c905	0.30036178
30	0xbe92a522	-0.2864161
31	0xbe288b85	-0.16459472
32	0xbed82ba3	-0.42220792
33	0xbeb287db	-0.34869274
34	0x3e5f5dac	0.21813077
35	0x3e974f3e	0.29552644
36	0xbe40a360	-0.18812323
37	0x3e5865a5	0.21132524
38	0xbe79f373	-0.24409275
39	0xbe4460bf	-0.1917753
40	0x3ea550e9	0.32288292
41	0x3d144b35	0.036204536
42	0x3c3a6602	0.01137686
43	0xbe982875	-0.29718366
44	0x3ce3a720	0.027789652
45	0xbe1a2ea4	-0.15056854
46	0xbd99214b	-0.07477053
47	0xbe5faa21	-0.21842243
48	0xbec847a2	-0.39117151
49	0x3e0c0119	0.13672294
50	0x3e79837c	0.24366564
51	0xbeda980d	-0.4269413
52	0xbd92eee8	-0.07174474
53	0xbbb92809	-0.0056505245
54	0x3da7fd6e	0.08202635
55	0x3e361ccf	0.17784427
56	0x3e32397e	0.17404744
57	0x3e5c38ed	0.2150609
58	0xbe42327e	-0.18964574
59	0x3e8120a2	0.2522021
60	0x3ee3e4ae	0.44510406
61	0x3ea72cb4	0.32651293
62	0x3cc2d550	0.023783356
63	0x3d0e0dc5	0.0346811
64	0x3ed8238b	0.42214617
65	0xbe036d5f	-0.1283469
66	0x3e7e10cb	0.24811094
67	0xbe19ba23	-0.15012412
68	0x3da25073	0.07925501
69	0xbde23ee5	-0.110471524
70	0x3db743dc	0.0894849
71	0xbdb3cf1c	-0.08779737
72	0x3ed6e2ed	0.41970006
73	0x3d89555e	0.067057356
74	0xbf137011	-0.57592875
75	0xbe98b46c	-0.2982515
76	0x3d068bd4	0.032848194
77	0x3d942394	0.072333485
78	0xbe616483	-0.22010998
79	0xbebbc81e	-0.36676115
80	0x3e052a75	0.13004477
81	0xbe7bbc08	-0.24583447
82	0xbe5b763d	-0.21431823
83	0x3da80795	0.08204571
84	0xbf000f27	-0.5002312
85	0xbe68f46c	-0.2274949
86	0xbe1087d9	-0.14114322
87	0x3dfad9d7	0.12248581
88	0xbe1491e4	-0.14508778
89	0x3ed1f9e1	0.41010955
90	0x3e3b5e09	0.1829759
91	0xbe968e88	-0.29405618
92	0xbeac59ef	-0.33662364
93	0xbc2fa0b6	-0.010719469
94	0x3e070e21	0.13188984
95	0xbe2ff670	-0.17183852
96	0x3ef04fd1	0.46935895
97	0xbd41348d	-0.047169257
98	0xbed8ecdd	-0.42368212
99	0xbe3e03d7	-0.18556152
100	0xbeb014ae	-0.34390777
101	0xbe20f9e6	-0.15720329
102	0x3e019586	0.12654695
103	0xbd8f2e39	-0.06991238
104	0x3e8ece44	0.27891743
105	0x3e543314	0.2072261
106	0x3e9bd592	0.3043638
107	0x3bcf122d	0.0063193054
108	0xbef15814	-0.4713751
109	0x3e429172	0.19000795
110	0x3d5a7d52	0.05334217
111	0x3deef2f0	0.116674304
112	0x3d8f188c	0.06987104
113	0xbe7a7adc	-0.2446093
114	0xbe5766e2	-0.2103534
115	0x3dd2edad	0.10299239
116	0xbe86fc1c	-0.2636422
117	0x3e534466	0.2063156
118	0xbd28aa12	-0.041177817
119	0x3c5ab2a2	0.013348253
120	0xbe8b9cb9	-0.27268007
121	0xbec8d1f0	-0.3922267
122	0xbe9584a3	-0.29202756
123	0xbe39a5ce	-0.18129656
124	0x3e516641	0.20449163
125	0x3d0d6508	0.03452018
126	0x3e5ce68d	0.21572323
127	0x3f09eb67	0.5387482
128	0xbe890396	-0.26760548
129	0xbd3533b7	-0.044238772
130	0x3ebbc768	0.36675572
131	0x3cac81a2	0.021057907
132	0x3e603fc7	0.21899329
133	0xbf05399c	-0.5204103
134	0x3e0cb0c8	0.13739312
135	0xbe869a91	-0.262898
136	0x3eda0286	0.4258005
137	0xbecf7cce	-0.40524906
138	0xbe242ba3	-0.16032271
139	0xbe1ef06e	-0.15521404
140	0x3dc6a257	0.096989326
141	0x3cc96800	0.024585724
142	0xbe726e89	-0.23674978
143	0xbe9794e2	-0.29605776
144	0x3d774dc7	0.06037691
145	0x3d8abf13	0.06774726
146	0xbddae35b	-0.10687896
147	0x3ed1c46d	0.40970173
148	0x3e55abf1	0.20866372
149	0x3e1fd0b7	0.15606962
150	0x3c8b7d7c	0.017027609
151	0x3c485ee5	0.012229656
152	0xbe37a24a	-0.17933002
153	0xbd7681f7	-0.060182538
154	0xbea4bbc1	-0.32174495
155	0xbe89c0eb	-0.26904997
156	0xbd590c8b	-0.052990478
157	0xbe61273b	-0.21987621
158	0xbde8a397	-0.11359327
159	0xbda0e608	-0.07856375
160	0x3c60d2a5	0.013722097
161	0xbe4eff92	-0.2021468
162	0xbe0f473c	-0.13992018
163	0x3e99de77	0.3005254
164	0x3d0b8982	0.034066685
165	0xbe2917f2	-0.1651304
166	0x3ea47b6e	0.3212542
167	0x3d45d9a0	0.048303246
168	0x3e64558a	0.22298256
169	0x3d5d9408	0.05409625
170	0x3c035e1a	0.008018041
171	0x3e91699a	0.2840088
172	0x3ea97ad1	0.33101514
173	0x3e001b32	0.12510374
174	0xbddaa3c5	-0.10675768
175	0xbb6439d4	-0.0034824507
176	0x3d96f499	0.07370872
177	0xbe9a7c16	-0.30172795
178	0x3ea2e744	0.31817067
179	0xbda45c22	-0.080253854
180	0x3e8cc6b1	0.2749534
181	0xbe863c78	-0.2621801
182	0xbde82111	-0.11334432
183	0x3ea25cbd	0.3171138
184	0x3cb997cd	0.022655392
185	0x3e3b1d96	0.18273005
186	0x3e6bf04f	0.23040889
187	0xbda103d0	-0.07862055
188	0x3e1c0ecd	0.15240021
189	0x3daf7a65	0.08568267
190	0x3e9c9719	0.30584028
191	0xbdfe3ded	-0.12414155
192	0x3e8c05ad	0.2734808
193	0x3ee1f3cd	0.44131318
194	0x3e7d5f35	0.2474335
195	0xbd89c65f	-0.067272894
196	0x3d1ebad3	0.03875239
197	0x3da431af	0.08017289
198	0xbd0e06ba	-0.034674384
199	0xbe3561e3	-0.17713122
200	0x3ea4f106	0.32215136
201	0x3e5511f6	0.20807633
202	0x3d485f05	0.048918743
203	0x3e3bfe46	0.18358716
204	0xbdb0abd9	-0.08626527
205	0xbdd889ec	-0.105731815
206	0xbe5894a9	-0.2115046
207	0xbc65ce61	-0.014026255
208	0x3e31735e	0.17329165
209	0xbe54a2e2	-0.2076526
210	0x3e3860d8	0.18005693
211	0x3e1e7c88	0.15477192
212	0xbd302aa6	-0.043009423
213	0xbe4b7cc9	-0.1987182
214	0x3e7e770f	0.24850105
215	0x3e945d4c	0.2897743
216	0x3e9e9066	0.30969542
217	0xbdcc15b1	-0.09965075
218	0x3e42c28c	0.19019526
219	0x3f0d1f30	0.55125713
220	0x3df73aa9	0.120717354
221	0x3dd179f8	0.10228342
222	0xbda2f719	-0.079572864
223	0xbc2b507a	-0.010456199
224	0xbe11d574	-0.14241582
225	0x3e44a445	0.19203289
226	0xbe0283f0	-0.12745643
227	0xbe189349	-0.14899935
228	0x3cc961a6	0.024582695
229	0xbe17af6e	-0.14813015
230	0x3e3c7436	0.18403706
231	0xbedfed39	-0.43735674
232	0xbe7e25e8	-0.24819148
233	0x3eb8d208	0.3609774
234	0xbdac4d9e	-0.08413242
235	0xbdc997da	-0.098434165
236	0xbd296333	-0.04135437
237	0x3cab25f5	0.020892123
238	0x3d1f9331	0.038958732
239	0xbdd6d3a1	-0.10489584
240	0xbe9dc8e4	-0.3081733
241	0x3ddc924e	0.10770093
242	0xbcc3039c	-0.023805432
243	0xbca0430a	-0.019563217
244	0x3d79ae35	0.060957152
245	0xbdefd36e	-0.11710249
246	0x3e8c7503	0.27433023
247	0x3cc22ea3	0.023703879
248	0x3e6dc12f	0.23218225
249	0xbce0b8de	-0.027431902
250	0x3e51933a	0.20466319
251	0xbe616fe4	-0.22015339
252	0x3e51631d	0.20447965
253	0xbd9f44ff	-0.07776832
254	0x3ea753ca	0.32681113
255	0xbd8905d3	-0.06690564

mapper.bias f4 [2]
0	0xbe942f5c	-0.28942382
1	0xbe3cb20d	-0.18427296

head.weight f4 [10, 2]
0	0xbf0c4ffe	-0.5480956
1	0xbf3c3b1a	-0.7352768
2	0xbea72604	-0.3264619
3	0x3e2514cc	0.16121215
4	0x3f9038d0	1.1267338
5	0xbe8a55d2	-0.270186
6	0x3f586491	0.8452845
7	0xbf046970	-0.51723385
8	0x3dd770f6	0.105195925
9	0xbe47f7fd	-0.19528194
10	0x3e103353	0.14082079
11	0x3f24c1d6	0.6435827
12	0xbf1160ca	-0.56788313
13	0x3ef21367	0.47280428
14	0x3f5e7874	0.86902547
15	0x3e84084c	0.2578758
16	0x3ee15bda	0.4401539
17	0xbf58960c	-0.84603953
18	0x3e3f6110	0.1868937
19	0xbeaf9a70	-0.34297514

head.bias f4 [10]
0	0x3dfb320e	0.122654065
1	0x3f3a18ba	0.7269398
2	0xbeedb3c8	-0.46426225
3	0xbda14f04	-0.07876399
4	0xbd9569e2	-0.07295586
5	0x3dea4404	0.11438754
6	0xbf8eeda0	-1.1166267
7	0x3f0fefc3	0.5622522
8	0xbf1a430d	-0.6025856
9	0x3f0f66d3	0.5601627
