feature-compress-incremental/outputs/linear_probe/best.ckpt (torch, 23501 bytes, 2 tensors)

head.weight f4 [10, 512]
0.079124846 -0.023898143 -0.07890496 -0.03251938 0.11466258 -0.026476411 -0.12219195 -0.2481486
-0.0077953194 0.0018640832 -0.07984726 0.117270425 -0.21887533 -0.29852042 -0.0378566 -0.09888456
-0.13386443 0.144353 -0.0036155784 0.3033315 0.32787842 -0.23164208 0.101347625 0.16242632
0.063687354 0.054329734 0.198845 0.009256005 0.09302226 0.015815077 0.12456962 0.03604389
-0.008665448 -0.03435764 -0.15385409 -0.0817065 0.09385166 -0.12460381 0.21672978 0.18786943
-0.09757156 0.03240757 0.06455996 0.15882356 -0.09647486 0.058002897 0.11202734 -0.008418889
0.06725245 0.13859393 -0.18146737 -0.010187209 0.18456282 -0.011867852 -0.13131756 -0.039237387
0.10631664 -0.0038635163 -0.021754602 -0.21457735 -0.101574786 0.024760708 -0.049245335 -0.019072518
-0.025770618 -0.15701851 -0.16453941 0.08912728 -0.09627309 -0.27829006 0.032865528 0.17902851
0.047989864 0.07944881 0.35438114 -0.16549164 0.0075289668 -0.1805102 0.108050935 0.1491904
0.03438417 0.07730203 -0.07146456 -0.060008314 0.016793668 -0.12596598 -0.13014589 -0.12651832
0.10061999 -0.16628842 -0.068029664 0.11136138 0.15046641 -0.06014246 -0.25144598 -0.20733276
-0.3295021 -0.08835525 0.17225932 0.34435245 0.093226224 0.022021037 -0.09869153 0.01626182
-0.31361273 -0.18218653 -0.21262944 0.03992556 0.17793357 0.0058925753 -0.05075417 -0.028997833
0.073065795 0.17985117 0.2014399 -0.19501236 0.08845908 -0.071247466 0.050834488 -0.04285881
0.03763427 0.069275305 0.093143344 0.1841088 0.14838627 0.060861997 -0.23457871 -0.07866403
0.16294184 -0.15332533 -0.17004082 -0.04800563 0.0045164977 0.09533138 -0.11958218 0.1299817
-0.26052585 0.21619713 -0.04179299 -0.01773874 -0.106072955 -0.09728984 0.05686264 -0.020547358
0.048600897 0.20420215 0.20448115 -0.052320093 -0.11555627 0.037153106 0.20369816 -0.046732333
0.14756618 0.072811455 0.0025817675 0.2731784 0.25509998 0.1667835 0.04508077 -0.051030427
0.2183116 -0.015478281 0.0495972 -0.10476229 0.08614175 0.26614618 -0.01992607 0.03752937
0.009455957 0.07437118 0.043416362 -0.09417813 -0.10667966 0.09482069 0.055061262 -0.018386273
-0.071149066 0.22534162 -0.12714939 -0.06482861 0.03472646 -0.14029065 0.07781446 -0.083538055
0.16529286 -0.16151439 -0.060282137 0.13111438 0.14213395 -0.08703001 0.06704425 0.13028336
-0.08859404 -0.25716537 -0.067161836 0.053056825 0.10297931 0.13055114 -0.0855696 0.14866412
0.08183617 -0.034607764 -0.05858766 -0.260141 0.20120868 0.20090877 0.10611361 -0.08327355
0.03574981 0.17268813 -0.05876137 0.03917817 -0.04178632 0.059712607 -0.017511891 -0.120031215
-0.096520446 -0.042373493 -0.23442623 -0.061639685 -0.08004856 -0.12707593 0.069145165 0.110887736
0.04500543 0.07882328 0.13326539 0.09326463 0.1735111 0.03195098 -0.19934396 0.15580676
0.048475835 0.03709767 0.094126195 -0.015832115 0.04953496 0.13853136 -0.12538093 0.17638429
0.4303941 -0.15353268 0.028124403 -0.06867473 -0.019112065 0.034995757 -0.26086527 -0.11496429
0.018168665 -0.012153791 0.036861222 0.25163758 -0.041841697 0.2702832 -0.2744936 0.22279955
00000000: 350c a23d 0ac6 c3bc ec98 a1bd 0b33 05bd
00000010: 37d4 ea3d 0fe5 d8bc c63f fabd ab1a 7ebe
00000020: e16f ffbb 4154 f43a f686 a3bd 7a2b f03d
00000030: db20 60be abd7 98be 860f 1bbd fd83 cabd
00000040: c213 09be 46d1 133e 57f3 6cbb 444e 9b3e
00000050: aedf a73e 9533 6dbe 588f cf3d 1653 263e
00000060: 846e 823d db88 5e3d 069e 4b3e 80a6 173c
00000070: 7482 be3d 9f8e 813c 5b1e ff3d c2a2 133d
00000080: 86f9 0dbc 99ba 0cbd ed8b 1dbe bd55 a7bd
00000090: 4d35 c03d 4830 ffbd 69ee 5d3e d860 403e
000000a0: 99d3 c7bd cdbd 043d 0338 843d a5a2 223e
000000b0: 9d94 c5bd 7294 6d3d 976e e53d 61ef 09bc
000000c0: a7bb 893d 91eb 0d3e 95d2 39be 40e8 26bc
000000d0: 09fe 3c3e 6171 42bc 1c78 06be 62b7 20bd
000000e0: 8abc d93d 0c33 7dbb b536 b2bc 2aba 5bbe
000000f0: 7106 d0bd f8d6 ca3c 7ab5 49bd f83d 9cbc
00000100: e71c d3bc 76c9 20be 057d 28be 5d88 b63d
00000110: d32a c5bd 097c 8ebe 019e 063d 4053 373e
00000120: 0591 443d 0fb6 a23d 7271 b53e a476 29be
00000130: 8db5 f63b aad7 38be cf49 dd3d 5ec5 183e
00000140: 6ad6 0c3d 8750 9e3d 035c 92bd 47cb 75bd
00000150: e092 893c 3afd 00be f744 05be 058e 01be
00000160: da11 ce3d 8347 2abe 2353 8bbd 6f11 e43d
00000170: de13 1a3e f157 76bd 87bd 80be 0a4f 54be
00000180: 80b4 a8be 99f3 b4bd bf64 303e f74e b03e
00000190: 64ed be3d 7665 b43c c91e cabd 8237 853c
000001a0: d991 a0be 1b8f 3abe 88bb 59be fc88 233d
000001b0: 3834 363e 8116 c13b 9be3 4fbd dd8c edbc
000001c0: 85a3 953d e82a 383e 4346 4e3e 52b1 47be
000001d0: 092a b53d 31ea 91bd d337 503d b88c 2fbd
000001e0: 6426 1a3d 36e0 8d3d f0c1 be3d 0487 3c3e
000001f0: 92f2 173e 6e4a 793d 6735 70be 9b1a a1bd
00000200: 3ada 263e 5101 1dbe 2e1f 2ebe 8da1 44bd
00000210: 21ff 933b 193d c33d 81e7 f4bd ec19 053e
00000220: a563 85be c862 5d3e 202f 2bbd d650 91bc
00000230: c73c d9bd e53f c7bd cde8 683d ef52 a8bc
00000240: bc11 473d 5e1a 513e 8263 513e 984d 56bd
00000250: c4a8 ecbd db2d 183d 4096 503e 676a 3fbd
00000260: 971b 173e 2c1e 953d df32 293b 0ade 8b3e
00000270: 779c 823e 4bc9 2a3e 9da6 383d 4805 51bd
00000280: 138d 5f3e 9e98 7dbc 6f26 4b3d 9d8d d6bd
00000290: 166b b03d 5044 883e ff3b a3bc 66b8 193d
000002a0: 29ed 1a3c eb4f 983d 5bd5 313d 77e0 c0bd
000002b0: de7a dabd 5a31 c23d eb87 613d cf9e 96bc
000002c0: 9ab6 91bd f4bf 663e 7333 02be ddc4 84bd
000002d0: 553d 0e3d 5aa8 0fbe 305d 9f3d 0016 abbd
000002e0: 8842 293e 0764 25be 67ea 76bd d942 063e
000002f0: 908b 113e ca3c b2bd 7f4e 893d 0069 053e
00000300: cb70 b5bd 2eab 83be 258c 89bd 1d52 593d
00000310: d1e6 d23d 33af 053e 1d3f afbd 683b 183e
00000320: b999 a73d dfc0 0dbd 9df9 6fbd 3331 85be
00000330: a609 4e3e 07bb 4d3e 1852 d93d 538b aabd
00000340: 656e 123d 28d5 303e c3af 70bd 4a79 203d
00000350: 2228 2bbd 3595 743d 1975 8fbc edd2 f5bd
00000360: 83ac c5bd d48f 2dbd 6e0d 70be e579 7cbd
00000370: 80f0 a3bd 3120 02be fb9b 8d3d 1c19 e33d
00000380: 9d57 383d 1a6e a13d b976 083e 8701 bf3d
00000390: e5ac 313e 08df 023d d320 4cbe cf8b 1f3e
000003a0: 998e 463d baf3 173d 3cc5 c03d 5ab2 81bc
000003b0: 2ce5 4a3d 2adb 0d3e dc63 00be 159e 343e
000003c0: 9e5c dc3e ac37 1dbe 2665 e63c 56a5 8cbd
000003d0: e890 9cbc b657 0f3d 2290 85be 6672 ebbd
000003e0: 74d6 943c b220 47bc cbfb 163d a4d6 803e
000003f0: 3362 2bbd 8f62 8a3e 6d8a 8cbe 9125 643e

head.bias f4 [10]
0.20088698 -0.04241602 -0.12537509 -0.14967994 -0.15713924 -0.10121013 -0.04414112 -0.14943185
-0.13456622 -0.05723519
00000000: 51b5 4d3e 6cbc 2dbd 5462 00be b345 19be
00000010: 1ce9 20be 4247 cfbd 52cd 34bd aa04 19be
00000020: bacb 09be 726f 6abd
