feature-compress-incremental/outputs/linear_probe/best.ckpt (torch, 23501 bytes, 2 tensors)

head.weight f4 [10, 512]
000000 2d 41 e9 3d f4 fa 08 bd f5 54 93 bd aa dd 0b 3d
       0.113893844 -0.033442453 -0.07193939 0.034146942
000010 19 3b b9 3d 96 76 c2 3c a1 98 d3 bd 28 33 53 be
       0.09044475 0.023738187 -0.10331846 -0.20624983
000020 f3 f7 36 3b 8b c9 18 bc 02 86 55 bd 54 46 4d 3d
       0.0027918785 -0.009325395 -0.052129753 0.0501159
000030 6a ab 61 be 29 a1 34 be 23 64 b0 bc f2 bb 19 bc
       -0.22038046 -0.17639603 -0.021532124 -0.009383189
000040 79 8b 3f be 81 ce 89 3d bc dd 01 bc 2c e6 21 3e
       -0.18705548 0.067288406 -0.007926401 0.1581046
000050 f1 5b 85 3e 81 60 47 be 6c 87 23 3d 4c 30 1c 3e
       0.26046708 -0.19470407 0.03992407 0.15252799
000060 c0 61 49 3d 6d bf 50 bd db 0d 18 3e 94 a8 e0 3d
       0.049165487 -0.050963808 0.14849035 0.10969654
000070 bf b2 27 3d d0 eb 1d bd 2d 5f 4c 3d 1e 3d a9 3c
       0.04094195 -0.038554966 0.049895454 0.020659026
000080 c0 c6 89 bd 13 61 6d bd 4e 6f 2e be a3 df a2 bd
       -0.06727362 -0.057953905 -0.17034647 -0.079528116
000090 c2 9a ce 3d fe a9 a4 bd 7e 70 eb 3d b8 57 32 3e
       0.100881115 -0.08040236 0.114960656 0.17416275
0000a0 45 09 3d bc 64 f5 b8 bc e4 64 31 bd 76 d4 08 3e
       -0.011537855 -0.022577949 -0.043309107 0.13362297
0000b0 7b 08 15 be 5d ae 62 bd ed 88 25 3e 17 e2 cb bd
       -0.14554016 -0.055342067 0.16165514 -0.099552326
0000c0 33 fc 50 3d e9 b2 49 3d 1f a6 27 be 1d 5c a5 3d
       0.051021766 0.049242888 -0.16371964 0.0807421
0000d0 7e 24 e0 3d ad 75 df 3c 99 dd 95 bd a9 38 14 bc
       0.1094446 0.027277792 -0.07317657 -0.009046712
0000e0 89 ea 69 3d 0c 17 9c 3c 8e af 08 be 28 02 23 3d
       0.057108436 0.019053958 -0.13348219 0.03979698
0000f0 f5 94 01 3d 27 f4 a2 bc 52 55 85 bc ff 9e 7c bd
       0.031636197 -0.019891812 -0.016276035 -0.061675068
000100 ed f2 c7 bd 7b 15 66 bd 2a 63 e4 bd 1e c7 7d 3d
       -0.09763131 -0.05617283 -0.111517265 0.06195747
000110 f5 be b4 bd 9d 82 b2 bd 2a 54 e6 bc 97 97 42 3e
       -0.08825485 -0.08716319 -0.028116304 0.1900314
000120 fc 56 86 3d 85 00 ba 3d 45 52 4c 3e a9 52 c1 bd
       0.0655956 0.0908213 0.19953258 -0.09439594
000130 59 30 53 3d dd 25 04 be 04 27 d5 bd 2b 3d 23 3e
       0.05155978 -0.12905069 -0.10407832 0.15941302
000140 51 27 a4 3d af f8 f7 3c cc 61 be bd 6d 80 1e 3d
       0.080153115 0.030269949 -0.09295997 0.038696695
000150 cc dd 1c bd e7 5b c2 bd f8 9a 5c be 66 2a 25 bd
       -0.03829746 -0.09490185 -0.21543491 -0.040323637
000160 53 e0 6d 3e 9c e8 86 bc 6f d4 d1 3d 2f e6 37 3d
       0.23230104 -0.016468339 0.102455966 0.044897255
000170 68 e3 f4 3d 7c e7 91 bc 3e c6 6b be 5a 63 55 be
       0.11957437 -0.017810576 -0.23024842 -0.20838681
000180 8c ec 80 be 9d 45 4d be 3b c7 22 3e 0f da 58 3e
       -0.2518047 -0.20046087 0.15896313 0.21176933
000190 ca 9f c9 bd fc a1 11 3e 1f c8 90 3d 01 b9 1e 3c
       -0.098449305 0.14221948 0.0706942 0.009687663
0001a0 49 51 54 be 3d 58 05 be c5 92 b5 bd 1b f6 de 3c
       -0.20734133 -0.13021941 -0.08865885 0.027216962
0001b0 bd 20 1d 3e 30 38 b0 bd 0b ff bd bd 26 72 0b bd
       0.1534452 -0.08604467 -0.09277161 -0.034044407
0001c0 c2 8a 8e 3d 7a 9d e0 3d 29 55 1e 3e 4e 43 1e be
       0.0696006 0.10967536 0.15462174 -0.15455362
0001d0 4f 56 a9 bb 00 f6 c6 bd f6 92 3d 3c 57 4e ac bd
       -0.0051677595 -0.097148895 0.011570683 -0.0841338
0001e0 ba 46 33 3d 82 8a cf bd 76 1a e3 3d 06 25 26 3e
       0.043768622 -0.1013384 0.110890314 0.16225061
0001f0 8c 75 0c 3c aa 4b 23 3e 0f 43 eb bd 89 d7 be bd
       0.008572947 0.15946832 -0.114874 -0.09318454
000200 78 4d 55 3e 17 84 57 be 8e 1c 42 be 78 a4 ed 3d
       0.20830333 -0.21046482 -0.18956205 0.116036355
000210 e5 eb 7d bc ec e0 a2 bc ed 94 87 be 5b ba 17 3e
       -0.015498136 -0.019882642 -0.2648081 0.14817183
000220 93 3a 31 be 95 9b 54 3e 90 53 1a be df af 75 3e
       -0.173075 0.20762475 -0.15070939 0.23992871
000230 90 12 68 bc fc a7 ec bd ae de 11 3e 98 3b ef bc
       -0.014164582 -0.11555478 0.14245102 -0.029203221
000240 b5 dc 5f 3d ab 18 e3 3c d9 c3 1e 3e 7f e2 f9 bd
       0.054653842 0.027721724 0.15504397 -0.12201404
000250 f8 df 17 bd 98 5e 42 3d 1d 69 9c bc 52 33 b1 3c
       -0.037078828 0.047453493 -0.01909309 0.021630917
000260 dd 48 a1 3d 59 8d 0f 3c 2d 12 ad 3b ea 7d 53 3e
       0.07875226 0.008761727 0.0052817077 0.20653501
000270 d6 1e 38 3d 5c 1b e7 3d 56 65 20 bd fe b4 50 bd
       0.044951282 0.11284515 -0.03915914 -0.050953858
000280 41 35 54 3e 30 fd 9b bc ab c1 85 3d ba ad a8 bd
       0.2072344 -0.019041628 0.0653108 -0.08236261
000290 d5 a4 50 36 fc 84 e7 3d a1 56 c9 3d 55 e1 cc 3a
       3.109036e-06 0.11304662 0.09830976 0.0015631119
0002a0 73 ad b6 bd 9e a4 4e 3e d6 a7 bc ba bf 0b c4 bc
       -0.089198016 0.20179984 -0.0014393281 -0.023931382
0002b0 43 c5 28 be 45 bd b5 bc 3a 78 54 bb 57 88 69 bd
       -0.164815 -0.022184977 -0.0032420293 -0.05701479
0002c0 6d a3 ca bd db 85 d7 3d cb 7c 8d bd 68 ff 34 3e
       -0.09894452 0.10523578 -0.06908568 0.17675555
0002d0 d8 90 35 3e 55 4d 19 be 1d 48 df 3c 82 db c4 bd
       0.17731035 -0.14970906 0.027256066 -0.0961218
0002e0 9a 09 85 bc 51 1b d2 bd d2 a1 6f bd 47 73 30 3d
       -0.01623993 -0.102591164 -0.058503933 0.043078687
0002f0 80 d7 ce 3d 90 63 ab bd 70 d1 d1 3d 20 0b 04 3e
       0.10099697 -0.083685994 0.10245025 0.12894869
000300 1e c3 93 bd 6f 87 77 be b6 2d 13 bd 91 ad ba 3d
       -0.0721495 -0.24172758 -0.035932265 0.091151364
000310 75 63 10 3d a6 05 3e 3d 5b 00 35 39 0a ed 8d 3e
       0.0352511 0.046392106 0.00017261638 0.2771991
000320 c4 8f d3 3d 6f 39 cc 3d e5 c6 b2 bd c2 68 23 be
       0.103301555 0.09971892 -0.08729342 -0.1595793
000330 2f 60 43 3c c5 4e eb 3d ab 6b 0d bd 1b 0a 90 bb
       0.011924787 0.114896335 -0.03452651 -0.004395736
000340 8d 90 02 3e 51 fa 98 3d 05 a5 09 be f7 fe 02 3e
       0.12750454 0.07469619 -0.13441856 0.12792574
000350 cb ab 09 bd c3 11 44 3d 0c 73 ec bd 1b ad 5b bd
       -0.0336111 0.0478685 -0.11545381 -0.053631883
000360 f0 d2 12 be 0c 12 87 3d f6 69 15 be 36 92 05 3e
       -0.14338279 0.06595239 -0.14591202 0.13044056
000370 88 bb 27 be 61 03 1c bd 7e 47 b0 3d 67 25 4d 3e
       -0.16380131 -0.03808916 0.08607386 0.20033799
000380 fa e0 02 3d de 11 3b 3d be 6e 51 3e 1f dc f4 3d
       0.031952836 0.045671336 0.20452401 0.11956047
000390 52 6a c4 3d 02 65 c0 3d da aa 03 be f1 a6 85 3d
       0.095905915 0.09394266 -0.12858143 0.06525982
0003a0 ec 6e 15 3e e1 69 08 be 3e 48 ba 3d 80 35 9e 3c
       0.14593095 -0.1332164 0.0909581 0.01931262
0003b0 96 ce 9d 3d c2 12 d8 3d 84 1a 02 be f3 56 72 3d
       0.07705419 0.10550453 -0.12705427 0.059164952
0003c0 a6 11 b8 3e 3f d6 01 be b0 5b a8 3d 0d 1a ac bd
       0.35950965 -0.12679385 0.08220613 -0.08403406
0003d0 43 09 ee 3c ca dc ad bc 3c fd 4a be 5b 1c 06 bc
       0.02905715 -0.021223444 -0.19823164 -0.008185471
0003e0 67 38 45 3d 7c bc a9 bc cc 5b 12 3d ea 39 69 3e
       0.048149493 -0.02071976 0.035732076 0.22775999
0003f0 73 43 18 3d 6d 30 2a 3e 95 68 51 be d7 e3 0e 3e
       0.0371737 0.16620035 -0.20450051 0.13954102

head.bias f4 [10]
000000 36 da 21 3e a3 4a 37 bd c7 3c d6 bd f6 cc ee bd
       0.15805897 -0.044748913 -0.10460811 -0.11660187
000010 c1 ba 06 be 11 8a cb bd a5 60 9b bd 79 b2 07 be
       -0.13157178 -0.099384435 -0.07586793 -0.13251676
000020 d6 8a 0c be 2f 86 8c bd
       -0.13724837 -0.06861531
