feature-compress-incremental/outputs/foster/best_foster.ckpt (torch, 25605 bytes, 2 tensors)

head.weight f4 [11, 512]
00000000: 80b6 683d 12fa 1739 fff0 5fbd 72f6 66bd
00000010: f9ce 093e 9a9a 68bb 3417 15be d123 8bbe
00000020: 77c4 00bd 996d cf3c ef42 bcbd 1617 f63d
00000030: d117 74be ada6 8cbe 6d4e 86bc cb66 f7bd
00000040: f399 1ebe 2398 2b3e def4 613c 36a7 8f3e
00000050: 364d 9d3e d79e 55be 89d2 e73d 2acd 3c3e
00000060: c84b a33d b77e 9f3d 3f1b 333e 3625 073d
00000070: b30b 973d fd00 3e3c 3ab1 cf3d 84ce 533c
00000080: 51d1 7f3c f67f 2fbc d52e 05be 83d6 6cbd
00000090: a060 8f3d 13b7 d3bd 45d0 463e 4ff3 273e
000000a0: 041c c6bd 17b5 3e3c 391f b53d 3a3d 3a3e
000000b0: e3c2 94bd 79d4 9a3d e05b be3d b490 623c
000000c0: c548 363d 4cee 253e f252 21be 679e 0cbd
000000d0: 8a56 283e c854 453c 70a0 dcbd 031c 81bc
000000e0: 4eef f63d a74f 25bc cfb2 f33a cb52 74be
000000f0: 436d e9bd 47fa 473d 449f d6bc 369c 203b
00000100: f005 49bd 9110 2ebe f0aa 29be c6bd e63d
00000110: b2ef f5bd e9f3 99be a566 103c 47d7 3e3e
00000120: 8e0a c43c 25ef d23d 9f1c a93e cb50 40be
00000130: 9191 eb3c 77e7 4fbe 1291 ac3d af1a 313e
00000140: 6f1d 2c3c 3fdc 5d3d 384c bebd 5181 abbd
00000150: c885 d9bb a39d 19be 3929 1bbe 2798 19be
00000160: 4517 9e3d 20cb 42be 3b45 bbbd 92f8 013e
00000170: 9ad2 113e b941 a8bd 30ae 69be 27f5 3bbe
00000180: ff60 9cbe e244 b7bd ab93 1b3e 8665 b93e
00000190: 894e cd3d 2f97 1e3d d3fc fabd 82ca 1e3d
000001a0: 5443 94be d724 48be 7068 71be cdef 833c
000001b0: f2a5 4d3e 2d8e f53c e21e dfbc 8552 a1bb
000001c0: 3640 b43d aa79 4f3e 916f 363e 5330 30be
000001d0: 6ed1 e23d fa06 4bbd 3fdf fd3c 9c52 89bd
000001e0: 94d7 7b3d 82e6 bb3d b1b2 ee3d 62d4 233e
000001f0: 0795 303e eca8 ab3d 8972 84be 6c70 61bd
00000200: d65f 0e3e d6b7 08be 99a0 15be b7b4 cebc
00000210: 0e9d e83c eac4 f43d 2388 11be 3442 dd3d
00000220: 1ab6 8ebe 044b 743e 07d2 92bc 2c78 26bd
00000230: 99c9 bebd ce06 96bd f695 083d e159 03bc
00000240: ccde 933d 55cc 393e 89c0 383e e92e 9bbd
00000250: f659 0ebe bdd8 5d3c 8615 693e fcf5 f0bc
00000260: 4682 143e ea23 c63d 4a6c aebc 6bd0 7f3e
00000270: fad4 6c3e 6973 123e fdfb ab3c 20e6 dcbc
00000280: 6fdf 773e 9d8d 21bd 2105 d73c b4a1 a5bd
00000290: e83a 803d 105e 933e 33bf 5d3b cb9e 7b3d
000002a0: 2407 64bc 1069 c23d 0c7c 893d 440b 90bd
000002b0: 1dea 02be df5d 933d e545 023d 2a04 b13b
000002c0: 6052 42bd 478c 7a3e 6dba d4bd c0d8 29bd
000002d0: f2dd 523d 0db3 27be 1585 5d3d 6d41 d4bd
000002e0: be43 113e dfa9 3dbe decb a9bd 65bd 1e3e
000002f0: 9ce1 023e 3fb5 e1bd ab98 b53d 82b2 e13d
00000300: dce9 e3bd d617 70be 0058 31bd fb21 5c3d
00000310: 615d 013e dc34 e73d 2d29 debd b230 143e
00000320: 6fb6 723d 41ec 5abc b038 a4bd ca78 91be
00000330: 71ae 3f3e defa 653e 380f 053e 506a 75bd
00000340: 4038 a73c a6b5 183e e7ed 0dbd 8fa3 7d3d
00000350: 4cd5 94bc 14a8 753d 7811 28bd eaa2 c6bd
00000360: 3342 94bd fc5a 85bd c2ba 57be aa4a 1bbd
00000370: 7d25 67bd 5d50 13be d761 383d 4d9d b33d
00000380: 966b 8b3d 4e02 d23d 7558 043e 6ff7 8f3d
00000390: 8a14 193e c676 163c 32f3 62be 37bf 373e
000003a0: cab3 cb3c 4039 7b3d fcb5 923d 0e35 013c
000003b0: c410 893d 37ea ed3d b29d d1bd 98bb 4c3e
000003c0: c01f d03e 5109 05be bbf3 283d 97e4 3abd
000003d0: 03c5 9d3b d60c 6f3d abcc 72be ef7d bcbd
000003e0: 1a53 b8bb 5210 11bd a039 573c 8e1e 8d3e
000003f0: f2c7 84bd b072 7c3e cbf4 87be ee08 4c3e
0.05681467 0.0001449364 -0.05467319 -0.056387372 0.1345786 -0.003549254 -0.14559633 -0.27175763
-0.031437363 0.025320815 -0.09192454 0.12016122 -0.2383721 -0.27470914 -0.016394818 -0.12080153
-0.15488414 0.16757254 0.013791291 0.2805726 0.3072297 -0.20861374 0.11319453 0.18437639
0.079734385 0.07787841 0.17490862 0.03299447 0.07375278 0.011596915 0.10141225 0.012927655
0.01561387 -0.010711661 -0.13006146 -0.05782176 0.07000852 -0.10337653 0.19415386 0.16401409
-0.09673312 0.011639855 0.08843846 0.18187419 -0.07263734 0.07560057 0.092948675 0.013828445
0.044502992 0.16204184 -0.15754297 -0.03433075 0.16439262 0.012044139 -0.107727885 -0.015760427
0.120573625 -0.010089791 0.0018592718 -0.23859708 -0.11397793 0.048822667 -0.02619899 0.0024507171
-0.049077928 -0.16998507 -0.16569114 0.11266665 -0.12008609 -0.300689 0.008813535 0.1863681
0.023930814 0.102995194 0.3302965 -0.1878082 0.028755935 -0.2030314 0.084261075 0.17295335
0.010505064 0.05416512 -0.09291881 -0.083742745 -0.0066382624 -0.1500154 -0.15152444 -0.14999448
0.07719282 -0.19022799 -0.09144064 0.12692478 0.14240494 -0.082156606 -0.22820354 -0.18355237
-0.30542752 -0.08948685 0.1519305 0.3621027 0.10024745 0.0387184 -0.12255254 0.038767345
-0.28957617 -0.19545303 -0.23574996 0.016105557 0.20082834 0.029975021 -0.027236406 -0.004923167
0.0880131 0.20261255 0.17815997 -0.17205934 0.11075102 -0.0495672 0.030990241 -0.067052096
0.06148489 0.09174825 0.116551764 0.15998986 0.1724435 0.08381829 -0.25868633 -0.055038854
0.13903746 -0.13351378 -0.14612044 -0.025232656 0.028395202 0.11951621 -0.14212088 0.10803643
-0.27873307 0.23856741 -0.017922414 -0.04064195 -0.093157955 -0.07325517 0.03334614 -0.008017034
0.072202295 0.18144353 0.18042196 -0.07577307 -0.13901505 0.013540444 0.22762117 -0.02941417
0.1450282 0.09674819 -0.02129187 0.24981849 0.23128119 0.14301838 0.02099418 -0.0269652
0.24206327 -0.039441694 0.026247563 -0.08087483 0.062612355 0.28782701 0.0033835887 0.061430734
-0.013917718 0.09492695 0.06713113 -0.07033399 -0.1278462 0.07195639 0.031804938 0.0054021077
-0.04744184 0.24467574 -0.103871204 -0.041466475 0.051481195 -0.16376896 0.054081995 -0.103640415
0.14185998 -0.18521832 -0.08290838 0.15501936 0.12781376 -0.11020898 0.0886701 0.11020376
-0.111285895 -0.23446593 -0.043296814 0.053743344 0.12633277 0.11289379 -0.108476974 0.14471701
0.059256013 -0.013361991 -0.08018625 -0.28412467 0.18718888 0.2245898 0.12994087 -0.05991584
0.020412564 0.14913043 -0.03465071 0.06192356 -0.018168114 0.059974745 -0.041032284 -0.09699042
-0.07239189 -0.065114945 -0.21067336 -0.037913002 -0.056432236 -0.14386125 0.045015182 0.08770237
0.0680763 0.10254346 0.12924369 0.07029616 0.14949241 0.009183591 -0.22163084 0.17944036
0.024866004 0.061333895 0.07163617 0.007886184 0.06692651 0.116169386 -0.10235156 0.19993436
0.40649223 -0.12991835 0.041248064 -0.045628157 0.0048147454 0.05836185 -0.23710887 -0.092037074
-0.005625141 -0.035415955 0.013136297 0.27562374 -0.06483449 0.24653125 -0.2655395 0.19925281

head.bias f4 [11]
00000000: d810 353e 69f9 86bd 524c 15be 7bae 2ebe
00000010: 41a2 38be d234 00be 7ab4 8bbd 78fe 2bbe
00000020: 519c 22be 6c42 a4bd 6aa1 813d
0.17682207 -0.0659054 -0.14579895 -0.17058747 -0.18030645 -0.1252015 -0.068215325 -0.16796291
-0.15879942 -0.080204815 0.063296154
