feature-compress-incremental/outputs/compress32_addcls_stage1/best_incremental.ckpt (torch, 71031 bytes, 4 tensors)

mapper.weight f4 [32, 512]
000000 d3 c9 69 bd 25 84 db 3c 0f 94 74 3c 8c d0 c2 3d
       -0.05707724 0.02679641 0.014927878 0.095124334
000010 80 90 01 be 8e 99 01 bd ba 1f 12 3e d8 e5 3f 3e
       -0.12652779 -0.03164058 0.14269915 0.18740022
000020 43 74 b8 bb fe d8 84 bd d0 b2 e8 3c d5 84 4f bd
       -0.005629094 -0.064867005 0.028405577 -0.050663788
000030 36 b6 44 3d 06 b9 d0 bd ee ca 80 bd af c9 cf bd
       0.048025332 -0.101915404 -0.06288706 -0.1014589
000040 c8 6c 00 bd d0 c9 d2 bc c3 b2 be 3d 71 01 bf 3d
       -0.031353742 -0.025730997 0.0931144 0.09326447
000050 d7 b5 40 be a7 9c 84 bd 2f 4d bc bc 53 a2 66 bc
       -0.18819366 -0.064751916 -0.022986023 -0.014076787
000060 78 0d ad 3d 95 6d c9 bd 69 e4 75 bc dc 99 d4 bc
       0.084498346 -0.09835354 -0.0150080705 -0.025952272
000070 32 b4 bd bc 13 79 0d 3d a9 e2 41 3e 65 f8 db 3d
       -0.023157213 0.034539293 0.1893412 0.10740737
000080 e1 14 91 bd 5b 95 7b 3b 8b 63 60 3c 30 6e 38 bd
       -0.070840605 0.0038388583 0.013695608 -0.045026958
000090 d6 55 bf 3b 32 6c ac bd 5a 5f 42 3d 69 36 f8 3d
       0.00583909 -0.08419074 0.047454216 0.12119753
0000a0 0c af 82 3a c2 b0 be bb b8 87 07 be c3 8b f7 bd
       0.0009970381 -0.005819411 -0.13235366 -0.12087204
0000b0 51 5b b5 bd 82 78 6e bd ee ed e3 bd 72 1d ba 3d
       -0.08855308 -0.058220394 -0.11129366 0.090876475
0000c0 6c 2a 57 3e 2e e4 e8 b9 02 9e 43 3d 12 40 6f 3c
       0.21012276 -0.00044420495 0.04775811 0.014602678
0000d0 27 17 f1 3b 58 af e6 3d ca da 59 bc 93 5e 05 bd
       0.0073574963 0.11263913 -0.013296792 -0.032560896
0000e0 ae e7 80 bd 98 5c 21 3b a9 ba 1c 3e 59 1b d3 bc
       -0.062941894 0.002462184 0.1530558 -0.025769876
0000f0 d2 76 75 3c 90 18 05 bd 79 43 b5 3d 1e 95 00 be
       0.014981942 -0.032494128 0.0885076 -0.12556884
000100 9d d9 6f 3c 2a e8 0b bd 45 11 e4 3c 77 bb 9f bd
       0.014639285 -0.034156956 0.027840266 -0.07799428
000110 da 16 01 3d b2 9c a9 3c 1e c3 6c 3d e9 51 ce bd
       0.031515934 0.020704601 0.057803266 -0.10074217
000120 db f5 9a bd d6 de 2e be 00 e4 bf bd cc 21 8f bd
       -0.075664245 -0.17077193 -0.093696594 -0.06988868
000130 43 5e 0f 3d a1 a5 05 bc 61 d5 ef 3d df 6d 9c bd
       0.035002004 -0.008157165 0.11710621 -0.07638144
000140 22 7d 56 3d e1 27 85 3d f6 88 1e 3d 3a e5 8e bd
       0.05236543 0.06501747 0.038704835 -0.06977315
000150 7a f0 c4 3c dd 99 4a 3e cf fa 24 3d e8 88 a2 3d
       0.02404045 0.19785257 0.040278252 0.07936269
000160 9f 00 e9 bd 76 73 40 3d 82 8b 30 3e 8c f2 d3 3c
       -0.113770716 0.046985112 0.17240718 0.025872491
000170 48 7f 09 be a8 32 4e bd c2 3d 03 3e e7 ce 96 3d
       -0.1342746 -0.05034128 0.12816527 0.07363682
000180 25 ef 28 3d 23 f7 0e 3e f9 72 2c bd e2 ba 22 bd
       0.04124369 0.13961463 -0.042101834 -0.039729007
000190 19 01 99 3d 57 df eb 3c 3b 57 a1 bb 64 dc fd 3c
       0.074709125 0.02879302 -0.0049237288 0.03098888
0001a0 92 c6 d5 3d 1b 9a 27 3e e4 34 8d bc e3 e0 e5 3d
       0.10438265 0.1636738 -0.017237134 0.11224534
0001b0 bc f7 13 be 74 0b 1c 3c f8 19 b2 bd 52 a1 0f bd
       -0.14449972 0.009524215 -0.086963594 -0.035065956
0001c0 27 ee f1 bd dc b9 d9 3d b6 84 e9 bd db 4d a1 bb
       -0.11813002 0.10631153 -0.11402266 -0.004922611
0001d0 2f 9b 27 bd b6 5f ba 3d 3e d8 ac 3b 4d 5e 22 3d
       -0.04091948 0.09100287 0.0052748015 0.039640713
0001e0 ad ab 2f 3c 82 a4 4c bd 58 42 58 3d a5 34 4b bd
       0.010722083 -0.049961574 0.052797645 -0.049610753
0001f0 63 94 2d bd 97 ab 00 be b1 68 d8 3d ec 92 6a bb
       -0.04237784 -0.12565456 0.10566843 -0.0035793139
000200 17 6f e6 3c bd 56 d6 3d 38 e9 84 ba 8d f2 f7 bd
       0.028129144 0.10465763 -0.0010140305 -0.1210681
000210 1a c0 90 bd 4f be c1 3d 5b 3c be 3d 0d 5c 7f 3b
       -0.070678905 0.094601266 0.09288856 0.0038964779
000220 b4 17 a0 3d 89 3f 96 bd 6d c2 12 3d ea 47 5b bd
       0.07817021 -0.07336337 0.03582995 -0.05353538
000230 c0 f7 85 3d 6e 24 bf bd 65 36 8e bd 14 f0 e1 3d
       0.06541395 -0.0933312 -0.06943969 0.110321194
000240 67 de 32 3d 41 29 1f bc 42 47 62 bb f8 1b a4 3d
       0.04366913 -0.009714426 -0.0034527336 0.08013147
000250 d2 84 cd 3d 07 f7 84 bd 85 05 ff bc a0 30 c7 bd
       0.10035099 -0.06492429 -0.031130562 -0.09726071
000260 58 32 08 3e a7 36 01 3c 3d d0 27 3e 43 7d e5 bd
       0.13300455 0.007886565 0.1638803 -0.112055324
000270 64 fe 03 3e d5 38 0e 3a 7d 50 97 bd e3 84 1a bd
       0.12890011 0.0005425339 -0.07388399 -0.037724387
000280 0c 4f d9 bd f2 ac e0 3d d0 98 d9 3c ef 42 30 bd
       -0.1061078 0.10970487 0.026562124 -0.043032583
000290 c0 78 33 3d 32 cf 93 3a 2c 73 ef bd e1 98 4f 3b
       0.043816328 0.0011276959 -0.11691889 0.0031676816
0002a0 77 f3 06 3d c2 fc 12 be a5 1a 90 bd f1 ad cb bd
       0.03294703 -0.14354232 -0.07036332 -0.09945286
0002b0 66 07 c4 3d f3 a6 0d 3d 1b f5 9e 3d f1 e0 34 3c
       0.09571724 0.034583043 0.07761594 0.011039958
0002c0 78 a1 0a be a7 c4 88 bc 49 de 53 3c ba a2 28 3e
       -0.13538158 -0.016695334 0.012931415 0.16468325
0002d0 c0 ba 66 3d 32 8f d9 3d 46 9b f8 bc 55 d4 df 3d
       0.056330442 0.106230155 -0.030347478 0.10929171
0002e0 db 7e 40 3e 97 8d 15 3c 8b 9e ed 3d 40 20 2a bd
       0.18798392 0.009127996 0.11602505 -0.041534662
0002f0 70 35 30 bd a3 1b 16 3e 88 eb 9f bd db 83 09 3e
       -0.043019712 0.1465898 -0.07808596 0.13429205
000300 02 ce a2 bd 82 ef d2 3d 14 08 69 bd 38 ee 0f 3c
       -0.07949449 0.10299589 -0.05689247 0.008784823
000310 f0 4b 3c 3d 26 5f a5 3d d9 7e eb bb 6d 20 90 3d
       0.045970857 0.08074789 -0.0071867523 0.07037435
000320 cb dd 2b bd 96 09 70 be 0e 29 9a 3d f8 29 26 3e
       -0.041959565 -0.23441157 0.07527362 0.16226947
000330 a9 6f 95 bd d5 3b 50 be 74 13 68 3d e4 17 60 bb
       -0.07296688 -0.20335324 0.056659177 -0.0034193927
000340 a2 f8 d7 bd ba bc cc bd fa 16 d2 3c 4b c2 64 bc
       -0.1054547 -0.09996934 0.025645722 -0.013962339
000350 72 50 2e 3b ec 88 0b bd 65 e3 60 3e 78 01 d6 3d
       0.0026598242 -0.034066126 0.21961744 0.10449499
000360 f4 4f 93 3c 04 d1 6b 3d f8 30 93 bd 57 48 cf bd
       0.01798246 0.05757238 -0.071870744 -0.101212196
000370 06 0d f6 bc 3c 55 37 3b dd 44 7b bd 00 46 03 be
       -0.030035507 0.0027974388 -0.06134497 -0.12819672
000380 20 3f c2 3d 72 b8 bf bd 11 04 0a bd 2f af 91 3d
       0.094846964 -0.09361352 -0.033695284 0.07113492
000390 35 a5 d9 bc bb 3d 52 3d 4d 0c 83 bd 17 9f 84 bb
       -0.026568035 0.051328402 -0.063988306 -0.0040472853
0003a0 44 ff be 3c 42 3f 89 be 86 e2 c6 bd fa 84 79 bd
       0.02331508 -0.26806074 -0.09711175 -0.060917832
0003b0 23 5e 2f bc b0 0b 9d bd cd db aa 3c ee 27 99 bd
       -0.010703596 -0.07668245 0.020856762 -0.07478319
0003c0 78 79 84 bd ba c0 83 3d 13 4e d6 3d c1 e7 df bd
       -0.06468481 0.06433244 0.1046411 -0.109328754
0003d0 32 a5 66 bd 93 fb eb bd 74 8d c7 bd b0 55 f3 bd
       -0.056309886 -0.11522593 -0.09743777 -0.11881578
0003e0 35 1b e1 bd 3f 51 3a bd 26 38 a7 3d 43 9c 88 bd
       -0.109915175 -0.04548764 0.08165006 -0.066704296
0003f0 21 97 14 bd 55 e3 4d 3d e2 71 77 3d 14 50 c9 bd
       -0.03627694 0.05026563 0.06041134 -0.09829727

mapper.bias f4 [32]
000000 4c d5 e5 bc 75 5c 6c 3d 16 4f 83 bd de 38 53 3d
       -0.02805581 0.05770536 -0.06411569 0.051567905
000010 f7 bc 6c bd ea 28 83 bd 4e 82 9c 3d dc f3 a9 bd
       -0.0577974 -0.06404288 0.07642041 -0.082984656
000020 ad 85 40 3d de d3 5c 3d 5d 51 18 bd 28 7d 23 bc
       0.047002483 0.05391299 -0.03718697 -0.00997857
000030 8e 9f dc bc 6e 9e cc bd 88 be c2 3d 08 9e 4a bc
       -0.02693155 -0.099911556 0.09508997 -0.012366779
000040 33 26 94 bd 3b b5 32 bb 5e 8b 82 3d e4 d1 b7 3b
       -0.072338484 -0.0027268666 0.063742384 0.0056097377
000050 73 12 fd 3c 8e 1e 62 3d 57 b3 19 3d ac 65 85 bd
       0.030892586 0.05520492 0.037524547 -0.06513533
000060 dd 6e 15 3c 85 ed 64 3d ae 7c 74 3d 8b 83 85 3d
       0.00912067 0.05589058 0.059689216 0.065192305
000070 1a 72 94 3d 33 01 42 bd 93 12 00 3d 22 7b b4 3d
       0.07248326 -0.047364425 0.031267714 0.08812548

head.weight f4 [11, 32]
000000 a6 9b 49 be f7 85 73 3e b7 8f 3b be 3a 03 14 3e
       -0.19688281 0.23781572 -0.18316542 0.14454356
000010 e9 75 71 bc 06 96 14 be 67 ad 97 3e d8 d0 c4 bd
       -0.014737585 -0.14510354 0.29624483 -0.09610146
000020 24 df 8b 3d 11 89 86 3e 39 99 5e be c9 e8 41 3e
       0.0682967 0.26276448 -0.21738137 0.18936457
000030 b4 d6 26 be b4 38 45 be 09 03 18 3e 30 ce 14 be
       -0.1629284 -0.19259912 0.14844908 -0.1453178
000040 24 ac 3e be fc 2e 20 be a1 a6 25 3e 0a 75 50 3d
       -0.18620354 -0.15642923 0.16176845 0.050892867
000050 9b 4a 64 3d 05 69 2d 3e d4 2c ca 3d 1f 6a 48 be
       0.05573521 0.16934593 0.098718315 -0.19571732
000060 fe 19 5d 3a 37 39 43 3e ff c8 04 3e 55 ae 90 3d
       0.0008434354 0.19064794 0.12967299 0.07064501
000070 44 c7 59 3e a2 e1 da bd 3f 18 6d 3e c8 7e 7a 3e
       0.2126742 -0.10687567 0.2315378 0.24462426
000080 4c fb bd 3e f7 bb 4f 3d be f9 35 3e a2 26 ee 3d
       0.37105787 0.050716367 0.1777105 0.116284624
000090 fb 52 99 be 53 1f 09 3c 6f ca 0b be ae a2 43 bd
       -0.29946122 0.008369285 -0.13651441 -0.047762565
0000a0 4c 46 d7 bd 50 83 65 bd f8 fc 1c be 9b 89 23 be
       -0.10511455 -0.056033432 -0.15330875 -0.15970461
0000b0 a6 ae 30 3e b6 62 97 3e 6d d3 31 be 7c 4c 51 be
       0.17254123 0.29567498 -0.17365809 -0.20439333
0000c0 62 45 73 bd d7 4c a1 bd 82 d6 a3 be 0f 18 8a 3e
       -0.05939234 -0.07875984 -0.31999594 0.2697148
0000d0 9b f4 6e 3e b1 ea 40 3e 86 64 15 be 38 60 b6 bd
       0.23335497 0.18839528 -0.14589128 -0.08905071
0000e0 6f f6 a3 3e 99 9b 13 be b3 75 93 be c3 44 9a be
       0.3202395 -0.14414825 -0.28800735 -0.30130586
0000f0 87 90 ee 3d bb 5f 56 bd 36 9e 2c be b0 6a 6f 3e
       0.1164866 -0.05233739 -0.16857228 0.23380542
000100 63 7e a5 bd 1a e5 1e be d3 32 33 3e 60 73 e5 3d
       -0.08080747 -0.15517083 0.17499857 0.11203647
000110 33 c7 b7 3e fd a1 33 3e 62 fb 35 3e 40 ab d2 bc
       0.35894164 0.17542262 0.17771676 -0.025716424
000120 cd 78 d7 bd 3b 17 23 bd 7b 4b 98 3e 8d cd 80 3d
       -0.10521088 -0.039817076 0.29745087 0.06289206
000130 8e 02 04 3d 5d ca 83 3b 80 a1 a0 bb 4e ec b4 be
       0.032229 0.0040219263 -0.004902065 -0.35336536
000140 0e f2 ca 3e b1 0a 86 3e 60 81 08 3e 95 54 81 bd
       0.39637798 0.26180032 0.13330603 -0.06314961
000150 03 3f ba be 08 d2 78 be bd 55 94 be be 1a 8c 3d
       -0.363762 -0.2429887 -0.28971663 0.06841038
000160 8c 3e 8d 3e fd 37 a1 bd 92 48 9f 3e f8 8c 7b be
       0.27586782 -0.07872007 0.31110054 -0.24565494
000170 7e c2 4c be b4 2a 35 be 05 a3 ff 3d 8d 19 8e 3d
       -0.19996068 -0.17692071 0.124822654 0.06938467
000180 84 c0 6b 3e 1d e9 91 3e 1d 37 88 3e 5c 1c 75 be
       0.23022658 0.28498164 0.26604548 -0.239366
000190 eb 4b 1a ba df 4a c3 3e a1 36 7e 3e 8e b7 f9 3d
       -0.00058859464 0.3814306 0.24825527 0.121932134
0001a0 97 61 82 be 24 3c d8 bd 04 cf a8 3e 3c b9 7e bd
       -0.2546508 -0.10558346 0.3297044 -0.062188372
0001b0 b6 f4 93 3d d3 de 26 bb 9a ea de bd 09 ee 51 3e
       0.07224409 -0.0025462403 -0.108845904 0.2050096
0001c0 cc ef a3 3e 50 44 fc 3c 9d 9f 40 3d 47 12 4e 3d
       0.32018888 0.030794293 0.04702722 0.0503104
0001d0 48 c4 4a be 7c af c1 bd 1d 8d d5 3d 05 12 a1 3e
       -0.19801438 -0.09457299 0.10427306 0.3145906
0001e0 d5 9e 5c be 77 ce 41 3e 95 ee 38 3d 0f 1e f8 3d
       -0.21544965 0.18926416 0.045149405 0.12115108
0001f0 16 e9 9c be ce cc 8e 3e 15 cc 3d 3e 6b 24 a6 3d
       -0.3064658 0.2789063 0.18534882 0.08112415
000200 1b 16 2c 3d 63 f7 20 3d c9 d6 38 be da 42 c1 be
       0.04201327 0.039298426 -0.18050684 -0.37746316
000210 92 33 cc 3e f3 0b 39 be 3d 6d 42 be a6 a3 2d be
       0.39883095 -0.18070965 -0.18986984 -0.16956958
000220 18 b2 ff be 8d c1 43 be 96 96 0f 3e e4 9d 5e be
       -0.49940562 -0.19116803 0.14022288 -0.21739918
000230 67 5d 60 be 21 d5 3e be 46 8d 0b 3c b5 c9 58 3d
       -0.2191063 -0.1863599 0.008517569 0.052926738
000240 3f 0c bc 3e b6 78 4d be e1 89 9f be 17 39 2e be
       0.36728093 -0.20065579 -0.3115988 -0.17013966
000250 59 bd a9 3e 0a 84 78 3e 61 f2 0b be f3 55 ac bd
       0.33152273 0.24269119 -0.13666679 -0.08414831
000260 b1 a7 d5 bc 6b a2 84 bd 7a 2c 07 3e 61 32 91 be
       -0.026080938 -0.06476291 0.1320056 -0.2835875
000270 e4 f0 bf 3b d3 6e 92 3d 47 7d a3 3d 57 5c d1 be
       0.005857574 0.07150044 0.07982879 -0.40890762
000280 f3 08 ee 3d 18 f2 1d be 3a f4 98 3c 6b 0e 79 3e
       0.11622801 -0.15424383 0.018671144 0.24321906
000290 36 cb 1b bd a5 95 8c 3e 7a f8 55 be ba 2b e6 3e
       -0.038035594 0.2745792 -0.20895568 0.44955236
0002a0 aa 40 2c 3e 41 ce 76 be 55 74 2c 3e 63 f6 0d 3e
       0.16821542 -0.24102117 0.16841252 0.1386352
0002b0 f5 04 4b 3e a5 04 ae bd 2c 1f c1 bd 33 f5 56 3b
       0.1982611 -0.084969796 -0.09429774 0.0032799959
0002c0 12 0e d0 bb 1f fe 60 3e b0 9a 85 3d cc 13 19 3e
       -0.0063493336 0.2197194 0.06523645 0.14948958
0002d0 90 86 b8 3b d3 78 48 3e 89 aa 94 be e9 f4 9c be
       0.0056312755 0.19577341 -0.29036358 -0.30655602
0002e0 8b 20 b3 be 12 28 2e bd 34 1c dd 3d 4d 25 60 3e
       -0.34985766 -0.042518683 0.10796395 0.21889229
0002f0 bb 29 52 3e 55 e8 0d be 5b ff 46 be 23 72 71 be
       0.20523731 -0.13858159 -0.19433348 -0.23578696
000300 5c 87 3c be d3 68 c5 be 36 02 6b be b3 f7 4a be
       -0.1841101 -0.38556537 -0.22950062 -0.19821052
000310 31 18 36 3d 5c f7 f7 bc 2d c5 31 be 27 01 02 3e
       0.044456664 -0.030269317 -0.17360373 0.12695752
000320 1d 66 e6 3d 56 ad a6 be 5b b3 63 be d4 a1 8e be
       0.11249945 -0.3255412 -0.22236387 -0.2785784
000330 25 b9 b4 3e aa c3 1c 3e 6b 3e b7 be fa 89 f6 bd
       0.35297504 0.15309015 -0.3578981 -0.12038036
000340 cd 3a d9 3d 6c d9 2d bd 74 3d 12 3e 1f 3a 82 3e
       0.106069185 -0.042443678 0.14281255 0.25434968
000350 cc e6 0a 3e 53 05 99 bd 5c b1 c7 3d 13 92 9d 3d
       0.13564605 -0.07471719 0.097506255 0.07693877
000360 aa 97 e7 3d db 6a 81 bd 20 0f b3 be f4 60 27 3e
       0.113082245 -0.06319209 -0.34972477 0.16345578
000370 01 6b 22 3e 95 f6 94 3e 76 94 1a bd 0d b3 25 3e
       0.15861131 0.29094377 -0.03773924 0.16181584
000380 d0 d3 4b be 00 cb 12 be 4d 50 40 be 95 a5 a4 3e
       -0.19905019 -0.14335251 -0.18780632 0.3215758
000390 7f cb 80 3d c8 67 93 bd 70 04 6f 3e ca 77 8c 3e
       0.06288814 -0.07197529 0.23341537 0.27435142
0003a0 70 67 87 be f3 aa 81 3e ff 68 5c bc 6a b3 17 be
       -0.26446104 0.25325736 -0.013452767 -0.14814535
0003b0 d4 66 e8 bc d3 4b 0b 3e 13 63 c7 be 64 c9 f3 3d
       -0.028369345 0.13603143 -0.38942775 0.119036466
0003c0 00 31 53 be e4 81 89 bd 32 f1 5a be 4e 75 bf be
       -0.20624161 -0.06714228 -0.21381071 -0.37394184
0003d0 ed 11 1d bd 21 9c 41 3c b6 2f 4e be 5e db d4 3d
       -0.038347173 0.011817009 -0.20135388 0.103934035
0003e0 ba 36 8e be 07 19 b4 be 92 e1 d4 be 01 5f 98 be
       -0.27776128 -0.35175344 -0.41578346 -0.29759982
0003f0 63 0a b6 be 58 35 4f 3e 5f 88 36 3e 35 7f 0f 3e
       -0.355548 0.20235193 0.17825459 0.1401337

head.bias f4 [11]
000000 88 30 98 bc 0c eb 19 3e cf 1d cd bd 4d 6d 5d be
       -0.018577829 0.1503107 -0.10015451 -0.21623726
000010 05 fa 35 be 98 6a b5 bd 01 39 5e 3d 87 95 dd bc
       -0.17771156 -0.08858222 0.054253582 -0.02704884
000020 73 cc 61 be 13 e3 79 39 e3 6b a1 3d
       -0.22050647 0.00023831082 0.07881906
