feature-compress-incremental/outputs/finetune_replay/last_finetune.ckpt (torch, 25557 bytes, 2 tensors)

head.weight f4 [11, 512]
000000 f8 e3 b8 3d cb ef 25 bd 7c 1d 98 bd f4 9a 6e bd
       0.090278566 -0.040511888 -0.07427499 -0.058253244
000010 e4 1d f1 3d d0 57 2c 3d 74 43 07 be 3b b7 8a be
       0.11773279 0.042075932 -0.13209325 -0.2709292
000020 b5 00 c0 bb 0a 72 b5 bb 38 f5 e5 bd 05 f1 08 3e
       -0.0058594593 -0.005537276 -0.112284124 0.13373192
000030 60 5e 84 be f4 cc 83 be fd a2 2f bd f6 73 c6 bd
       -0.25853252 -0.25742304 -0.042880047 -0.096900865
000040 27 16 07 be fe c4 0f 3e 74 0a 4d bc 5f b3 8d 3e
       -0.13192044 0.1403999 -0.012514699 0.27675912
000050 00 a6 96 3e ee ff 66 be 74 06 5c 3d 74 89 50 3e
       0.29423523 -0.22558567 0.05371709 0.20364934
000060 60 34 e1 3d ca 61 86 3d 05 74 44 3e 72 e4 9d 3c
       0.10996318 0.065616205 0.19184883 0.01927397
000070 c0 e3 02 3e 71 1c 90 3c 61 ec 93 3d 72 a2 bd 3c
       0.12782192 0.017591687 0.0722282 0.023148749
000080 45 7b 94 3c 00 c0 b3 3c 88 9a 10 be dd fc b6 bd
       0.018125186 0.021942139 -0.14121449 -0.089349486
000090 15 44 0a 3d d5 68 f2 bd 2e 9d 3f 3e 7b 34 fa 3d
       0.033756334 -0.118364014 0.18712303 0.12217041
0000a0 0a 18 f3 bd 0c c2 95 3d 3e 49 d7 3d 94 71 3b 3e
       -0.118698195 0.07312402 0.10512017 0.18305045
0000b0 8f 8c 9a bd 0b 71 81 3d 3f b4 a7 3d cc 18 12 bd
       -0.07546341 0.06320389 0.08188676 -0.03566818
0000c0 10 cf c6 3c 7c 85 2a 3e b1 d3 15 be 46 9f 7b bc
       0.024268657 0.16652483 -0.14631535 -0.015357798
0000d0 69 e2 26 3e 1f 50 3b 3d 90 52 0e be 78 78 b2 3c
       0.16297306 0.045730706 -0.13898683 0.02178596
0000e0 68 98 ed 3d b1 2c 08 bd 25 6e ac 3c 9f e4 77 be
       0.11601335 -0.033245746 0.021048615 -0.24208306
0000f0 91 39 c7 bd f4 70 c9 3c 0b 81 d2 bb fa ec 16 3d
       -0.09727777 0.024589993 -0.0064240745 0.036847092
000100 be 93 14 bd 67 ed 20 be 6b 2b 17 be d8 b6 da 3d
       -0.03627371 -0.15715562 -0.14762656 0.10679406
000110 6e af 0f be e9 e5 94 be 1e 46 7f 3c 02 e8 23 3e
       -0.14031765 -0.29081658 0.015580682 0.16006473
000120 41 88 57 3c a0 a3 e3 3d 24 ea c8 3e c3 ea 20 be
       0.013155044 0.11115193 0.39241135 -0.15714554
000130 ac 4d 13 bc 8c b8 1a be 73 84 c3 3d b2 85 16 3e
       -0.008990686 -0.15109462 0.09546747 0.14699438
000140 f0 e0 62 bc 73 5d 16 3d b8 c3 a2 bd c9 44 d5 bd
       -0.013847575 0.036710214 -0.07947487 -0.1041351
000150 c5 10 d1 3c 19 c7 06 be 68 92 0d be 16 88 16 be
       0.025520692 -0.13161887 -0.13825381 -0.1470035
000160 89 e1 db 3d cf a2 65 be 11 07 f5 bd 34 8c a5 3d
       0.10736377 -0.22425388 -0.119642384 0.08083382
000170 74 ff 07 3e 25 e0 88 bd bf bd 87 be 1b 24 2f be
       0.13281041 -0.06683377 -0.26511952 -0.17103617
000180 7c 1f a1 be 13 44 9d bd 84 83 0e 3e 5f 22 c1 3e
       -0.31469333 -0.07679 0.13917357 0.37721536
000190 d3 19 02 3e 5b 4e 66 3d 99 70 fe bd 1c 86 57 3d
       0.12705164 0.05622707 -0.1242382 0.05261813
0001a0 c2 61 87 be 33 99 79 be c4 e7 67 be 7e 8c b7 bc
       -0.2644177 -0.24374847 -0.22647005 -0.02240586
0001b0 5a d8 5a 3e f9 8b 86 3b 43 1c 38 bd 7e 17 d5 3c
       0.21371594 0.0041060415 -0.044948827 0.026012179
0001c0 70 48 c5 3d c3 8d 5e 3e e5 fa 25 3e 54 1a 36 be
       0.09632957 0.21733765 0.1620899 -0.17783481
0001d0 4c 2f cc 3d 73 21 87 bd 57 cb 02 3d 51 ee 48 bd
       0.09969959 -0.06598177 0.0319322 -0.0490554
0001e0 5d 95 f5 3c 27 8d e8 3d e1 97 00 3e 33 4d 19 3e
       0.029978449 0.11355048 0.12557937 0.14970855
0001f0 ac 5c 3b 3e 2f 3d 74 3d 22 c7 90 be 7c 66 d7 bd
       0.1829707 0.05962866 -0.28276926 -0.10517594
000200 48 27 31 3e 73 dc f5 bd 25 48 19 be d5 4e 62 bd
       0.17300141 -0.12004938 -0.14968927 -0.05525096
000210 9e 1d 8c 3d 3c a6 ff 3d fc 57 36 be 3a 60 90 3d
       0.068415865 0.124828786 -0.17807001 0.07049604
000220 80 98 90 be 14 98 6a 3e 62 b8 5c bc db 68 72 bc
       -0.28241348 0.22909576 -0.013471695 -0.014795507
000230 51 cc 43 bd 0c 5a b9 bc 03 55 12 3d b2 ae 87 3c
       -0.047802273 -0.022625946 0.035725605 0.016562793
000240 a7 2b 65 3d 08 98 39 3e 64 f7 5a 3e fb 73 ed bd
       0.055949833 0.18124402 0.21383435 -0.11594387
000250 84 04 35 be 65 a5 e6 bb 78 82 7d 3e 9a d0 b2 bc
       -0.17677504 -0.0070387595 0.24756801 -0.021827985
000260 d3 2b d6 3d 9b 3b cc 3d d2 ea d2 bc f0 0e 8d 3e
       0.104575776 0.09972306 -0.025746737 0.2755046
000270 15 cb 64 3e c1 d2 16 3e f5 20 2f 3d 24 6f 8e bc
       0.22343095 0.14728834 0.04275604 -0.01738698
000280 a1 de 81 3e f8 72 6b bc 0c f3 f6 3b 44 65 a9 bd
       0.25365165 -0.014370672 0.0075362977 -0.08271268
000290 80 9a 8a 3d a0 27 96 3e 30 b8 ba 3b 8e 7d 3e 3b
       0.0676775 0.29327106 0.0056982264 0.0029066536
0002a0 01 d7 1a bd d9 27 98 3d cd 02 26 3d 18 f1 b5 bd
       -0.0378027 0.07429475 0.040530015 -0.088838756
0002b0 82 03 cd bd e4 d3 d0 3d 6d 59 d7 3c a6 11 1f 3d
       -0.10010435 0.10196665 0.026287759 0.03883519
0002c0 a4 b4 1f bd 84 5b 6d 3e f7 31 04 be 05 4b 65 bd
       -0.03899063 0.23179442 -0.12909685 -0.055979747
0002d0 f7 66 88 3d 9d ff 1a be 05 52 b1 3c a8 b0 b4 bd
       0.06660264 -0.15136571 0.021645555 -0.08822757
0002e0 48 76 0f 3e 82 26 3d be 9f b8 9e bd f6 72 f7 3d
       0.14009964 -0.18471721 -0.077500574 0.12082474
0002f0 dc 62 00 3e 7f 40 d3 bd 86 ac 04 3e 5d 96 aa 3d
       0.12537712 -0.10315036 0.12956437 0.08329461
000300 8a 98 db bd 6f c1 4a be 03 8b 60 bd 00 ae 0e 3d
       -0.10722454 -0.19800352 -0.054820072 0.034833908
000310 ce cf d7 3d f0 4f eb 3d fc c6 8d bd c9 b1 e2 3d
       0.105376825 0.11489856 -0.06922719 0.11069066
000320 56 e6 d0 3d 67 a5 d0 3c be 5a 90 bd ae 49 98 be
       0.10200183 0.025469495 -0.07048558 -0.29743713
000330 09 23 42 3e bf f8 47 3e 30 27 e7 3d e9 50 cb bd
       0.18958677 0.19528483 0.11286771 -0.09927542
000340 44 5f 84 3c f4 e5 26 3e a6 49 50 bc d5 94 65 3d
       0.016158707 0.16298658 -0.012712872 0.05605014
000350 c0 94 17 bd 73 ad b7 3d bb 7d 4a bb 0a 64 dd bd
       -0.037007093 0.0896863 -0.0030897695 -0.108100966
000360 b5 61 67 bd f1 b7 8d bd fb 97 32 be d3 4a 87 bd
       -0.056489665 -0.0691985 -0.17440788 -0.066060685
000370 bc 63 95 bd 02 23 c2 bd 4b 63 17 3d f5 07 e5 3d
       -0.072944134 -0.094793335 0.036959928 0.11183158
000380 23 bc 7d 3d e9 4e ae 3d c7 8e 02 3e 69 d3 90 3c
       0.061947 0.08511145 0.12749778 0.017678933
000390 a3 64 24 3e 9f 8e 52 3c f8 76 55 be 1a 79 2c 3e
       0.16054015 0.012851386 -0.20846164 0.16843072
0003a0 05 41 b5 3d b4 39 82 3d ce f7 c5 3d a7 0f 4d 3b
       0.08850292 0.06358662 0.096664056 0.0031289847
0003b0 b3 38 84 3d ee ef 18 3e 6c 3b c9 bd 7f c9 4e 3e
       0.06456127 0.14935276 -0.09825787 0.20194052
0003c0 34 81 d2 3e 85 a9 13 be 4e e8 68 3d 82 a1 43 bd
       0.411142 -0.14420135 0.056862168 -0.047761448
0003d0 02 83 5f bd e8 5e ad 3d 76 12 70 be 29 cd 9f bd
       -0.0545683 0.084653676 -0.23444542 -0.07802803
0003e0 81 b4 ae bc ec 4c a5 bd c4 db 40 3d f3 c3 83 3e
       -0.021326305 -0.08071312 0.047084585 0.25735435
0003f0 cc 6a eb bd ce 3a 62 3e 93 9b 9c be 4a 23 6e 3e
       -0.11494979 0.22092745 -0.30587444 0.23255649

head.bias f4 [11]
000000 c8 e4 19 3e d1 e5 96 bd d4 72 eb bd 23 d3 43 be
       0.1502868 -0.07368053 -0.11496511 -0.19123511
000010 9d 13 33 be 0f 4d 3b be de fc 92 bd ad b6 f5 bd
       -0.1748795 -0.18291114 -0.07177137 -0.11997733
000020 43 30 ec bd 6d c3 f2 bd 36 e7 61 bb
       -0.11532643 -0.11853681 -0.0034470088
