feature-compress-incremental/outputs/compress32_initial/best.ckpt (torch, 70527 bytes, 4 tensors)

mapper.weight f4 [32, 512]
-0.079354614 0.049835112 0.037617803 0.07330132 -0.10747264 -0.008945363 0.11884472 0.16476746
-0.028309612 -0.041602533 0.009385816 -0.046663906 0.026338464 -0.08025109 -0.04461523 -0.12349794
-0.04942838 -0.0024200287 0.10959876 0.0732325 -0.20940763 -0.042686265 -0.0072226548 0.0053762123
0.10221107 -0.075407885 -0.033792637 -0.002987397 -0.043398455 0.04116426 0.16648032 0.084917106
-0.048075117 0.026148204 0.036714878 -0.021934997 -0.014721995 -0.06383598 0.026822824 0.0984765
-0.00900144 -0.024683628 -0.11028903 -0.10142692 -0.06594801 -0.05024128 -0.12538016 0.11254773
0.18772775 0.021511227 0.069821514 -0.008678315 -0.015069233 0.13572809 0.009619724 -0.0098695345
-0.05470147 -0.008940024 0.17516655 -0.047764216 0.0014535512 -0.009705828 0.10894212 -0.108155
-0.0074217417 -0.05612729 0.039865166 -0.055149365 0.008200791 -0.0014780812 0.034932572 -0.094483525
-0.09783242 -0.15049367 -0.11559727 -0.092555486 0.052387074 -0.031234628 0.094267994 -0.0532902
0.029568395 0.043693997 0.016841661 -0.091921486 0.0011212269 0.17473648 0.022106584 0.05704691
-0.13639821 0.024317894 0.15114126 0.043683175 -0.15161887 -0.072455764 0.1503519 0.09587299
0.06404793 0.13083221 -0.06270039 -0.023575734 0.08589727 0.046148296 -0.028000511 0.05229615
0.12608232 0.15500604 -0.03865113 0.08979631 -0.123014435 0.03173452 -0.06438303 -0.0122233275
-0.113235414 0.1290169 -0.13602272 0.016950011 -0.019681454 0.11273381 -0.013066649 0.016824279
0.03331133 -0.028628366 0.076089635 -0.0716551 -0.019336497 -0.10327585 0.08299107 0.0194972
0.0053585814 0.123315424 0.021741148 -0.10458861 -0.047952596 0.11728556 0.06962552 -0.016677607
0.056794982 -0.050715905 0.059077866 -0.07571598 0.08646912 -0.071080774 -0.09068554 0.12806268
0.0659855 -0.027172638 -0.025744561 0.058690164 0.0802885 -0.08711395 -0.008000801 -0.08442384
0.11958911 0.029637957 0.14134997 -0.13257965 0.10580721 -0.022176886 -0.096969895 -0.014634324
-0.082848206 0.08671243 0.0042837965 -0.019807322 0.020677274 0.023316111 -0.09603436 0.026562477
0.011464345 -0.13117127 -0.046927344 -0.076691225 0.074370906 0.012461005 0.054682396 0.031242225
-0.11450616 -0.007019958 0.035431005 0.18689348 0.067540795 0.084562674 -0.052903157 0.08917833
0.16571033 -0.013063356 0.09418749 -0.018513495 -0.054596845 0.12606856 -0.058905914 0.12510213
-0.10189326 0.1244879 -0.034063276 0.01471518 0.06865312 0.05878291 -0.029747639 0.08234089
-0.06193761 -0.22001314 0.05583249 0.13948779 -0.08330183 -0.1824949 0.07967822 0.018692372
-0.12425622 -0.122395925 0.048277747 0.0072274706 0.024578704 -0.03339093 0.1966946 0.12102741
0.040721007 0.035604365 -0.049919147 -0.078097396 -0.008979709 -0.015993344 -0.08432283 -0.14914449
0.11758101 -0.07170027 -0.04417447 0.04898189 -0.049758293 0.03051944 -0.086041965 0.019179812
0.00065189047 -0.24550818 -0.119366296 -0.037777502 0.007570181 -0.0975701 0.042749256 -0.05205048
-0.08686442 0.08727105 0.11833461 -0.087454036 -0.03335406 -0.09348162 -0.07590481 -0.09790486
-0.13237372 -0.066976726 0.05916049 -0.043336812 -0.059519496 0.027898237 0.06630856 -0.12118028
00000000: ac84 a2bd e71f 4c3d 2015 1a3d 011f 963d
00000010: 9e1a dcbd 928f 12bc dc64 f33d cdb8 283e
00000020: 8fe9 e7bc 6b67 2abd f7c6 193c a722 3fbd
00000030: c3c3 d73c af5a a4bd 76be 36bd 7dec fcbd
00000040: 6a75 4abd 5899 1ebb 5175 e03d ecfa 953d
00000050: f46e 56be cbd7 2ebd 05ac ecbb f02a b03b
00000060: 0a54 d13d 736f 9abd 266a 0abd 34c8 43bb
00000070: 94c2 31bd db9b 283d d179 2a3e 05e9 ad3d
00000080: 6aea 44bd c234 d63c 5762 163d 06b1 b3bc
00000090: 8634 71bc 70bc 82bd 8abb db3c 0cae c93d
000000a0: c77a 13bc 5235 cabc 37df e1bd ebb8 cfbd
000000b0: c00f 87bd cdc9 4dbd a863 00be 6d7f e63d
000000c0: b43b 403e 5038 b03c 95fe 8e3d 7e2f 0ebc
000000d0: f2e4 76bc 4efc 0a3e 0c9c 1d3c d4b3 21bc
000000e0: a60e 60bd 2e79 12bc dc5e 333e 69a4 43bd
000000f0: 1685 be3a 3105 1fbc 0c1d df3d 5e80 ddbd
00000100: 1532 f3bb bbe5 65bd a849 233d 4de4 61bd
00000110: 9c5c 063c 2dbc c1ba 7515 0f3d 9480 c1bd
00000120: 5d5c c8bd 031b 1abe 43be ecbd bb8d bdbd
00000130: d493 563d c3df ffbc 940f c13d d346 5abd
00000140: 6b39 f23c 7af8 323d 86f7 893c 5541 bcbd
00000150: 22f6 923a 1fee 323e de18 b53c 05aa 693d
00000160: f9ab 0bbe 5236 c73c c6c4 1a3e 21ed 323d
00000170: fa41 1bbe b063 94bd d9f5 193e 0f59 c43d
00000180: 902b 833d e1f8 053e 1069 80bd e621 c1bc
00000190: e8ea af3d ff05 3d3d 5461 e5bc 7d34 563d
000001a0: b91b 013e e7b9 1e3e a650 1ebd 21e7 b73d
000001b0: feee fbbd 0efc 013d 40db 83bd 5a44 48bc
000001c0: f8e7 e7bd 021d 043e 8a49 0bbe c0da 8a3c
000001d0: 003b a1bc fce0 e63d 8015 56bc 12d3 893c
000001e0: 7671 083d 0986 eabc e2d4 9b3d e9bf 92bd
000001f0: 9367 9ebc 4a82 d3bd 39f7 a93d 98b8 9f3c
00000200: 0a97 af3b cc8c fc3d 7e1a b23c 8e32 d6bd
00000210: f169 44bd 6933 f03d d397 8e3d 7a9f 88bc
00000220: dba1 683d 7bbb 4fbd a2fb 713d fb10 9bbd
00000230: b916 b13d cc92 91bd 57b9 b9bd dd22 033e
00000240: 6823 873d 2799 debc 42e6 d2bc 1965 703d
00000250: 4c6e a43d cc68 b2bd cb15 03bc 68e6 acbd
00000260: 23eb f43d 4dcb f23c 0cbe 103e f6c2 07be
00000270: 73b1 d83d 4dac b5bc 2798 c6bd cec4 6fbc
00000280: 52ac a9bd 4996 b13d 175f 8c3b f742 a2bc
00000290: 6363 a93c 6e01 bf3c aaad c4bd 8d99 d93c
000002a0: f3d4 3b3c c351 06be e336 40bd 4a10 9dbd
000002b0: c64f 983d 3e29 4c3c a6fa 5f3d b2ef ff3c
000002c0: 3582 eabd ad07 e6bb 1a20 113d 0161 3f3e
000002d0: d452 8a3d 322f ad3d fbb0 58bd 21a3 b63d
000002e0: f8af 293e b007 56bc 5fe5 c03d 9da9 97bc
000002f0: f1a0 5fbd 1e18 013e 5447 71bd c61a 003e
00000300: 6aad d0bd 83f3 fe3d ef85 0bbd f017 713c
00000310: 029a 8c3d 59c6 703d 52b1 f3bc 57a2 a83d
00000320: 4bb2 7dbd 204b 61be 9cb0 643d e3d5 0e3e
00000330: 269a aabd f1df 3abe 562e a33d bf20 993c
00000340: 0c7a febd b7aa fabd e3be 453d 6bd4 ec3b
00000350: 4759 c93c eec4 08bd 4f6a 493e 38dd f73d
00000360: 12cb 263d e2d5 113d 0578 4cbd 87f1 9fbd
00000370: a11f 13bc 7904 83bc 73b1 acbd 55b9 18be
00000380: 50ce f03d 97d7 92bd 4af0 34bd 3ca1 483d
00000390: 5acf 4bbd e803 fa3c c536 b0bd fb1e 9d3c
000003a0: a1e3 2a3a 7f66 7bbe 5176 f4bd 95bc 1abd
000003b0: 480f f83b d5d2 c7bd d819 2f3d e232 55bd
000003c0: f9e5 b1bd 2abb b23d 6a59 f23d 1a1b b3bd
000003d0: 449e 08bd 4b73 bfbd fb73 9bbd 5882 c8bd
000003e0: fa8c 07be 182b 89bd 4552 723d f181 31bd
000003f0: b7ca 73bd d88a e43c c8cc 873d 5e2d f8bd

mapper.bias f4 [32]
-0.05118199 0.0337889 -0.08292405 0.07410028 -0.078463756 -0.08114757 0.08304784 -0.09732214
0.025845155 0.06785298 -0.052140646 0.0075710313 -0.047849417 -0.075819835 0.0710993 -0.03219853
-0.047435567 -0.01688578 0.039975062 0.026614567 0.047305238 0.0761467 0.057553858 -0.087616324
0.02871484 0.07751713 0.036553167 0.041940793 0.09180888 -0.069022976 0.0483589 0.08139041
00000000: 35a4 51bd 3b66 0a3d 16d4 a9bd e3c1 973d
00000010: 9bb1 a0bd b230 a6bd fc14 aa3d d550 c7bd
00000020: 38b9 d33c 81f6 8a3d 6e91 55bd 6a16 f83b
00000030: c0fd 43bd 6e47 9bbd 839c 913d 9be2 03bd
00000040: cc4b 42bd 0c54 8abc e4bc 233d cb06 da3c
00000050: 23c3 413d cdf2 9b3d 98bd 6b3d 3070 b3bd
00000060: 623b eb3c 4dc1 9e3d c6b8 153d 1cca 2b3d
00000070: 4b06 bc3d eb5b 8dbd fb13 463d 04b0 a63d

head.weight f4 [10, 32]
-0.190657 0.26201963 -0.201637 0.14165655 -0.03128619 -0.16336645 0.27453777 -0.11387731
0.090517975 0.27512285 -0.23612991 0.20697135 -0.17888612 -0.21572521 0.17153382 -0.16356191
-0.20912676 -0.17498773 0.18511768 0.06915882 0.075024955 0.188513 0.11613468 -0.21396412
0.016577331 0.20669246 0.15381554 0.093913116 0.23126262 -0.119995356 0.24287389 0.2655066
0.39434958 0.06879993 0.16470881 0.092367165 -0.3193841 -0.007258048 -0.15784307 -0.063244596
-0.082028694 -0.07909063 -0.1720036 -0.1585343 0.18587148 0.27186164 -0.15053067 -0.22273389
-0.0829585 -0.096156955 -0.30000272 0.28946054 0.2531739 0.20763192 -0.13521795 -0.10613849
0.3391289 -0.14025654 -0.2965779 -0.2777617 0.13475616 -0.05924895 -0.19162656 0.2560555
-0.06089744 -0.14642929 0.19145313 0.09108699 0.37972602 0.17475334 0.16336584 -0.044779465
-0.08672341 -0.047310155 0.3118779 0.07470081 0.030811273 -0.019504597 0.018609354 -0.3722844
0.3999964 0.2789255 0.15615827 -0.047018792 -0.36768842 -0.24357818 -0.30766264 0.07673033
0.29586276 -0.08312016 0.33367553 -0.23734044 -0.19553202 -0.1900482 0.13313137 0.08925692
0.25082245 0.30326805 0.28248677 -0.2597371 -0.006195664 0.39706925 0.2352997 0.10393966
-0.26249704 -0.12031384 0.34723204 -0.07666829 0.07359858 -0.022918757 -0.08938314 0.21934707
0.30478945 0.019079478 0.054996047 0.059348736 -0.1843468 -0.08139664 0.11063288 0.33134657
-0.2106591 0.19286326 0.061873756 0.14174753 -0.321268 0.29635468 0.17841351 0.0892205
0.06575696 0.06345124 -0.19780587 -0.401463 0.4044751 -0.20075719 -0.2126419 -0.19002876
-0.5093316 -0.21255593 0.123762585 -0.22109775 -0.23564856 -0.2104784 0.032660317 0.047321327
0.34332675 -0.22086823 -0.2995033 -0.15440175 0.35308808 0.26370186 -0.13173118 -0.10292732
-0.009718517 -0.06270476 0.15149441 -0.27010983 0.023676079 0.070987836 0.06502108 -0.4280576
0.14123799 -0.15137483 -0.0018504573 0.23589663 -0.06018811 0.27220654 -0.23366673 0.47329623
0.19318362 -0.26595423 0.14514084 0.15522525 0.2233448 -0.11010182 -0.06950773 -0.017210916
-0.03162275 0.21412903 0.09035132 0.17306197 0.030026319 0.2194016 -0.29119712 -0.32905966
-0.37273905 -0.03616213 0.12590858 0.24393098 0.22814779 -0.14771596 -0.21922779 -0.22501197
-0.16010141 -0.39983678 -0.24954748 -0.22250755 0.024006497 -0.049502578 -0.19727309 0.13157287
0.13681138 -0.3489475 -0.24419172 -0.2808827 0.37698892 0.12813734 -0.33947295 -0.1403737
0.08128079 -0.062218014 0.16764222 0.27638534 0.15793341 -0.05396774 0.11543034 0.058726408
0.1335099 -0.060348783 -0.36351025 0.18790846 0.17968167 0.31177315 -0.06163294 0.1858382
-0.19622056 -0.13475133 -0.20586063 0.3333996 0.064396225 -0.09121331 0.22297396 0.2753684
-0.26937297 0.26769394 -0.031452417 -0.14383343 -0.04175839 0.114576325 -0.37700847 0.1189714
-0.22643709 -0.086496636 -0.20093593 -0.38240469 -0.019222734 0.03016645 -0.20298256 0.08805597
-0.27873546 -0.3636087 -0.43013155 -0.2905912 -0.35869727 0.21409297 0.19112948 0.15765749
00000000: 973b 43be 7027 863e ee79 4ebe 6a0e 113e
00000010: f325 00bd 8949 27be 3790 8c3e 8238 e9bd
00000020: 7d61 b93d e7dc 8c3e 0acc 71be 4cf0 533e
00000030: ec2d 37be 12e7 5cbe 90a6 2f3e c67c 27be
00000040: 5325 56be fc2f 33be 7d8f 3d3e 24a3 8d3d
00000050: afa6 993d 8d09 413e 05d8 ed3d 6919 5bbe
00000060: 2fcd 873c 30a7 533e d281 1d3e 8555 c03d
00000070: 1cd0 6c3e 20c0 f5bd efb3 783e 7bf0 873e
00000080: 30e8 c93e fae6 8c3d 6da9 283e ff2a bd3d
00000090: 5086 a3be ebd4 edbb 9da1 21be 6286 81bd
000000a0: a9fe a7bd 45fa a1bd b621 30be d156 22be
000000b0: 1855 3e3e 7331 8b3e b624 1abe 5a14 64be
000000c0: 25e6 a9bd f0ed c4bd f599 99be 2c34 943e
000000d0: 02a0 813e 769d 543e 9376 0abe 235f d9bd
000000e0: 4ea2 ad3e 699f 0fbe 0fd9 97be c836 8ebe
000000f0: 85fd 093e 07af 72bd c139 44be b519 833e
00000100: 986f 79bd 8ff1 15be 4a0c 443e d18b ba3d
00000110: 736b c23e 8af2 323e 6049 273e ac6a 37bd
00000120: 0b9c b1bd 4bc8 41bd 76ae 9f3e bdfc 983d
00000130: ec67 fc3c 1bc8 9fbc a572 983c 109c bebe
00000140: 54cc cc3e 53cf 8e3e f4e7 1f3e c796 40bd
00000150: a841 bcbe 8f6c 79be f585 9dbe cb24 9d3d
00000160: 537b 973e e73a aabd 85d7 aa3e 5f09 73be
00000170: 8c39 48be ff9b 42be 9753 083e 55cc b63d
00000180: cd6b 803e f345 9b3e 1ba2 903e 43fc 84be
00000190: ff04 cbbb a94c cb3e 68f2 703e 51de d43d
000001a0: 0366 86be 1a67 f6bd 66c8 b13e 4404 9dbd
000001b0: daba 963d 1ec0 bbbc 820e b7bd 859c 603e
000001c0: 5d0d 9c3e 914c 9c3c 8943 613d a917 733d
000001d0: 68c5 3cbe 48b3 a6bd 7e93 e23d 42a6 a93e
000001e0: 05b7 57be f27d 453e 566f 7d3d 4426 113e
000001f0: 3d7d a4be cdbb 973e 08b2 363e 3db9 b63d
00000200: 96ab 863d b9f2 813d 9f8d 4abe 8f8c cdbe
00000210: 5c17 cf3e 4b93 4dbe ccbe 59be e696 42be
00000220: 8e63 02bf 43a8 59be 3d77 fd3d 7367 62be
00000230: db4d 71be a687 57be d3c6 053d 02d4 413d
00000240: 86c8 af3e 482b 62be 7f58 99be 7e1b 1ebe
00000250: f6c7 b43e ee03 873e 8ae4 06be 8fcb d2bd
00000260: 6a3a 1fbc 5a6b 80bd 5a21 1b3e d64b 8abe
00000270: 56f4 c13c 1262 913d c629 853d 5e2a dbbe
00000280: b1a0 103e 0102 1bbe 0b8b f2ba e38e 713e
00000290: cf87 76bd a85e 8b3e 5546 6fbe e253 f23e
000002a0: edd1 453e 272b 88be cd9f 143e 5ef3 1e3e
000002b0: 80b4 643e 107d e1bd 125a 8ebd e8fd 8cbc
000002c0: db86 01bd a444 5b3e 1d0a b93d 2837 313e
000002d0: c1f9 f53c d0aa 603e ca17 95be 827a a8be
000002e0: a7d7 bebe be1e 14bd 2eee 003e 0bc9 793e
000002f0: 939f 693e da42 17be 407d 60be 8a69 66be
00000300: a0f1 23be 68b7 ccbe 6089 7fbe 05d9 63be
00000310: 46a9 c43c 37c3 4abd f501 4abe 0abb 063e
00000320: 4818 0c3e 3fa9 b2be 650d 7abe dbcf 8fbe
00000330: b104 c13e 6f36 033e 66cf adbe 20be 0fbe
00000340: 8b76 a63d 51d8 7ebd 67aa 2b3e 6182 8d3e
00000350: 4cb9 213e 470d 5dbd be66 ec3d 1a8b 703d
00000360: d2b6 083e 4930 77bd 041e babe 136b 403e
00000370: 79fe 373e bba0 9f3e d272 7cbd 5e4c 3e3e
00000380: 0bee 48be 41fc 09be 21cd 52be 5ab3 aa3e
00000390: 2be2 833d 0bce babd 4953 643e 16fd 8c3e
000003a0: 41eb 89be 2e0f 893e 40d4 00bd 1249 13be
000003b0: d80a 2bbd fea6 ea3d 4107 c1be 47a7 f33d
000003c0: 20df 67be 2625 b1bd 26c2 4dbe 8cca c3be
000003d0: ff78 9dbc a21f f73c a9da 4fbe b056 b43d
000003e0: 6ab6 8ebe eb2a babe 343a dcbe 5fc8 94be
000003f0: 2ba7 b7be 303b 5b3e 72b7 433e f770 213e

head.bias f4 [10]
0.0025276428 0.17111887 -0.07755114 -0.19590533 -0.155111 -0.06366526 0.077765994 -0.0067991223
-0.19585691 0.024350155
00000000: cfa6 253b c939 2f3e 22d3 9ebd 689b 48be
00000010: 6bd5 1ebe ef62 82bd c743 9f3d 2ccb debb
00000020: b78e 48be fa79 c73c
