feature-compress-incremental/outputs/compress32_initial/best.ckpt (torch, 70527 bytes, 4 tensors)

mapper.weight f4 [32, 512]
00000000: 54fa 1dbd 5063 373d 228c 2f3d 94fd 273e
00000010: 6fde b1bd a019 fdbc 8d61 f53d 54a9 0b3e
00000020: b65f f1bc c689 00be bd1a 7f3d 22e4 46bd
00000030: b6aa 423d 7c87 71bb 9aa6 97bd 1975 88bd
00000040: fe0f b3bd 97ac e6bd c65b 273e 8af1 cdbd
00000050: 88ae 72be 45c7 73b8 6665 543d 7f12 9ebd
00000060: a8fa 7b3d 7659 febd 0b2b 5fbd a502 883b
00000070: 8f82 0ebe 0b6a 86bc 4629 7f3d f634 9b3d
00000080: 213c 013c 1eb8 213d 0a85 4a3c e503 4dbd
00000090: 07d7 bf3c ddfe 38bc 0973 ec3c 774e 693d
000000a0: f769 c33c 0a32 81bd 1b37 82bd 8da7 9fbd
000000b0: 06cf 78bb 9662 e73c 1bfc 3cbd 401f 0c3e
000000c0: 63a4 fc3d e004 ddbc c76d 2d3d 1a46 f03d
000000d0: be65 113d cc36 c73d 1d85 9c3d b0bf 83bd
000000e0: 2c8a e2bd cb61 863c 4704 373e 5929 883d
000000f0: 3ebd 863d bec2 97bd 7515 64bc ac77 acbd
00000100: 8072 fbbd 9b59 053d f355 c63a c81b 3b3d
00000110: 8130 c83c 147a d63d 1acc 233d dca3 9bbd
00000120: b9d3 3bbc 275a aebd e3b2 fcbd 333e b73d
00000130: 2cba 983c 5c06 2abd 4b3c 8a3d 155b 82bd
00000140: 6ff0 5fbd a833 b83b 351a 983c 6ef3 48bd
00000150: 1b85 9539 4b4f 293e ce56 013e 9a1f 2a3d
00000160: 36c1 81bd d10b 1abd 65cf b73d dfc3 ef3d
00000170: b8ed e6bd 0bec 5bbd b087 413e 6929 a83d
00000180: 6548 563d 6743 333e 7d9c 0d3d 7632 ccbd
00000190: 4d3a f6bc 1126 e63c f58b 45bd f49f ab3d
000001a0: 3d6c c23d c48e 533d 74dd 75bb 6abc 873d
000001b0: c89b 223d 8877 8abc 33ff 8abd 685d 3abd
000001c0: 233c 9bbd 8cb1 ceba e406 66bd 6402 4d3d
000001d0: e8e7 a4bd 0a78 803d 096e 163d ea63 bcbd
000001e0: e13d bdbd 5e95 72bd a983 043e 05ce 6abd
000001f0: a06d 89bd 0a62 fbbc 8156 f23d 8b02 71bd
00000200: c0bb c03d a807 ec3c d4fc 02bd b479 a7bd
00000210: 0ba7 94bb 9338 013e 4982 8e3d 2de0 c73c
00000220: d3be 003e 5616 153c 2cd6 cdbc e0d7 a0bb
00000230: feda a43c beb3 6a3c 338c d9bb c68f 943d
00000240: a160 343d 4342 23bc bae2 cfbd 8414 8dbd
00000250: ed51 593d 0fbc 66bc 1bfb 5bbd 65a7 d93c
00000260: 3539 c9bd 12f5 b7bd 80f8 033e 5008 3abe
00000270: 6a5f b73d 5b1d 23bd 6526 05bd 9a60 f63c
00000280: 08c2 d3bd 3172 973d b25e 95bc dc70 85bb
00000290: fe2f f6bc 4603 08be 08fd e5bd 13bb 4e3c
000002a0: 285c 1bbd e2fe 0fbe be63 ebbc c310 c4bd
000002b0: 8404 3e3d 9329 ec3a 8e63 973d 7309 07bd
000002c0: 79d4 f7bd a90b 0c3d 923c 64bc 1850 473e
000002d0: 9aa6 ac3c 8e62 a13d 5762 b6bd c050 d13c
000002e0: e829 6a3d e86e bb3d d300 173e e295 a0bd
000002f0: a212 dbbd c976 2c3d dd5c bdbc 9a22 fc3c
00000300: 378e d8bd bae5 cd3c 77aa 3abc 76b1 afbc
00000310: ea5f 1ebc 0aef 8e3c 080d c43d f5a5 c03d
00000320: a170 dabd b683 e3bd 20a3 963d 73c2 1c3e
00000330: a7e7 b8bd 616e 6bbe fcf7 d6bd 0af1 533d
00000340: 2a2a e5bd be55 4a3d c949 333d 237c 943c
00000350: 3f16 6e3d fbe7 8cbb 56d2 603c a063 323e
00000360: 55e3 bf3d ce85 203d caf1 abbd 416b dfbd
00000370: 44df d3bd 9563 97bc 553b 8bbc 7f4d 40bc
00000380: 3a1c f3bc 19f5 b4ba 4f72 d5bc b51a 023e
00000390: a852 d8bb 5515 0cbd 72a4 d5bc 520b 123d
000003a0: dde5 8d3d abb4 33be 1b72 87bd 97e9 f4bb
000003b0: 767a 76bd dadc 54bd 5332 2c3e 6bf7 59bc
000003c0: 4301 8cbd 24c0 153d 3d9e 063e 923e 353d
000003d0: 086c 9c3a 658d 9abc fe11 0a3d 0a1c acbd
000003e0: d33d b3bd 18c0 1fbb dfe6 843c 3db3 d1bd
000003f0: bd2c f0bc 36d9 83bd d11e 1f3d bb59 1bbe
-0.03856881 0.044772446 0.04285825 0.16405326 -0.08685004 -0.030896008 0.11981497 0.13638812
-0.029464584 -0.12552556 0.06228136 -0.04855741 0.047526084 -0.0036854437 -0.074048236 -0.066629596
-0.08743285 -0.11263388 0.16343603 -0.100558355 -0.23699391 -5.81213e-05 0.051854514 -0.077183716
0.06151834 -0.12419407 -0.05448441 0.004150706 -0.13916992 -0.016407987 0.06229522 0.07578461
0.007887871 0.03948223 0.012360821 -0.050052542 0.023417963 -0.011291233 0.028863447 0.056959596
0.023854239 -0.06308372 -0.06358167 -0.0779563 -0.0037965192 0.028245252 -0.046138864 0.13683796
0.12336042 -0.026979864 0.04234102 0.11732121 0.03549742 0.097272485 0.07642577 -0.06433046
-0.110615104 0.016404053 0.17872725 0.066485114 0.06579064 -0.07410191 -0.013921131 -0.08421263
-0.122776985 0.032556158 0.0015131816 0.04568079 0.024437191 0.10472503 0.03998957 -0.07599613
-0.011464053 -0.08513289 -0.123388074 0.089474104 0.018643461 -0.04150997 0.06749781 -0.06365029
-0.054672655 0.0056213923 0.018567184 -0.049060278 0.00028518666 0.16534154 0.1263077 0.041534044
-0.0633568 -0.037608925 0.08975104 0.11707281 -0.1127581 -0.053691905 0.18899417 0.08211023
0.052315135 0.1750618 0.034573067 -0.09970562 -0.030057097 0.028094323 -0.048229177 0.08380118
0.09493301 0.051649824 -0.003751603 0.06627734 0.039699346 -0.0169027 -0.06786957 -0.045499235
-0.075798295 -0.0015769466 -0.056158915 0.050051108 -0.08052045 0.06272896 0.03672603 -0.091987446
-0.09240318 -0.05922448 0.1294085 -0.05732538 -0.067103624 -0.030686397 0.118329056 -0.058840316
0.094108105 0.028812245 -0.031979397 -0.0817751 -0.0045365146 0.12619238 0.06958444 0.024398888
0.12572794 0.009099564 -0.02512654 -0.004908547 0.020123955 0.01432508 -0.0066390275 0.07253985
0.044037465 -0.0099645285 -0.101506665 -0.06888679 0.053056646 -0.014082923 -0.05370627 0.026569078
-0.098253645 -0.0898229 0.12887764 -0.18167233 0.08953746 -0.039822917 -0.03250732 0.03007536
-0.10339743 0.07394827 -0.01823363 -0.004072292 -0.030052181 -0.13282499 -0.112299025 0.012617844
-0.037929684 -0.14062074 -0.028734084 -0.095735095 0.046391025 0.0018017761 0.073920354 -0.032967996
-0.12101073 0.034190807 -0.013930457 0.19464147 0.021075536 0.07880126 -0.089054756 0.0255512
0.05716887 0.09152013 0.14746408 -0.07841088 -0.10696913 0.04210547 -0.02311557 0.030778218
-0.10574 0.025133956 -0.011393181 -0.021446925 -0.009666422 0.017447967 0.09572798 0.09406654
-0.106660135 -0.11109106 0.073553324 0.15308551 -0.09028559 -0.22991325 -0.10496518 0.051743545
-0.11189683 0.049398176 0.04377154 0.0181256 0.058126684 -0.004300115 0.013722023 0.17420816
0.09369532 0.039190106 -0.08395727 -0.10909129 -0.10345319 -0.018480102 -0.016996065 -0.0117372265
-0.029676545 -0.0013805955 -0.026055483 0.127055 -0.0066016503 -0.03420003 -0.02607939 0.035655327
0.069286086 -0.17549388 -0.06613561 -0.007474135 -0.06017538 -0.051968433 0.16816072 -0.013303618
-0.06836178 0.036560193 0.131463 0.044249125 0.0011934051 -0.01886625 0.033708565 -0.084037855
-0.087520264 -0.0024375971 0.01622337 -0.10239265 -0.029318208 -0.06437914 0.03884775 -0.15170948

mapper.bias f4 [32]
00000000: bc6e 18bd f3d8 023d 2d6d 9dbd 6053 9b3d
00000010: f273 afbd 04b7 4abd 1eea a33d f8a6 88bd
00000020: 1bf2 c23c 583c 7b3d 580d ebbc 89be eb3b
00000030: d495 2cbd 6aba a2bd cf4b 803d a43d 0dbd
00000040: ebf6 13bd 3c3c dabb b175 243d 5010 be3c
00000050: e177 873d a3c7 ac3d 1a3c 163d ab38 abbd
00000060: b4bd 033d 8acb 8d3d 5159 8a3d af38 473d
00000070: e7e4 a43d e532 bcbd 0fa4 423d 3968 903d
-0.03721498 0.03194518 -0.07686839 0.07584262 -0.08567037 -0.049490944 0.08003639 -0.06672472
0.023797086 0.061336845 -0.028692886 0.0071943444 -0.042135075 -0.07945712 0.06264459 -0.034482613
-0.03612415 -0.0066600125 0.0401513 0.023201138 0.06614662 0.08436515 0.03667841 -0.08360418
0.032163337 0.069235876 0.06755317 0.048638042 0.08051472 -0.09189395 0.04751974 0.07051129

head.weight f4 [10, 32]
00000000: 5e25 54be 0e96 933e 8c1f 3cbe ae40 d83d
00000010: cc85 3cbd 051b 3ebe faea 8d3e 73f5 1cbe
00000020: 8d1c 183e c3c9 873e a0ae 7ebe f6c0 5d3e
00000030: 6603 30be eed7 6cbe b76e 4c3e f89b 04be
00000040: 88d2 65be 071f 3bbe bf65 573e fdc9 e83d
00000050: e703 fa3c f0d7 1c3e 17fe 063e 02d9 58be
00000060: dc8a 923d 71a4 693e d409 f13d 7a4b c23d
00000070: dbd0 8c3e 9451 2ebe 9979 793e 4b22 7d3e
00000080: 2ff6 d23e 4589 c93d 6b1f 2b3e a84e 013e
00000090: 66c3 b9be e328 5cbc b18e 4cbe 7062 88bc
000000a0: 084e 1ebe 8f31 a6bd a934 38be ce90 33be
000000b0: b5e3 463e 0b49 9c3e 7a73 01be 5bca 45be
000000c0: 5f24 92bd 189d 16bd 5e37 b5be 2567 af3e
000000d0: c007 653e 1275 703e 954d 3bbe 639f 22be
000000e0: dfc7 b63e 341b 3fbe c476 a2be b083 a7be
000000f0: 5373 0f3e f4db e0bd 4f67 60be 6c36 603e
00000100: 2263 92bd 90d6 b9bd 74e6 623e 66b3 d23d
00000110: c597 e13e 7361 b83d 053d fe3d b483 d3bd
00000120: 9a9f a9bc 2780 c9bd 2b77 873e c5bf 5d3d
00000130: 0c90 913c 0dcf 28bd 5640 d63d aeed 87be
00000140: 9fc8 af3e 6cba 9f3e ec88 1e3e d136 ccbd
00000150: f73d e0be 798a a4be 5548 86be b5a5 9c3d
00000160: d6e3 a13e c4f7 1cbd a569 953e 9148 57be
00000170: 3966 55be 560b 7fbe 6277 e83d 993a 0f3d
00000180: 875a 5a3e ddfa b03e 26f5 a23e 658a 92be
00000190: 5e59 193d b75f a93e b452 6b3e f175 2b3e
000001a0: 07ce 3bbe 5011 00be 5ad9 933e 729d 95bd
000001b0: d340 8a3d a767 4ebd 4650 0cbd 9573 393e
000001c0: c613 8e3e f3c3 6d3d 8139 e73d ae94 373d
000001d0: c690 0cbe 67f7 0fbd e99e 183e 648b b03e
000001e0: 344d 30be e7e7 673e 5ce1 fa3c 1e4c 213e
000001f0: b6d5 88be ad02 983e 91d2 3b3e e9f3 ba3d
00000200: c63e 7d3d b1fa c83c 9960 3bbe 3243 cdbe
00000210: 1ff1 d73e c6cf 52be 4548 3fbe f682 76be
00000220: 3114 e0be 4d9c 3bbe 2d80 f73d 9d6e 65be
00000230: ee7b 58be 7654 4cbe b138 11bd ca6e c4bc
00000240: 68ea bb3e faa7 7fbe 009a 95be d789 14be
00000250: cf5a 7b3e 7f7e 593e 92c1 dcbd b392 0ebb
00000260: 626b 113d 990b 8abd f063 0c3d 104e 48be
00000270: 559f 01bd e729 413e 1896 a53d 00a7 b6be
00000280: b7f9 a9bd 5e0f d4bd 6ab3 803e 228f 3b3e
00000290: c899 e7bd a51a 423e e141 75be 0b73 b93e
000002a0: 1f5a 403e fb3d 9ebe a382 8f3e 8a3b 2c3e
000002b0: f19e 373e a580 09be ab56 bcbc 41db 153e
000002c0: 7c7e dfbd 6598 0d3e 2017 b33d 0e55 933d
000002d0: 5450 a5be e2df 8a3d 933b a6be 2d4c 90be
000002e0: 9db9 9dbe 4801 c23b 87c8 593e 1105 e63d
000002f0: 1cf7 ea3d d55b 6dbe ac10 78be c588 b0be
00000300: 0b0c afbe 2d98 99be 92d6 5abe 9731 87be
00000310: 1ea0 953d 124b a6bd 8882 02be bc44 223d
00000320: b610 183e b286 99be 1fc8 66be 44b2 8cbe
00000330: 2e42 983e c69b b53d c1a0 8cbe 79a9 28bd
00000340: eaf3 8bba a254 06be 2e94 283e 056d 7b3e
00000350: 3764 ec3d a2c7 60be 86b8 273e 8f9e 2b3e
00000360: 8d82 d0bd 2fa6 96bd d311 a1be 1e07 283e
00000370: 94ae 9b3d a089 8f3e 7416 adbb 7263 2f3e
00000380: 7097 56be 5c88 06be 3a12 edbd a0ed 9a3e
00000390: d13f 6ebd eca2 03be 0d86 2e3e 7a87 8e3e
000003a0: dafd 2cbe 7540 653e 11d6 7ebc 663d 00be
000003b0: 0154 47bd 79a6 993d 138a abbe a55e 203e
000003c0: 8048 8cbe 7e7c f1bd 3a55 2fbe 7e8d b0be
000003d0: f57a 9bbd d66a 18bc e171 63be 7b77 8c3d
000003e0: 1c7b 82be b875 abbe 514b e7be 692a a1be
000003f0: e8e6 acbe 2828 893d 0ef8 363e 4cc1 ae3d
-0.2071738 0.2882542 -0.18371409 0.10559212 -0.046026036 -0.18564995 0.27718335 -0.15328006
0.14854641 0.2652112 -0.24871302 0.2165564 -0.17188796 -0.23129246 0.1996411 -0.12950122
-0.22443593 -0.18273555 0.21034907 0.11366651 0.030519439 0.15316749 0.13182865 -0.21176532
0.071553916 0.22816636 0.11769453 0.09487052 0.27503094 -0.17023307 0.24362792 0.24720113
0.41203448 0.09840635 0.16711204 0.12627661 -0.3628189 -0.0134374825 -0.19976307 -0.016648501
-0.15459454 -0.08114921 -0.17988838 -0.17535707 0.19422801 0.30524477 -0.12641707 -0.19315474
-0.071358435 -0.03677091 -0.35393804 0.3425838 0.22366238 0.23482159 -0.18291314 -0.15881114
0.35699365 -0.18662721 -0.31731236 -0.32717657 0.14008836 -0.10979453 -0.21914409 0.2189576
-0.07147814 -0.09074128 0.22158223 0.10288124 0.44061103 0.09002962 0.12413982 -0.10327855
-0.020705987 -0.09838896 0.26458105 0.054137964 0.017768882 -0.041213084 0.1046149 -0.26548523
0.3433275 0.31196916 0.15481919 -0.09971393 -0.43797275 -0.32136896 -0.2622706 0.076487936
0.31619138 -0.038322225 0.29182163 -0.21023776 -0.20839776 -0.24906668 0.113508955 0.034967992
0.21323596 0.34566393 0.31827658 -0.28621212 0.037438743 0.33080837 0.22980767 0.1674421
-0.18340312 -0.12506604 0.28876764 -0.07305421 0.067506455 -0.05039182 -0.034256242 0.18110497
0.2774946 0.0580482 0.11290265 0.044819526 -0.13727102 -0.03514805 0.1490437 0.34481347
-0.1721695 0.22647057 0.030625038 0.15751693 -0.26725549 0.2968954 0.18342043 0.091285534
0.061827444 0.024533601 -0.18298568 -0.40090328 0.42176148 -0.20587072 -0.18679912 -0.24073395
-0.43765405 -0.18321343 0.120849945 -0.22405477 -0.21141025 -0.19954094 -0.035454456 -0.02397861
0.36702275 -0.24966422 -0.29219055 -0.14505707 0.2454636 0.2123966 -0.10779108 -0.002175492
0.0355028 -0.06740493 0.034274995 -0.19561028 -0.03164609 0.1886364 0.08085269 -0.35674286
-0.082995825 -0.103544936 0.25136882 0.1831632 -0.11308628 0.18955477 -0.23950912 0.36220583
0.18784378 -0.30906662 0.28029355 0.16819587 0.17931725 -0.1342798 -0.022990545 0.1463442
-0.10912797 0.13827665 0.08744645 0.07193957 -0.32287848 0.067809835 -0.32467327 -0.28183118
-0.30805674 0.005920563 0.21267901 0.11231435 0.114729136 -0.23179562 -0.2422511 -0.34479347
-0.34188876 -0.29998913 -0.21370915 -0.26405022 0.073059306 -0.08119787 -0.12745106 0.03961633
0.14850125 -0.29985577 -0.22537278 -0.27479756 0.2973799 0.08867602 -0.27466395 -0.041177247
-0.001067755 -0.13118222 0.16462776 0.24553306 0.11542552 -0.21951154 0.16378984 0.16759704
-0.101811506 -0.07355916 -0.3145891 0.16408965 0.076016575 0.28034687 -0.0052822176 0.17127779
-0.20956206 -0.13137954 -0.11575742 0.30259418 -0.05816633 -0.12855119 0.17043324 0.27837735
-0.16893712 0.2238787 -0.015553967 -0.12523422 -0.048664097 0.07502455 -0.3350378 0.15661104
-0.27399063 -0.11791323 -0.17122355 -0.3448295 -0.075918116 -0.009302815 -0.2221141 0.068587266
-0.2548455 -0.3348825 -0.4517465 -0.3147767 -0.33769917 0.06697112 0.17868063 0.08532962

head.bias f4 [10]
00000000: 0d1c d9bb 2200 2a3e 4d71 5bbd 7970 39be
00000010: 4d78 1bbe e881 17bd 785e 763d 7c56 973c
00000020: 8c39 79be 6122 e3b9
-0.0066256584 0.16601613 -0.05357485 -0.18109311 -0.1518261 -0.036989123 0.060148686 0.018473856
-0.24338359 -0.00043322428
