feature-compress-incremental/outputs/compress32_initial/last.ckpt (torch, 70527 bytes, 4 tensors)

mapper.weight f4 [32, 512]
-0.07213304 0.05383973 0.02062912 0.068955034 -0.14844571 0.014243842 0.14551489 0.17982487
-0.017146261 -0.050316654 0.0045900694 -0.05661926 0.029376913 -0.13371159 -0.04968488 -0.13704309
-0.045496732 0.015479734 0.10875845 0.08383768 -0.2318165 -0.0763394 -0.03945681 0.0020021575
0.10669827 -0.08128275 -0.029555392 0.01136316 -0.03941175 0.058253296 0.18131445 0.08111316
-0.052614167 0.026884487 0.061742254 -0.04691691 -0.008350543 -0.07221043 0.037200466 0.10309153
-0.006797348 -0.024424046 -0.15009639 -0.10683558 -0.085887425 -0.051919762 -0.12794644 0.13462831
0.22572745 0.0022058457 0.07430905 0.009759637 -0.0011731724 0.1441267 0.036452975 0.002928582
-0.053121377 0.010681556 0.20976414 -0.02119477 -0.0019843741 0.031921394 0.13177754 -0.1320416
-0.0039477493 -0.03218119 0.048267514 -0.063554995 0.010992193 -0.025281304 0.026588984 -0.097918496
-0.10936948 -0.14648403 -0.1168382 -0.104224734 0.04795484 -0.03188603 0.11952436 -0.06390935
0.03445725 0.04818062 0.015100363 -0.09936486 -0.0016877296 0.17497197 0.015251741 0.07451229
-0.18274806 0.024350341 0.19212975 0.03589817 -0.15741628 -0.09561299 0.19083603 0.07829291
0.064576745 0.1504325 -0.06259628 -0.019650804 0.09448466 0.07851214 -0.015620273 0.06963254
0.118817374 0.14428525 -0.06439613 0.08522625 -0.15045188 0.036113076 -0.052565236 -0.017363306
-0.09825748 0.16059521 -0.14572132 0.0023091144 -0.032248326 0.13210207 -0.012022152 0.03202642
0.04354426 -0.032299984 0.113986336 -0.07154398 -0.001547106 -0.12510319 0.07764886 0.020923361
-0.012088485 0.13181359 0.044132937 -0.12336154 -0.03626961 0.1093539 0.067894086 -0.018829962
0.07098467 -0.056091964 0.08188792 -0.09863834 0.100136414 -0.09909623 -0.09720966 0.11689037
0.09268742 -0.019929472 -0.025360277 0.03598572 0.07308903 -0.08762353 -0.0095868595 -0.07260944
0.12879299 0.03455204 0.13629536 -0.15357395 0.11702847 -0.021388829 -0.11632476 -0.036885
-0.08413298 0.09797941 0.007713277 -0.030827506 0.010044972 0.037818126 -0.09001555 0.024429481
0.013310509 -0.14294559 -0.045522552 -0.07594824 0.07503194 0.046474844 0.073590875 0.04473628
-0.09716925 -0.010268645 0.04795287 0.19869809 0.09832865 0.08646199 -0.07258744 0.08750647
0.17774999 -0.021672133 0.07907662 -0.0038301263 -0.043470226 0.14370719 -0.06443329 0.15261799
-0.11273389 0.14122185 -0.027551753 0.02660985 0.084268734 0.080758706 -0.04028418 0.09613121
-0.042078972 -0.25469857 0.033347514 0.16334158 -0.072212346 -0.1824072 0.09874611 0.00869593
-0.15736505 -0.13320918 0.04333625 0.009041417 0.020116515 -0.051891178 0.19966379 0.119008385
0.038714588 0.035218313 -0.06368679 -0.08364996 -0.01976544 0.010850455 -0.10389921 -0.14284183
0.13453096 -0.059267893 -0.0630335 0.099484615 -0.05969395 0.04139222 -0.099654414 0.04455841
-0.0011725647 -0.2977176 -0.12913677 -0.041777033 0.04509172 -0.092876226 0.054824173 -0.018722015
-0.10737452 0.10443922 0.14582267 -0.08817508 -0.038453218 -0.12443419 -0.0794519 -0.13060316
-0.13889812 -0.09684709 0.07825802 -0.06374687 -0.06010773 0.035373334 0.09149474 -0.12509605
00000000: 7dba 93bd 0c87 5c3d 66fe a83c 4c38 8d3d
00000010: 2702 18be 015f 693c db01 153e 0324 383e
00000020: 5176 8cbc d618 4ebd 4b68 963b 99e9 67bd
00000030: daa7 f03c b1eb 08be 5f82 4bbd 0655 0cbe
00000040: c85a 3abd b69e 7d3c c0bc de3d 17b3 ab3d
00000050: 4e61 6dbe d557 9cbd 779d 21bd a136 033b
00000060: 9f84 da3d 9277 a6bd 261e f2bc 8c2c 3a3c
00000070: 376e 21bd 029b 6e3d 7faa 393e a81e a63d
00000080: f481 57bd db3c dc3c 72e5 7c3d f22b 40bd
00000090: b7d0 08bc 10e3 93bd 845f 183d a721 d33d
000000a0: 4abc debb f014 c8bc deb2 19be 9dcc dabd
000000b0: bfe5 afbd d1a9 54bd 6404 03be 01dc 093e
000000c0: 1925 673e f38f 103b 582f 983d e2e6 1f3c
000000d0: 22c5 99ba f395 133e b74f 153d 74ed 3f3b
000000e0: cd95 59bd b101 2f3c 69cc 563e a7a0 adbc
000000f0: 460c 02bb 02c0 023d b1f0 063e ea35 07be
00000100: 1f5c 81bb 6cd0 03bd 28b4 453d 1f29 82bd
00000110: 9918 343c bd1a cfbc 24d1 d93c 7e89 c8bd
00000120: 1bfd dfbd e9ff 15be de48 efbd c773 d5bd
00000130: 4b6c 443d ed9a 02bd 30c9 f43d e8e2 82bd
00000140: 0c23 0d3d 0b59 453d 8367 773c ce7f cbbd
00000150: cf36 ddba da2b 333e 70e2 793c e699 983d
00000160: 4f22 3bbe 5e7a c73c a9bd 443e f609 133d
00000170: bc31 21be bed0 c3bd 856a 433e 0858 a03d
00000180: d040 843d fa0a 1a3e 7a32 80bd b9fa a0bc
00000190: 2c81 c13d f9ca a03d 2cec 7fbc 819b 8e3d
000001a0: 8656 f33d 83bf 133e 1ee2 83bd 1a8b ae3d
000001b0: 0f10 1abe 4eeb 133d a54e 57bd 7e3d 8ebc
000001c0: 383b c9bd 1273 243e f837 15be 8354 173b
000001d0: d216 04bd c445 073e 8ff8 44bc 232e 033d
000001e0: 775b 323d fd4c 04bd ab71 e93d a685 92bd
000001f0: 43c8 caba 0d1b 00be 5e06 9f3d 7867 ab3c
00000200: c80e 46bc 24fa 063e bdc4 343d faa4 fcbd
00000210: 718f 14bd f0f4 df3d 0e0c 8b3d 4b41 9abc
00000220: 6960 913d b0c0 65bd dbb4 a73d e602 cabd
00000230: 5214 cd3d f7f2 cabd dc15 c7bd 3864 ef3d
00000240: e7d2 bd3d 2243 a3bc 5bc0 cfbc c365 133d
00000250: b4af 953d f773 b3bd 3412 1dbc 42b4 94bd
00000260: 4fe2 033e 7186 0d3d 0391 0b3e 7d42 1dbe
00000270: 9fac ef3d a037 afbc ad3b eebd ba14 17bd
00000280: e94d acbd 6ea9 c83d a8bf fc3b f789 fcbc
00000290: ab93 243c 2ee7 1a3d 135a b8bd 5620 c83c
000002a0: 5214 5a3c 5460 12be db75 3abd c08a 9bbd
000002b0: 59aa 993d 685c 3e3d d0b6 963d 643d 373d
000002c0: ac00 c7bd d23d 28bc 3b6a 443d 8377 4b3e
000002d0: 8860 c93d fc12 b13d b9a8 94bd 9836 b33d
000002e0: 1804 363e c289 b1bc ecf2 a13d db02 7bbb
000002f0: d60d 32bd fa27 133e 9af5 83bd e447 1c3e
00000300: 07e1 e6bd 769c 103e 37b4 e1bc e6fc d93c
00000310: 1695 ac3d d264 a53d 0601 25bd 71e0 c43d
00000320: 005b 2cbd da67 82be 6797 083d 0443 273e
00000330: 11e4 93bd f4c8 3abe 673b ca3d 6079 0e3c
00000340: 4e24 21be fd67 08be 5a81 313d 7422 143c
00000350: 64cb a43c d88b 54bd aa74 4c3e abba f33d
00000360: 3093 1e3d 1441 103d 386e 82bd ac50 abbd
00000370: 22eb a1bc 1bc6 313c 1cc9 d4bd 2145 12be
00000380: 7cc2 093e e4c2 72bd b517 81bd 97be cb3d
00000390: a581 74bd e38a 293d 9d17 ccbd e182 363d
000003a0: beb0 99ba 716e 98be 6e3c 04be 651e 2bbd
000003b0: 18b2 383d e435 bebd 508f 603d e95e 99bc
000003c0: 2ce7 dbbd 3be4 d53d 8a52 153e 2395 b4bd
000003d0: 1f81 1dbd 5ad7 febd aeb7 a2bd d6bc 05be
000003e0: 4f3b 0ebe c457 c6bd be45 a03d b88d 82bd
000003f0: 8633 76bd a1e3 103d 9861 bb3d 2e19 00be

mapper.bias f4 [32]
-0.06073954 0.05154623 -0.09472462 0.08319517 -0.08208427 -0.09197582 0.10082445 -0.11254794
0.038560864 0.084566824 -0.07031634 0.021180447 -0.06277782 -0.08742723 0.08590993 -0.042694595
-0.062357195 -0.027267095 0.05117389 0.029290173 0.0531356 0.086498015 0.07419674 -0.10131631
0.03136681 0.09571744 0.049739216 0.05447042 0.10718754 -0.076866575 0.06289064 0.0963067
00000000: 06ca 78bd 2422 533d fbfe c1bd 3b62 aa3d
00000010: cc1b a8bd d25d bcbd 0d7d ce3d 897f e6bd
00000020: fff1 1d3d 5f31 ad3d 0302 90bd 9e82 ad3c
00000030: a891 80bd 0c0d b3bd 8cf1 af3d 87e0 2ebd
00000040: 426a 7fbd 3e5f dfbc b69b 513d f2f1 ef3c
00000050: b7a4 593d df25 b13d 76f4 973d ed7e cfbd
00000060: 7c7a 003d 8107 c43d 59bb 4b3d 601c 5f3d
00000070: 2485 db3d 396c 9dbd cfcc 803d 723c c53d

head.weight f4 [10, 32]
-0.19596276 0.26175833 -0.19911769 0.13226931 -0.036284752 -0.17450088 0.26579112 -0.11611578
0.09345428 0.26151246 -0.23118575 0.19572037 -0.18123884 -0.21173617 0.17037596 -0.15287533
-0.2125858 -0.18186069 0.17645764 0.0608583 0.07609307 0.18851307 0.116936654 -0.20871156
0.011827371 0.19863017 0.14967954 0.0903371 0.22175756 -0.12407331 0.23183437 0.25168112
0.40728453 0.06948022 0.16332695 0.09926801 -0.3314626 -0.0032777186 -0.15818945 -0.061976008
-0.06936264 -0.06586887 -0.17763141 -0.15133932 0.19069763 0.2674344 -0.15136942 -0.23440544
-0.08717871 -0.09930737 -0.2938203 0.29624695 0.2580963 0.21131985 -0.13476273 -0.11075849
0.33870772 -0.12924455 -0.29825076 -0.2738888 0.146136 -0.06635515 -0.18760115 0.26175377
-0.06423389 -0.15106177 0.20310801 0.09492856 0.43186465 0.2086989 0.18243028 -0.060189813
-0.11518266 -0.026702523 0.3554118 0.09480263 0.007519573 -0.0362092 0.025551653 -0.4074392
0.4503652 0.29478174 0.17279032 -0.053069964 -0.3941253 -0.26511887 -0.32625148 0.096763216
0.31264564 -0.07148659 0.36854625 -0.2524007 -0.20843004 -0.21104977 0.15414597 0.09900084
0.2845271 0.33228928 0.32007274 -0.2737042 -0.018584508 0.4585108 0.26079425 0.08995586
-0.30445883 -0.113251954 0.39643404 -0.064286105 0.0663418 -0.00600775 -0.07928289 0.2405921
0.34880847 0.042701967 0.055601895 0.06060582 -0.22346568 -0.10884562 0.122651584 0.37182772
-0.21031857 0.20989527 0.07997548 0.13313434 -0.37675703 0.31978065 0.18686529 0.11323561
0.06285224 0.040011853 -0.22085992 -0.44993007 0.4699782 -0.21338338 -0.25117213 -0.1973946
-0.55426025 -0.23421006 0.14501207 -0.2287961 -0.25286645 -0.23726524 0.037733924 0.042518545
0.4004873 -0.2363461 -0.30731127 -0.16030666 0.3750068 0.2746212 -0.15689231 -0.12364417
-0.012672897 -0.06610695 0.16973001 -0.28232297 0.051475428 0.073386066 0.059761256 -0.49573296
0.15585893 -0.17096122 -0.04031851 0.27157012 -0.06016595 0.29161692 -0.24859256 0.51280844
0.19670308 -0.26189956 0.13524613 0.16324168 0.23068385 -0.11783623 -0.08565354 -0.02422087
-0.042604893 0.22172374 0.07996003 0.1779667 0.0593277 0.24649411 -0.30976784 -0.36123824
-0.3895465 -0.050251752 0.12951124 0.25812042 0.24619515 -0.14411813 -0.22648877 -0.23200355
-0.17425528 -0.42727134 -0.25390095 -0.22129999 0.03166411 -0.06014045 -0.21448639 0.13351063
0.14867377 -0.37073955 -0.2530394 -0.2915748 0.40124294 0.14419834 -0.35207078 -0.14545657
0.07940627 -0.04830427 0.16992143 0.28128412 0.15651785 -0.062931806 0.115472175 0.05708825
0.14741649 -0.076202735 -0.37358356 0.18990375 0.18563445 0.32409656 -0.074620366 0.18847747
-0.19799328 -0.14269048 -0.21505445 0.36717492 0.04158034 -0.08272006 0.25406072 0.32770857
-0.28382304 0.29467198 -0.03241035 -0.13442782 -0.045007687 0.1299333 -0.4042929 0.12143179
-0.25201207 -0.09055047 -0.20981291 -0.40938598 -0.020947859 0.042478412 -0.23876618 0.0907019
-0.3208143 -0.40524754 -0.4557857 -0.30940384 -0.3910935 0.22877344 0.20149861 0.17996727
00000000: 76aa 48be 3005 863e 82e5 4bbe 9b71 073e
00000010: 529f 14bd 5cb0 32be c615 883e 1cce edbd
00000020: f564 bf3d f6e4 853e f5bb 6cbe ec6a 483e
00000030: ad96 39be 5ed1 58be 0977 2e3e 5a8b 1cbe
00000040: 18b0 59be b039 3abe 50b1 343e 8e46 793d
00000050: afd6 9b3d 9209 413e 7c7c ef3d 7cb8 55be
00000060: 97c7 413c b565 4b3e 9845 193e a802 b93d
00000070: 6a14 633e 261a febd fd65 6d3e 59dc 803e
00000080: 9987 d03e a54b 8e3d 2e3f 273e 074d cb3d
00000090: 77b5 a9be fece 56bb 6afc 21be 8eda 7dbd
000000a0: 000e 8ebd 42e6 86bd 02e5 35be b2f8 1abe
000000b0: 3d46 433e 29ed 883e 9600 1bbe fb07 70be
000000c0: c08a b2bd aa61 cbbd 9d6f 96be aead 973e
000000d0: 3325 843e 3b64 583e 3eff 09be 59d5 e2bd
000000e0: 196b ad3e af58 04be 53b4 98be 273b 8cbe
000000f0: ada4 153e 35e5 87bd 841a 40be 9704 863e
00000100: 0f8d 83bd f0af 1abe 8cfb 4f3e e869 c23d
00000110: 5d1d dd3e 2ab5 553e 01cf 3a3e 9889 76bd
00000120: e3e4 ebbd 40bf dabc 89f8 b53e e227 c23d
00000130: c066 f63b 1950 14bd b351 d13c df9b d0be
00000140: 4496 e63e a2ed 963e f2ef 303e e45f 59bd
00000150: cbca c9be a9bd 87be 6f0a a7be cb2b c63d
00000160: 1713 a03e 9067 92bd 18b2 bc3e aa3a 81be
00000170: af6e 55be 6e1d 58be 71d8 1d3e f4c0 ca3d
00000180: 89ad 913e d221 aa3e 93e0 a33e f522 8cbe
00000190: 8a3e 98bc edc1 ea3e d386 853e c73a b83d
000001a0: 07e2 9bbe a4f0 e7bd 67f9 ca3e 6fa8 83bd
000001b0: 36de 873d a9dc c4bb 115f a2bd c75d 763e
000001c0: 0697 b23e 42e8 2e3d d0be 633d cf3d 783d
000001d0: 30d4 64be 74ea debd c130 fb3d 3460 be3e
000001e0: c05d 57be c9ee 563e 2fca a33d 5e54 083e
000001f0: 4ce6 c0be 4aba a33e 9d59 3f3e 12e8 e73d
00000200: adb8 803d 78e3 233d 1a29 62be 3c5d e6be
00000210: fca0 f03e 2c81 5abe a299 80be cf21 4abe
00000220: 00e4 0dbf c3d4 6fbe 0b7e 143e 8649 6abe
00000230: b677 81be a9f5 72be e38e 1a3d ed27 2e3d
00000240: ac0c cd3e b604 72be e757 9dbe 6e27 24be
00000250: e400 c03e 269b 8c3e 61a8 20be 2839 fdbd
00000260: fca1 4fbc 1563 87bd b4cd 2d3e a38c 90be
00000270: e6d7 523d 6f4b 963d 38c8 743d b6d0 fdbe
00000280: 7c99 1f3e 7510 2fbe 0625 25bd 3d0b 8b3e
00000290: 9270 76bd d04e 953e 0c8f 7ebe 6a47 033f
000002a0: 886c 493e b317 86be f67d 0a3e d428 273e
000002b0: 6338 6c3e 1f54 f1bd 206b afbd d96a c6bc
000002c0: 7882 2ebd 8c0b 633e 16c2 a33d e73c 363e
000002d0: 9a01 733d f468 7c3e e499 9ebe 38f4 b8be
000002e0: a472 c7be c8d4 4dbd 989e 043e 5c28 843e
000002f0: 951a 7c3e b493 13be acec 67be 5792 6dbe
00000300: fa6f 32be 4fc3 dabe 4eff 81be 779c 62be
00000310: 3ab2 013d d555 76bd 52a2 5bbe 03b7 083e
00000320: f03d 183e 93d1 bdbe 618e 81be 4b49 95be
00000330: b76f cd3e bba8 133e 9f42 b4be 91f2 14be
00000340: c19f a23d b3da 45bd e2ff 2d3e 7904 903e
00000350: 3746 203e 64e2 80bd ad7c ec3d 5ed5 693d
00000360: 59f4 163e 2e10 9cbd 5846 bfbe 2176 423e
00000370: f516 3e3e fcef a53e 90d2 98bd 3d00 413e
00000380: c0be 4abe 741d 12be 3c37 5cbe 5afe bb3e
00000390: 2650 2a3d 2369 a9bd 3f14 823e 6bc9 a73e
000003a0: 4151 91be 3fdf 963e b7c0 04bd 72a7 09be
000003b0: fb59 38bd 3c0d 053e 7bff cebe 3bb1 f83d
000003c0: ba07 81be 8672 b9bd 32d9 56be 0a9b d1be
000003d0: d89a abbc d8fd 2d3d 1f7f 74be ebc1 b93d
000003e0: c641 a4be 9b7c cfbe be5c e9be 2e6a 9ebe
000003f0: 683d c8be 9643 6a3e a755 4e3e 5749 383e

head.bias f4 [10]
0.02108433 0.16822398 -0.085272714 -0.20235454 -0.16456527 -0.074199244 0.07348607 -0.019748513
-0.20141794 0.023243232
00000000: 0bb9 ac3c e842 2c3e 76a3 aebd 0736 4fbe
00000010: cc83 28be c6f5 97bd dd7f 963d a2c7 a1bc
00000020: 8140 4ebe 9768 be3c
