feature-compress-incremental/outputs/compress4_initial/best.ckpt (torch, 12031 bytes, 4 tensors)

mapper.weight f4 [4, 512]
-0.024188248 -0.04098962 0.11221037 -0.084110335 0.117341496 0.030110693 -0.088919856 -0.18439655
0.14092094 0.12626803 -0.039393056 0.0072991094 -0.117448844 -0.11292123 -0.016682971 0.045554083
0.08003939 0.23927154 -0.2066871 0.29205 0.28726214 -0.1308696 -0.118461534 0.24203381
0.12536752 -0.14267515 0.20185685 -0.17568819 0.13779968 0.026083458 -0.16662677 0.04204641
-0.17001691 -0.049611703 -0.14326596 0.08409436 0.014395299 0.16346869 0.085412696 0.09038203
0.0037313104 -0.02346391 -0.17908324 0.3195754 -0.14932975 -0.13815884 -0.19044614 -0.13432883
-0.21454464 0.13413222 -0.24004652 -0.20190941 0.030458705 0.083432324 -0.20509377 0.073993035
0.022297217 -0.039039467 -0.12714507 -0.0199623 -0.2019725 0.27898127 0.08059951 0.20022365
0.16815057 -0.19981506 -0.22898616 0.09363279 -0.1483686 -0.32593232 0.1784229 0.049491968
0.050364476 0.15678345 0.28884974 -0.22816192 -0.15140542 -0.13031353 0.025215488 -0.0023136013
0.012553764 -0.0040292 -0.006180289 -0.102170624 -0.113413855 -0.3744075 -0.26254758 -0.09991071
0.07527652 -0.2027644 0.084652945 -0.13112855 -0.078142844 0.035587534 -0.2252218 -0.31955132
-0.27462032 -0.1300521 0.0471433 0.22945917 0.13850804 0.020014191 -0.012259278 0.07503232
-0.26931787 -0.1764935 -0.02979647 -0.08503942 -0.17248411 0.1454713 -0.1334168 0.17294425
-0.12251427 0.13217865 0.15790711 -0.1805011 0.2140201 0.14591683 0.15684165 0.2327843
0.2141168 0.08251069 0.10874232 0.23776534 0.18204114 0.3247394 -0.14524443 0.06700072
-0.17115918 0.0063770064 -0.010488525 0.18464188 0.10206239 0.0986316 -0.008585395 -0.07060432
0.009081184 0.047538694 0.029838346 -0.2411868 0.07687751 -0.06101987 -0.002302529 -0.0075904615
-0.02020466 0.08375723 0.5083849 0.24508096 -0.22103344 0.018114107 0.19131511 0.046980325
0.108037174 0.056149613 -0.25962743 0.23004673 0.29026666 -0.007794612 -0.18819572 -0.12371963
0.22293666 -0.13065173 0.058728956 -0.16281195 0.031107195 0.38302413 -0.055612504 -0.07112431
0.0729825 0.1532287 0.14911143 0.08522112 -0.0151280705 -0.0654514 -0.0003594436 0.030668233
0.06374151 0.23513488 -0.07134302 -0.16947643 -0.046731718 -0.04365901 0.2997704 -0.005086138
0.2248281 -0.07604767 -0.034835428 0.11457428 -0.01657029 -0.050405007 0.18706508 -0.09539347
0.24003744 0.042803917 -0.038044877 0.03144905 -0.056312967 0.2564636 -0.17861195 -0.035244603
0.0757949 -0.13588326 -0.14233203 -0.25457782 0.3133095 0.20477198 0.1091814 -0.1373041
0.074360415 -0.0034746826 0.13319279 -0.042102315 -0.15711905 -0.17112364 0.024507012 -0.09384943
-0.079136714 0.11531478 -0.05680639 0.23038861 0.080538645 0.030445041 0.071415484 -0.32311288
0.18027838 -0.10648679 0.16771783 0.03957273 0.18296914 -0.1579736 -0.1808661 0.0065123355
-0.26260468 0.29994872 0.2312416 0.047033228 0.1451467 0.09893151 -0.116320916 -0.101437576
0.10804781 -0.040886205 0.029795252 0.081547566 -0.0018553126 0.075866945 0.04829942 0.02404704
0.2939604 -0.14761332 0.09541204 0.24403608 -0.10736916 0.22690062 -0.1291068 0.10232713
00000000: 6f26 c6bc bbe4 27bd 8dce e53d 0a42 acbd
00000010: bd50 f03d b3aa f63c 9d1b b6bd 73d2 3cbe
00000020: 944d 103e 684c 013e 9d5a 21bd 5e2d ef3b
00000030: 0589 f0bd 3f43 e7bd baaa 88bc eb96 3a3d
00000040: b1eb a33d 9903 753e c8a5 53be 9487 953e
00000050: 0614 933e ae02 06be f69b f2bd b6d7 773e
00000060: 5860 003e 6f19 12be 90b3 4e3e 9be7 33be
00000070: 5c1b 0d3e faac d53c 35a0 2abe db38 2c3d
00000080: ea18 2ebe a435 4bbd 50b4 12be aa39 ac3d
00000090: 43da 6b3c 5664 273e daec ae3d 371a b93d
000000a0: 0089 743b 6337 c0bc 9961 37be 639f a33e
000000b0: e6e9 18be 8379 0dbe 5004 43be 7f8d 09be
000000c0: 97b1 5bbe f559 093e c1ce 75be 57c1 4ebe
000000d0: 8984 f93c 91de aa3d 1a04 52be a989 973d
000000e0: a7a8 b63c d9e7 1fbd 5132 02be fa87 a3bc
000000f0: e1d1 4ebe a2d6 8e3e 5b11 a53d 6e07 4d3e
00000100: aa2f 2c3e 529c 4cbe 597b 6abe 8cc2 bf3d
00000110: f0ed 17be 9ae0 a6be 7eb4 363e 17b8 4a3d
00000120: fb4a 4e3d d78b 203e 1de4 933e 47a3 69be
00000130: 060a 1bbe e970 05be b690 ce3c ca9f 17bb
00000140: 4dae 4d3c 6107 84bb 0684 cabb d53e d1bd
00000150: 8645 e8bd 57b2 bfbe a36c 86be fc9d ccbd
00000160: 932a 9a3d 79a1 4fbe 865e ad3d 9046 06be
00000170: 5b09 a0bd 3cc4 113d 8ba0 66be 3b9c a3be
00000180: 099b 8cbe 612c 05be 5519 413d 58f7 6a3e
00000190: 0dd5 0d3e cdf4 a33c 24db 48bc 8caa 993d
000001a0: 08e4 89be b6ba 34be ba17 f4bc 2629 aebd
000001b0: ad9f 30be 6ef6 143e 6a9e 08be 4c18 313e
000001c0: c3e8 fabd d759 073e 67b2 213e 48d5 38be
000001d0: 1628 5b3e 396b 153e 199b 203e 025f 6e3e
000001e0: 6f41 5b3e 5dfb a83d 4bb4 de3d c278 733e
000001f0: fe68 3a3e 3e44 a63e f5ba 14be ac37 893d
00000200: 5a44 2fbe 35f6 d03b 10d8 2bbc c312 3d3e
00000210: 1606 d13d 5dff c93d c2a9 0cbc ff98 90bd
00000220: 3fc9 143c efb7 423d 8c6f f43c acf9 76be
00000230: f571 9d3d f9ef 79bd 07e6 16bb 68b9 f8bb
00000240: 3e84 a5bc e988 ab3d 8325 023f 81f6 7a3e
00000250: 9756 62be 0964 943c 1ce8 433e 716e 403d
00000260: 9842 dd3d 23fd 653d e3ed 84be 5f91 6b3e
00000270: d59d 943e f269 ffbb 61b6 40be b860 fdbd
00000280: 8249 643e 91c9 05be c68d 703d 2db8 26be
00000290: 84d4 fe3c bd1b c43e f0c9 63bd 9fa9 91bd
000002a0: d977 953d fce7 1c3e abb0 183e 6988 ae3d
000002b0: badb 77bc 620b 86bd b473 bcb9 f23b fb3c
000002c0: e98a 823d 33c7 703e 4a1c 92bd 3b8b 2dbe
000002d0: c269 3fbd cad3 32bd 827b 993e 9ea9 a6bb
000002e0: 5639 663e e1be 9bbd 98af 0ebd eca5 ea3d
000002f0: 6bbe 87bc 7b75 4ebd fd8d 3f3e a75d c3bd
00000300: 60cc 753e 2953 2f3d f2d4 1bbd b8d0 003d
00000310: 6da8 66bd 324f 833e 0de6 36be a55c 10bd
00000320: 5b3a 9b3d fb24 0bbe 7dbf 11be 0658 82be
00000330: 1a6a a03e bfaf 513e 7f9a df3d 7299 0cbe
00000340: 464a 983d 80b7 63bb b163 083e 7a73 2cbd
00000350: d1e3 20be 093b 2fbe eec2 c83c 2134 c0bd
00000360: 6e12 a2bd 282a ec3d d1ad 68bd feea 6b3e
00000370: 72f1 a43d e167 f93c 4842 923d 0d6f a5be
00000380: e59a 383e bf15 dabd 39be 2b3e 0417 223d
00000390: 435c 3b3e d5c3 21be f734 39be 6e65 d53b
000003a0: 1f74 86be e192 993e 99ca 6c3e eaa5 403d
000003b0: 56a1 143e 9a9c ca3d a939 eebd 81be cfbd
000003c0: 2c48 dd3d 4b78 27bd 2c15 f43c 6902 a73d
000003d0: f62d f3ba 2160 9b3d 9dd5 453d 4cfe c43c
000003e0: fa81 963e f227 17be 6367 c33d 98e4 793e
000003f0: 5de4 dbbd a358 683e 9334 04be e390 d13d

mapper.bias f4 [4]
0.10698887 -0.21390149 0.09252874 0.2200526
00000000: fb1c db3d fe08 5bbe b57f bd3d 7855 613e

head.weight f4 [10, 4]
0.5978199 -0.5867003 0.2835774 0.5502183 -0.799093 -0.34015045 0.6267556 -0.06559045
0.39836708 -0.19809127 -0.23000596 -0.7905347 -0.69999087 0.70286185 -0.5728402 -0.23008105
0.038341515 -0.46294546 -0.61118543 -0.30578476 0.8813586 0.43040764 0.45600525 -0.238127
-0.2881121 0.2549656 0.7634554 0.034942437 0.75321096 0.83239114 -0.707115 0.39382875
-0.77320373 -0.042231943 -0.575431 0.48575553 -0.026116574 -0.49257433 -0.89419895 -0.068575986
00000000: ba0a 193f fe31 16bf 0f31 913e 1bdb 0c3f
00000010: 5c91 4cbf 3328 aebe 0e73 203f 4954 86bd
00000020: c5f6 cb3e 70d8 4abe af86 6bbe 7b60 4abf
00000030: 9a32 33bf c1ee 333f a8a5 12bf 5e9a 6bbe
00000040: fe0b 1d3d 3007 edbe a676 1cbf d28f 9cbe
00000050: b8a0 613f 645e dc3e 8579 e93e 90d7 73be
00000060: 6e83 93be da8a 823e d071 433f cd1f 0f3d
00000070: 6fd2 403f 9617 553f 7d05 35bf eca3 c93e
00000080: aef0 45bf 67fb 2cbd 724f 13bf f3b4 f83e
00000090: 6df2 d5bc b432 fcbe 39ea 64bf 9171 8cbd

head.bias f4 [10]
0.10611558 -0.22309832 0.34936893 0.61245227 -0.38570738 -0.017946718 -0.021692408 -0.2449709
-0.13806911 -0.5832977
00000000: 2053 d93d e373 64be 7ce0 b23e acc9 1c3f
00000010: 707b c5be ff04 93bc 47b4 b1bc a7d9 7abe
00000020: fd61 0dbe 0053 15bf
